model_weights_2.pth (torch, 114364 bytes, 23 tensors)

layer1.weight f4 [75, 68]
00000000: e5a1 e2bd 1078 93bc a495 9bbd db1e ac3d
00000010: 81e6 823d 6247 74bc 4aaa 603d 76b6 123c
00000020: 098a 783d 9bef 7a3d a507 4e3d 57a2 8dbd
00000030: 33cc 8f3d da1c 63bd f22f a03d db22 20bd
00000040: 66a8 53bb 89da a33a 5b3e 4dbd 877b 223c
00000050: 7dbd 963d 4fdb 23bd 6c9c a83d bb4d 3f3d
00000060: 99d8 44bb 517f 6c3d 16ca c13d e6dc d53c
00000070: 31ee dabd b0ad d93d ee97 33bd 7e0c babd
00000080: acc7 9c3c 43b7 343d 01f9 593d 48be f6bc
00000090: 47f6 f1bd 0382 e5bd 8ab4 0dbd 07b5 2dbc
000000a0: f9ae d23d e6a1 c6bd 4bd5 093b d535 82bd
000000b0: a193 bbbd 07a0 dcbd 6847 e4bd eca6 2fbd
000000c0: dc92 353d 0dbc 45bd 1086 9bbd 7a2e a0bd
000000d0: c0b6 f53d 78cc 343d 4682 95bc 394b 52bd
000000e0: 5cae 313d 166a 133d b4b7 81bc b15f d13d
000000f0: d72d 85bd a7f8 7bbc 38f9 ccbd f735 cdbd
00000100: f5e6 7838 9b8d 993d 756c dabd bc85 18bd
00000110: b0fb d3bd e60d c43c d9a9 b33b 97ed e1bd
00000120: 73e4 c4bd 16dd a43d 852f 7e3c be49 343d
00000130: e5f2 023d 1643 72bd 5bfd 0ebc f807 f2bd
00000140: 8603 5abd 03c7 023d 6ca7 e93d 7e0f aebd
00000150: c5d6 c6bc 36d5 d2bd 09ca 213d e1ac 61bd
00000160: 7d32 1bbc 8b68 93bd 608c 56bd b78e 12bd
00000170: ffe4 f4bd daa0 dfbd 67b2 e4bb 36fa 3dbb
00000180: 5643 00bd 9c05 dcbd 9868 95bd 1aaf f33c
00000190: 2ebb a93d 97f0 913d bfb9 a4bd 8ef1 293b
000001a0: d090 97bd e302 4a3d 5ba2 d83d 6316 22bd
000001b0: 028e c8bd 992b 683c 40f4 a43d ff4e 6bbc
000001c0: cc16 33bd e0b2 bcbd dc08 e9bd 0db4 923d
000001d0: aa92 6b3c a0e6 0cbc 75ac c1bd 62ec 86bd
000001e0: bd9a 3bbd b204 dfbd df80 973c 4900 9cbd
000001f0: 7afc 863c 9f07 38bd e449 1bbd dd5a a5bc
00000200: 01f9 ecbd 3f29 89bc 5c49 73bd c3c9 c4bd
00000210: c435 7ebd d323 963d 0e3a 223d a5c5 0f3d
00000220: ccb5 db3f 5367 a0c0 513d 1b40 17da 44c1
00000230: 6775 0a40 dbbd 1dbc 091c 103e 252a b9bc
00000240: 39eb 86bd acd4 da3d dd67 7fbc e69a 4ebe
00000250: f154 c4bd 33c4 1b3e 0e6d 7ebe ac64 6fbe
00000260: 0062 1f40 1697 8fbe 0079 9cbe 4ada 40bf
00000270: 347d 5fbe b93e 06be 33be 9cbe e51c ffbc
00000280: 831f 343d 24a6 a6bc 82c4 42be 6de7 74be
00000290: cf0e 57bd c772 11be 1a1d 53bc 338a 1cbe
000002a0: 9a9f 053f 132e 9d3c e879 f43d 3a5f dcbd
000002b0: ff8c f9bd fab9 80be ca73 213c 44ed 97bc
000002c0: 57e1 4fbc a158 263c 99a8 20be ea27 cb3d
000002d0: 289b e93c 1f57 383c 3831 003c a7d8 b6bd
000002e0: e2ab c43c 790e 8dbd 0055 5e3d bec0 30be
000002f0: 855f 603d 7bda e5bd 4b49 0abd db9d 93be
00000300: 0fdf 8bbe f18f 5e3f b228 b8bd 5802 93bd
00000310: 6376 3ebc 9f88 63bf 58c4 f5bd feb8 10be
00000320: a270 8abc 32e3 34be f002 6dbe 138e d2be
00000330: f895 4ebd 7828 9a3e c71e 403e d91d 843e
00000340: c547 1fbf 95af a33b 9e17 35bb adeb b4bb
00000350: 3647 053b f6ac 953d d217 443d 75a3 be3d
00000360: c1a1 b6bd 58fb 983d 46bb 743d b8ba 6fbc
00000370: 923d 84bd 5360 343d 5b36 b1b9 37b6 8dbd
00000380: 981f a6bd d564 2f3d e19f ee3d 148a 963d
00000390: ecc0 3a3d 019c 753d 73bd 093d b115 b4bc
000003a0: e125 523d f568 843d 5f1a 0dbd 654c c6bd
000003b0: ceb3 54bd 24ed c8bd b76c 8e3d 7885 9f3b
000003c0: 152e a6bd c4f0 a03d a6e7 273d 7ff3 c53d
000003d0: 2bd4 a5bd 4dc1 20bd 7dd4 b03d 4abb 46bb
000003e0: b6e8 bc3d 013f 38bd 6b9c 383c 9391 b9bd
000003f0: bdaf 9ebd 3540 ae3b 46e2 02bd 6590 c6bd
-0.11066035 -0.018001586 -0.07596901 0.08404323 0.063916214 -0.014909597 0.0548499 0.008954635
0.060678516 0.06126366 0.05030026 -0.069157295 0.0702137 -0.055447437 0.07821645 -0.03909574
-0.0032296418 0.0012501042 -0.050108295 0.0099171465 0.07360361 -0.04000407 0.0823296 0.04670499
-0.0030036329 0.057738606 0.09462373 0.02610631 -0.10689963 0.106288314 -0.043846063 -0.09084414
0.01913818 0.044120084 0.053215984 -0.03012003 -0.11814552 -0.112064384 -0.034596004 -0.010602242
0.1028728 -0.096988484 0.0021031674 -0.06357924 -0.09159017 -0.1077271 -0.11146432 -0.0428838
0.04432951 -0.048275042 -0.0759393 -0.07821365 0.119977474 0.04414031 -0.018250596 -0.05134127
0.043379173 0.035989843 -0.015834667 0.1022333 -0.06502884 -0.015379108 -0.10008472 -0.100200586
5.9342903e-05 0.07497712 -0.10665218 -0.037236914 -0.1035074 0.023932409 0.005482894 -0.11031645
-0.09613886 0.08049981 0.015514259 0.04401564 0.031969924 -0.05914601 -0.008727397 -0.11817926
-0.053226016 0.031928074 0.11408886 -0.08499049 -0.024272332 -0.10294573 0.039499316 -0.05509651
-0.009472487 -0.07197674 -0.052379966 -0.035780635 -0.1195774 -0.10919352 -0.006979275 -0.0028988249
-0.031314217 -0.107432574 -0.0729534 0.02974658 0.08287655 0.07125967 -0.08043241 0.0025931331
-0.07400668 0.04931916 0.10577842 -0.03957213 -0.09792711 0.014170551 0.080543995 -0.014362096
-0.043722913 -0.09213805 -0.11378643 0.07163248 0.014378229 -0.008599907 -0.09456722 -0.06588055
-0.045801867 -0.108895674 0.018494068 -0.07617242 0.016477812 -0.044929143 -0.037912264 -0.020184929
-0.11570931 -0.0167433 -0.059396133 -0.096087955 -0.062062994 0.07331052 0.039606147 0.035100598
1.7164855 -5.012613 2.4256175 -12.303245 2.1634157 -0.009627785 0.14073195 -0.022603104
-0.06587834 0.10685095 -0.015588728 -0.20176277 -0.09586514 0.15211563 -0.24846289 -0.23378247
2.4903564 -0.28044957 -0.30561066 -0.7533308 -0.21825105 -0.13109864 -0.3061386 -0.031141708
0.043975364 -0.020342894 -0.19020274 -0.23916407 -0.052504357 -0.1420394 -0.012885356 -0.15287094
0.5219666 0.019187009 0.11937314 -0.107603505 -0.12185096 -0.2514189 0.009854266 -0.018545754
-0.012688003 0.010152967 -0.15689315 0.099197224 0.028516367 0.01125124 0.007824235 -0.08928042
0.024007741 -0.06887526 0.05428028 -0.17261025 0.054778595 -0.112233125 -0.033761304 -0.28831372
-0.27318618 0.8693839 -0.08992137 -0.071781814 -0.011624905 -0.8888034 -0.1200034 -0.14133069
-0.01689941 -0.17664793 -0.23145652 -0.4112402 -0.05043599 0.30109 0.1876174 0.25804022
-0.62218887 0.0049952962 -0.0027632485 -0.005521259 0.0020336634 0.0730838 0.04787428 0.09308521
-0.08917571 0.07469815 0.05974891 -0.01463192 -0.06457056 0.044037174 -0.0003380057 -0.0691952
-0.08111495 0.04282077 0.11651588 0.07350555 0.04559414 0.05996323 0.03362794 -0.021983
0.051305655 0.064653315 -0.034448978 -0.0968254 -0.051929288 -0.09810856 0.069543295 0.0048682056
-0.08114258 0.078584224 0.0409924 0.09665584 -0.080971085 -0.039246846 0.08634279 -0.0030324035
0.092240736 -0.04498196 0.011267762 -0.09060969 -0.07748363 0.0053177127 -0.031954072 -0.0969551

layer1.bias f4 [75]
00000000: c30c ca3d c19f aa3c 7fc7 173d 7a5f 363d
00000010: c9d5 b7bd 981a 8cbd dbc1 663c 576d e93d
00000020: 3dc3 d9bc 9cce 5fbd bcb5 273d b850 8cbd
00000030: 4210 a43c 0705 d73a 24f6 d23d 3f79 e83d
00000040: e67b 8f3c 0026 a73d 3a9e 4f3b 8e5c 9d3d
00000050: 2ba1 3dbc d6f9 6a3d 98cd 81bd 550c c5bd
00000060: 6f89 3dbb 29b8 e63d 3f11 cbbd 9b7b 9b3d
00000070: 5e4a 693d 38d3 3cbd 87a5 983d dd15 d53c
00000080: ade9 623d cabd ab3d 53e8 c5bd 49bc 6cbd
00000090: a3f9 143d b739 07bd f1b9 c5bc c8f0 c43d
000000a0: 3d58 f43d 489a d83d 0591 5c3c 1045 d63d
000000b0: 92fe c13d e80a f3bd 4a37 39bd 5f78 b53c
000000c0: d8fe 56bd 1e56 ed3d f07f a2bd 1f88 c73d
000000d0: 2a58 193d 320b a63d 211d d2bd bb2f 4c3d
000000e0: 2551 a239 e5c2 5bbd 2622 f6bd a6db a5bd
000000f0: 85c8 85bd 16bc a73d dce8 dbbd 6450 aabd
00000100: 7734 f7bd a158 f43d dda7 853d f56c 95bd
00000110: 45d8 aa3d bedb 813d 50fe d4bd 9af3 cbbd
00000120: e33a 12bb 4590 ca3d 22fa 62bd
0.09865715 0.02082813 0.03705549 0.044524647 -0.08976323 -0.0684101 0.014084305 0.11397808
-0.026582355 -0.054640397 0.0409448 -0.068513334 0.020027284 0.0016404697 0.10300854 0.11351251
0.017515134 0.08161545 0.0031680004 0.07683669 -0.01157407 0.05736717 -0.06338042 -0.09621493
-0.0028921028 0.112655945 -0.09915399 0.07591935 0.056955688 -0.04609987 0.07453447 0.026011402
0.05539863 0.08385809 -0.09663453 -0.05779675 0.036370885 -0.033014026 -0.024136515 0.09616238
0.119308926 0.10576302 0.01346231 0.104623914 0.094723836 -0.118673146 -0.045218743 0.022152124
-0.05248913 0.11588691 -0.079345584 0.0974276 0.037437595 0.08107604 -0.10259462 0.049850207
0.00030959505 -0.053652663 -0.12018232 -0.08098535 -0.06532387 0.081901714 -0.10737774 -0.083161145
-0.12070554 0.11930967 0.06526158 -0.072961725 0.083420314 0.063407406 -0.10400069 -0.09958573
-0.0022312931 0.098907985 -0.055414326

layer2.weight f4 [100, 75]
00000000: dec2 003b 5d74 fcbc c32f f03d 98be c23d
00000010: 0297 d73c 8077 a03d eea3 eabd 883b 61bd
00000020: 86a4 443d bc43 813c 10fd a93d 83e5 7ebd
00000030: 99ab e13c 965a 77bd 3517 c03c ffc9 1abc
00000040: 5d10 dfbc 3024 a03c a285 8cbd 0145 be3d
00000050: ba71 073d 3724 b93c e2c2 043d ee06 733d
00000060: 04d6 0bbd acd9 0ebd 93c1 75bd 76b2 6cbc
00000070: c954 aa3d 2b38 f83d 6b0f b23d 7284 223e
00000080: 307c 5c3d fba1 ffbd 69d7 a3ba 813a c0bd
00000090: c92c ffbd 3771 8e3d 1c3c d8bd bc7a bf3d
000000a0: eb05 653e 8dfd 3bbc 1ce9 bdbc e725 c13b
000000b0: 39c3 083d abdf 21bd 4d9d ae3d 09f5 6b3d
000000c0: 0b16 db3d f854 f53d 6a4d 2fbd 5459 e03c
000000d0: ef8b 823d 8b6c 603d 7335 7bbd 8fb5 bebd
000000e0: 17a2 6ebd 3a3c afbd e02d 37bb a2d9 82bd
000000f0: 85ce b2bd 54b1 82bd 72f3 773d 8505 8a3b
00000100: 5973 a3bd 73ee cebc a3f9 f4bc 7920 393e
00000110: 28b6 8e3d 1c65 53bd 9fa4 783d ad64 1f3e
00000120: 29b7 cfbc 8425 84bd 247a af3d a444 bc3d
00000130: 69c0 093f 3f5b 4fbf f7ce 98be 48e3 193f
00000140: aacb 83be 3159 75be 6a5b e1bf 569c 9cbe
00000150: 1485 07c0 f127 8dbc dcea 6140 10e2 ef3e
00000160: 217e c53f 5344 0bc0 bc8e 2dbf 9a86 adbf
00000170: 4fba 373f 40e0 143e 5896 40bf ceea 7fbf
00000180: 6944 fabe 7c61 6140 d8e0 0dbf 9c7b 24be
00000190: b356 3240 0721 78bf 396d d73d fa4f 053f
000001a0: 89a2 efbe a639 bf3d d339 b73f 4640 7e3f
000001b0: a207 abbf 4586 bfbf 16b9 2cbf 41d9 793e
000001c0: 1dc7 823e 347c 1abf cb73 28bf 94e0 9b3c
000001d0: 8fdd c53e 356b a03f 0d07 e6be 3898 98bf
000001e0: caff 463f bf59 d13f 2e82 f3be 1ce4 9240
000001f0: f2d8 5440 8424 9d3c 275b c63f a6b4 4a3e
00000200: 85f4 393e a725 c7bf 370f 26be 5a4f 21bf
00000210: a4d0 ecbe 3a6f be3f 1abe fdbf 3fd9 0f41
00000220: c7cb 74c0 d0d6 2540 2ea0 c3c0 634a 2a3f
00000230: f198 26bf 905f 7dbf ab8f 2f40 ab53 6840
00000240: 7af9 0b3f e090 7abf 8e7d 7b3f f4b4 2fbf
00000250: 9506 6b40 2337 ae3f c727 99bd 3121 1dbe
00000260: ffaa 403f 2e68 92bc 40b3 abbf e87a 293c
00000270: 2f27 ab3d c279 c43e d8a0 e83d ae0b c93e
00000280: ba5b ca3e feb1 52bf 39bd aabd 879b 44bf
00000290: 39b1 bd3e 9005 0b3e 1100 753e a09c 62be
000002a0: 064b 733d e7d7 803e 584e ba3d 9b42 5fbd
000002b0: 178f 60bf f3b6 263e cb99 c13d 18ec 943e
000002c0: 226a 3f3e 7f45 d73d ed08 24be b924 b93e
000002d0: a2be 5bbd 2541 6ebe c7e4 98be 5438 613e
000002e0: 10cb 893e 94c6 693e e15f 693f 5bbb 00be
000002f0: bd5f ca3d 6a99 b13d 5b51 acbe 0c8f 0abe
00000300: c19b d7be 8804 853d eade 1a3e 8c83 0ebd
00000310: cb97 6cbe 4658 2240 92d8 31bf 9002 9dbf
00000320: 1bd2 203e 9a0c c53e 720c 0cbb 6e35 d73c
00000330: 75e5 913e 5601 2d3e 528e 97bc bf6e 3c3e
00000340: 1aba b4be d5a2 f33e 6deb a6bf 2582 c83e
00000350: 44e3 d8bd 5887 5f3f 1c66 55bd 3c27 c83d
00000360: 08bf 433e c414 f0bf 572c 49be 85de b8bd
00000370: 8f5a 0f3e a8bf d8bd d1f5 973d 0b33 03bf
00000380: f140 a8be 5157 62be ce38 1bbe 5429 2e3f
00000390: 1c8a dc3e 73bc 84bf 23d4 253d e23b 89be
000003a0: c593 193f 02cf 3f3d 17c0 913f 7a86 6f3f
000003b0: 00f3 893c 6bda 50be 8328 37bf 5d7f 383f
000003c0: 362d 103d 42f7 b13e 1bb1 67be d9d5 88bd
000003d0: 2c32 6d3c 27d9 cc3e 4d71 f63d 0d15 883e
000003e0: baa8 93bd ad79 bc3d f693 9e3e 5b64 02bd
000003f0: 3b5c 00be 5f94 d53d 31d7 133f 575c 4cbd
0.00196474 -0.030817205 0.1172786 0.09509009 0.026317123 0.07835293 -0.11457048 -0.054988414
0.048008464 0.015779369 0.08300221 -0.0622306 0.027547644 -0.060389124 0.023448566 -0.009447574
-0.027229482 0.019548506 -0.06861426 0.09290505 0.033067442 0.022600276 0.032412417 0.05933278
-0.034139648 -0.034875557 -0.05999906 -0.014446845 0.08316953 0.12120088 0.08694347 0.15870836
0.053829372 -0.12482067 -0.001250011 -0.09386159 -0.12459714 0.06955188 -0.1055834 0.093495816
0.22365539 -0.011474025 -0.023182444 0.005894411 0.033389304 -0.039519947 0.085260965 0.05760673
0.10697564 0.11979097 -0.042798437 0.027386345 0.063743465 0.054791015 -0.06133027 -0.09311973
-0.05826005 -0.08556409 -0.0027950928 -0.063891664 -0.08730797 -0.06381479 0.060534902 0.0042120838
-0.07980985 -0.025260186 -0.029904192 0.18078794 0.06968337 -0.051610097 0.06070387 0.15565749
-0.025355892 -0.06452468 0.08568218 0.0919278 0.5380922 -0.80998605 -0.29845402 0.6011243
-0.2574132 -0.23959805 -1.7606022 -0.30588025 -2.1174974 -0.01723096 3.5299597 0.4685216
1.5429116 -2.1760452 -0.6779592 -1.3556702 0.7176866 0.1453867 -0.75229406 -0.9996766
-0.48880318 3.521575 -0.5542121 -0.16062778 2.7865417 -0.96925396 0.105188794 0.5207516
-0.46803692 0.093371674 1.4314522 0.99316823 -1.3361704 -1.4962851 -0.6746992 0.24399282
0.25542536 -0.6034577 -0.65801686 0.019027986 0.38645598 1.2532717 -0.44927254 -1.1921453
0.77734053 1.6355513 -0.47560257 4.5903454 3.3257413 0.019182451 1.5496567 0.19795474
0.18159683 -1.5558366 -0.16216742 -0.63011706 -0.4625293 1.4877694 -1.9823639 8.990539
-3.8249376 2.591236 -6.113303 0.66519755 -0.6507712 -0.9897394 2.7431438 3.6301067
0.54677546 -0.9787731 0.98238456 -0.6863549 3.6722767 1.3610576 -0.0747829 -0.15344693
0.7526092 -0.017871942 -1.3414078 0.010344245 0.08357083 0.38374144 0.113588035 0.39266723
0.39523107 -0.82302845 -0.083368726 -0.76799816 0.37049273 0.1357634 0.23925807 -0.2213006
0.05939772 0.2516472 0.09096974 -0.05450688 -0.8771834 0.16280727 0.09453162 0.29086375
0.1869283 0.10511302 -0.1601903 0.3616083 -0.0536486 -0.23267038 -0.29862043 0.21994144
0.26912737 0.22829658 0.91161925 -0.1257147 0.09881542 0.086718395 -0.3365582 -0.1353113
-0.42111018 0.06495005 0.15124097 -0.03479342 -0.2310478 2.5366378 -0.69471085 -1.2266407
0.15705149 0.38486177 -0.0021369723 0.026270594 0.28495374 0.16895041 -0.01850048 0.18401621
-0.35298234 0.47585168 -1.3040596 0.39161792 -0.105902225 0.87315893 -0.052099332 0.09773108
0.19115841 -1.8756337 -0.1964582 -0.09026817 0.13999389 -0.105834305 0.07419933 -0.5124976
-0.32862046 -0.22103621 -0.15158388 0.6803181 0.4307412 -1.037001 0.040485512 -0.268035
0.59991103 0.046828277 1.1386746 0.9356457 0.016839504 -0.2039582 -0.7154619 0.7206934
0.035199367 0.34758955 -0.22626154 -0.06681413 0.014477294 0.40009424 0.12033329 0.2657856
-0.072099164 0.09202895 0.3097226 -0.031833988 -0.12535183 0.1042869 0.5775023 -0.04989275

layer2.bias f4 [100]
00000000: 60e6 25be de6c 223f 6174 69bf 2836 c1be
00000010: dbbc 34bf 2891 3ebf 48d6 babf fdca 9bbe
00000020: 9345 a0bd dc00 213f 7363 67be 410e 16be
00000030: f02d 383c 6937 34bf 4cb3 66be 7a46 f93d
00000040: 773e 4a3d b0ea 93be 888e c5bf 64fc 34bf
00000050: 54d4 88be a9ea 8b3e 23ea 89be a1ad 9dbd
00000060: 0bbd 8ebe 551f 2cbf abf2 e7bd e2d7 d3be
00000070: 1e28 d6be 56dd 21bf 9642 a4be 8e35 70bf
00000080: 69ca f6c0 690c 6ebe f692 ffbc 8de8 50be
00000090: 78c8 58bf 9200 e0bd aa47 08bf 3385 43bf
000000a0: 984b b0bf a5b6 dabf 58be e2bd 0d62 9fbd
000000b0: bdbf 22be f465 083d 77fc c4be f910 d13e
000000c0: c51e 0f3e fe51 b7be 104c 0f3e 1060 3fbf
000000d0: 9c61 0ebf 308f eabd 7609 37bf 9536 eabe
000000e0: eb4a 69be e308 06bf ce80 f9be f637 8f3c
000000f0: e0c9 8abd 7986 51bf 3957 81bf dcc6 6240
00000100: edfd ffbe e260 7cbe 64bd 12be 3dbc 50be
00000110: 364f 2ebe fed8 ba3d 3a79 62bd a5c6 a0bf
00000120: 3df5 a8bd 6864 6dbe 4079 a6bf 421b 17bf
00000130: ffcb 26bf 3d33 83bf 6ce1 a4be 95eb 1dbf
00000140: 0889 c2be 13a2 18bf ed3f dfbe 6ef2 81be
00000150: a923 9cbf 70c4 27be 235f c43f 4d12 9ebf
00000160: c085 15be ee73 a3be 5c37 0cbf 54eb 78be
00000170: f0d4 163f 3eed 97bf 7b32 aabf e3db 3abe
00000180: 29fc 1abf 8f73 4cbf 6959 8abe a3dd 3abe
-0.16201162 0.6344737 -0.91193205 -0.3773663 -0.7060067 -0.7444024 -1.4596643 -0.30428305
-0.0782577 0.62891936 -0.2259653 -0.14653875 0.011241421 -0.7039705 -0.22529334 0.121716455
0.049375977 -0.2888999 -1.5434122 -0.7069762 -0.26724494 0.2732747 -0.26936445 -0.07699133
-0.27878603 -0.6723531 -0.11325582 -0.41375643 -0.41827482 -0.63228357 -0.3208205 -0.9383172
-7.7122083 -0.23246922 -0.031198006 -0.20401211 -0.8468089 -0.10937609 -0.5323435 -0.7637512
-1.3773069 -1.7086989 -0.110714614 -0.077823736 -0.15893455 0.033300355 -0.38473865 0.40833262
0.13976581 -0.35804743 0.1399386 -0.74755955 -0.5561769 -0.11453092 -0.7149881 -0.45744768
-0.22782485 -0.5235731 -0.48731083 0.017482739 -0.06776786 -0.81845814 -1.0104743 3.5433874
-0.49998417 -0.24646333 -0.1433006 -0.20384307 -0.17022404 0.09123419 -0.055291392 -1.2560622
-0.082499005 -0.23182833 -1.3005753 -0.5902597 -0.65155023 -1.0250012 -0.32203233 -0.61687595
-0.37995172 -0.59622306 -0.4360346 -0.25380272 -1.2198383 -0.16383529 1.5341533 -1.2349335
-0.14601803 -0.31924385 -0.5477197 -0.2430852 0.58918667 -1.1869276 -1.3296655 -0.18247943
-0.60541016 -0.7986383 -0.2702134 -0.1824861

layer3.weight f4 [75, 100]
00000000: b57f b03d a40e 2e3f 9e3d cf3c 594e 023d
00000010: 260f 2b3d 7280 8c3d a427 a93d c4fd 1cbe
00000020: dce1 7e3a 4232 a73f 643f 803d bfa9 f73e
00000030: c529 1e3e 19a0 19bd 1621 8e3c 21ba a5bd
00000040: e42d 93bd 36c4 853d 7ac7 1a3f 6e7f d2bd
00000050: 7e20 9cbc b077 9b3c 4d14 0a3d f3bf eaba
00000060: fc57 9bbd d01b 893d 0f6e b8bc 26d8 2ebe
00000070: 6988 b93d b499 9fbd 4653 2c3d eef8 87bd
00000080: 32dc fd3e 4e11 6bbd 1c35 31bd d6a2 833d
00000090: f9cc 293d 4086 673d c44f 853d f10d 713e
000000a0: 27dd 27be eaaa 32be d390 49be cb15 09be
000000b0: 3ee3 893b 2192 73bd 63b7 773d ae3d bd3c
000000c0: 83bb 1bbd 6576 9440 4f11 e6bd fb2f 2b3b
000000d0: 1f89 233e b92a 17be facf 22bd c6b3 d3be
000000e0: 2764 323e 26d0 763d 7e87 6fbe 60b8 1bbc
000000f0: d413 573d 3f9d 2a3d 0b79 8f3d af24 9140
00000100: 6254 003d 9e98 cebb 0952 173d 35f3 5d3e
00000110: 7b08 31bd 2ff6 18be 30c0 6ebd c612 8140
00000120: 3e48 90bd 8e58 8c3d bc28 23bd 6179 e8be
00000130: d32e a3bd a064 5e3e d1c1 27bd 2a4c 2abe
00000140: 1972 b7bd 42a8 563b 1aa3 2fbe 09a2 963d
00000150: 5fea 5ebe 0a04 753d 145d c63f d270 8fbd
00000160: b445 17be d994 193d 98c5 d33d 262a ae3d
00000170: 830c cc3f d1ff 4dbd ea86 083e 7ee1 b7bb
00000180: ee0e dcbd 5e3c 01be b636 f5bc 2dab e3bd
00000190: feef a5bd 30ee 6e41 e298 00bf 3793 383e
000001a0: c4cb 65be ce3b 0440 8d95 ef3e ec2a 0941
000001b0: 4da4 8cbe 6552 6f3f 8701 f03c 6e44 7140
000001c0: 11b5 bd3f 287a 87be 24ba 103e eb98 58be
000001d0: 969f 463e f8cc d7bd 2e16 9b40 d041 7ebf
000001e0: fd82 8a3e 3896 653f 280b 5a3f 61df 213f
000001f0: 289d 5cbd 9d3d 103e 08a9 db3f 3449 52bf
00000200: f877 d9bc 0a4c 833e 6563 b5be 02eb 733d
00000210: acd9 a3c1 9858 9d3d 66bb fdbc b4f3 98be
00000220: 51f4 38be c103 203e b29f 4fbe c54f 693d
00000230: a291 4d40 d720 d8bf cc02 a0be 345e 8c3d
00000240: 2cdc a13c f612 a83d f1ea 2ebe ba32 b5c0
00000250: ec9e b63f 8c24 2f40 6671 ee3e b5f3 ea3d
00000260: 3bcf ebbc b8d8 adbd c313 91bd 76da b1c0
00000270: d9be 6d3f a04f 1b3f 4705 dfbe 06c8 bdbe
00000280: a275 6e3e 62c1 ba3f 12f7 26be 1235 f3be
00000290: e048 0bbe 176f 0c3f ffdd dcbd 82e2 013d
000002a0: 7c08 1940 89ba fabe 3e41 6e3e d946 2940
000002b0: 91d4 1bbf 0ceb 0ebe bb82 23bf e679 b23f
000002c0: bc5c b43e 4b7d 15be ef44 8f3a 9416 98bf
000002d0: d26b c4be 961c 003f b969 27bf c1c3 45bc
000002e0: a7e7 5f40 be60 81bc 8de6 5f3f 221d 8e3d
000002f0: a04f 803d 5eee c43e e245 1dbf 43c9 56be
00000300: 092c a33f 09f0 923f 4999 833f 61be b13d
00000310: 4cdf 8940 6841 68bf 5fec debe 53a3 84be
00000320: e78c 953a 932c abc1 68f1 aa3e 7171 953f
00000330: 646d 243f 41f1 91c0 d4e5 0440 3748 5941
00000340: 3db6 4abe a2d5 1f3f 4437 d33e 611a e5c0
00000350: efd7 3940 0635 07bf 1dd3 983e 1467 283c
00000360: b62d a8be 5864 c93e bc17 253f d087 7f3f
00000370: 10a5 17be 9acf 843f 03b7 b53e c1be 4840
00000380: 9428 7d3f 1f5e 4d40 da1e c03f f965 4abf
00000390: 5d06 773f 5c10 a53e b446 8f3d d702 183f
000003a0: 23d9 4e3f cf11 b63c 39a6 7ebe f198 e53e
000003b0: 6003 973c b62c ab3e 4767 f43e d869 773f
000003c0: d490 6d40 32d0 ab3e 9eb1 bcbe 4ccd d23f
000003d0: c3fa e6bc 7980 373e 0a55 303f ae46 e8bf
000003e0: 8465 4340 c6de bdc0 8a92 9240 4813 3f3e
000003f0: e6e0 203f 441d 293e 85cd 693f b953 d7bf
0.08618108 0.6799109 0.025297936 0.031813 0.041762494 0.068604365 0.08259514 -0.15331179
0.0009722987 1.3062212 0.06262091 0.48371693 0.15445621 -0.037506197 0.017349761 -0.08092142
-0.07186487 0.06531565 0.6046063 -0.102782115 -0.019058462 0.01897797 0.033710767 -0.0017909989
-0.07585141 0.06694758 -0.022513418 -0.17074642 0.09059221 -0.077929884 0.042071603 -0.066392764
0.49582058 -0.05738955 -0.04326354 0.06427543 0.041455243 0.056524515 0.06509355 0.23540474
-0.16392957 -0.17448011 -0.19684152 -0.1338722 0.0042079976 -0.05946553 0.060477626 0.0231007
-0.038020622 4.6394525 -0.1123377 0.0026121128 0.15970276 -0.14762391 -0.039749123 -0.41348094
0.17421018 0.0602571 -0.2339153 -0.009504408 0.052509144 0.041653868 0.07005509 4.535728
0.031330474 -0.0063048145 0.03694347 0.21674807 -0.04322098 -0.14937662 -0.058288753 4.0335417
-0.07045029 0.06852828 -0.03983377 -0.45405105 -0.079679154 0.21718073 -0.040956322 -0.16630617
-0.08957309 0.0032754098 -0.17152062 0.073551245 -0.21769093 0.059818305 1.5497155 -0.07003941
-0.14772683 0.037495468 0.103404224 0.08504133 1.5941318 -0.050292794 0.13332716 -0.0056115976
-0.10745035 -0.12620685 -0.029933315 -0.111166336 -0.081024155 14.933151 -0.5023328 0.18024908
-0.22441012 2.0661502 0.46793786 8.572979 -0.27469102 0.934851 0.029297603 3.7698016
1.4820882 -0.26460385 0.14133507 -0.21152084 0.19396815 -0.105371416 4.8464575 -0.9931917
0.2705306 0.8968234 0.85173273 0.63231474 -0.053860813 0.14086004 1.7160959 -0.8214295
-0.026546463 0.2564395 -0.35427395 0.059550293 -20.481285 0.076829135 -0.030973148 -0.2987343
-0.1806195 0.15626432 -0.20275763 0.05696084 3.2120137 -1.6885022 -0.31252134 0.06853905
0.019758306 0.082067415 -0.1708181 -5.662442 1.4267249 2.7366056 0.4657089 0.11472265
-0.028785339 -0.084886014 -0.070838474 -5.5579176 0.92869335 0.60668373 -0.43558714 -0.37066668
0.23287061 1.4590266 -0.16305187 -0.47501427 -0.13602018 0.5485701 -0.1078453 0.031710155
2.3911428 -0.4897044 0.23267075 2.6449492 -0.60871226 -0.13956851 -0.63871354 1.394345
0.35227 -0.14598577 0.0010930578 -1.188189 -0.3836351 0.5004362 -0.65395695 -0.012070597
3.498514 -0.0157932 0.8746117 0.069391504 0.06265187 0.3846311 -0.6143476 -0.20975213
1.2747813 1.1479503 1.0281154 0.0867889 4.308508 -0.907248 -0.43539712 -0.25905856
0.001140979 -21.396765 0.33387303 1.1675245 0.64229417 -4.5607 2.0765276 13.580131
-0.19796081 0.6243535 0.41253102 -7.15947 2.9038045 -0.5281528 0.29848567 0.010278482
-0.32847375 0.3933437 0.6448934 0.9981661 -0.1480906 1.0375855 0.3549119 3.1366427
0.9889004 3.2088697 1.5009415 -0.7906185 0.96494085 0.32239044 0.069959074 0.59379333
0.80800074 0.022225289 -0.24868096 0.44843248 0.018434227 0.3343255 0.47735044 0.9664588
3.7119646 0.33557278 -0.3685426 1.6468902 -0.028195744 0.17920102 0.6887976 -1.814657
3.053071 -5.933444 4.580388 0.18659699 0.6284317 0.1651507 0.9132922 -1.6822425

layer3.bias f4 [75]
00000000: a826 a6bd 8300 5d3f 7496 983d d0f8 bdbd
00000010: 6dd0 af3e 4e55 aabd dac8 bebd 434f 12bf
00000020: 30ab 8dbd 189b 6bbe 9638 d8bd c2c1 c83d
00000030: fe53 4cbf f07e 13be 6f34 a1be 4ab8 ccbe
00000040: bf0b d53e 3e5a afbd 4b70 15c0 c410 24be
00000050: b839 233e 7381 153f 4df4 a2bd c585 7abf
00000060: df0a 12be 3631 693e 979d 9abe 1dda 1ebe
00000070: 09f7 b1bc cf97 ce3b 3d0c 05bf 074d 47bd
00000080: 718e e5be d5a0 f6bd 69db 68be 3bdb ccbe
00000090: 4af1 8bbf cc5d 6cbf 34ef c3bd 05dd 1ebd
000000a0: 1398 483f 0945 c8bd 6008 873e b79e 11be
000000b0: 9c10 1fbc 15de e6bc 6267 21bf 9f28 a53b
000000c0: 90f3 b0be d535 1040 25dc 2fc0 d9f1 fdbd
000000d0: 7216 3dc0 824e 203c a1f3 f3bd 4086 5740
000000e0: 1ade 94be e8a6 093e ecb4 28be 9ab2 a13c
000000f0: 321c 01bf cf35 85bc 7317 7d3e 0923 edbe
00000100: 277c 97bd 36a4 723e 1661 213f 3497 dfbd
00000110: 4aa1 ffbd ad30 c2bd 8445 823e 07af 023f
00000120: 20fb bfbb cdde 93be 1aff efbd
-0.08112842 0.86328906 0.07450572 -0.09275973 0.34338704 -0.08317052 -0.09315653 -0.57152194
-0.06917417 -0.23008382 -0.10557668 0.09802581 -0.7981566 -0.14403892 -0.31485316 -0.3998435
0.41610524 -0.08562134 -2.3349788 -0.1602202 0.15939987 0.5840065 -0.07956753 -0.97860366
-0.1426196 0.22772679 -0.30198357 -0.15512891 -0.02172424 0.006304718 -0.519718 -0.048657443
-0.44835237 -0.12042395 -0.22739948 -0.4001101 -1.093301 -0.9233062 -0.09567109 -0.038785
0.78357047 -0.097787924 0.26373577 -0.14220701 -0.00970855 -0.028182069 -0.63048375 0.005040243
-0.34560823 2.2532856 -2.7478116 -0.123996444 -2.954495 0.009784343 -0.11911703 3.367569
-0.290757 0.13442576 -0.16475266 0.019738484 -0.5043365 -0.01626101 0.24715976 -0.46315792
-0.07396727 0.23695454 0.63038766 -0.109175116 -0.12481935 -0.094819404 0.2544366 0.5104832
-0.005858794 -0.2888092 -0.11718579

layer4.weight f4 [50, 75]
00000000: af9e 01bd 47bd f1bf e54c 99bf 41b0 a1bd
00000010: 41f9 c83c a43c 283e c473 a4bd deba 92bd
00000020: d666 da3d 4133 ca3d 7101 563d acaf 0bbf
00000030: d17e 9fbd 077d 1abc 0198 57bd 6764 c43b
00000040: 04c9 51bf f2cd b4bc 0c7d 49bf fc9b 02be
00000050: 7925 febf 8583 5ebf 2db0 1e3d 6259 9cbc
00000060: 8c7e 9dbe 387c 90bd d780 8ebf e425 b1bf
00000070: efea a53c cee0 cc3d b7b7 07bf c0ee 89bd
00000080: 6c3c 823d 79fa cb3d d628 f7bc 8b56 98bf
00000090: 46ee 833d ba91 59bf b74b ce3d cfae a9bd
000000a0: a7d4 84be 4153 273d c704 89bf 0278 323b
000000b0: 4aff d4bd d182 89bf 7c2e 013d 4285 923d
000000c0: b653 693d c246 d5bf 733a 07c0 7ade c0be
000000d0: f51e 64bd 34f6 9cbd f398 8ebc 2900 f8bf
000000e0: b4cd 943c bd53 12be 2541 5dbd 0bff 1b3d
000000f0: d7ad a63d 71d2 cebe d0ae 53bc eb31 28bf
00000100: 54ed e8bb c0bb 983c 0c0b f0bf fb84 f23c
00000110: 6ff9 61be 52e6 103d 1825 423c 7350 693d
00000120: 58cc 833c 3807 af3c 8a71 84bf c42d 053e
00000130: 7a8b c7be 344f 08c0 f020 0c3d fd22 4bbe
00000140: 8162 16be eba2 abbd cc99 38be 2eba f9be
00000150: 32f2 cbbe e6e9 e3bc b0b9 6ebe c8a2 c6be
00000160: 40fa 8abe 54f8 3bbd c1bc 32bf acd5 45bf
00000170: 5c92 bbbd 6b82 4d3e 3232 0ebd b5dd ee3f
00000180: a105 2abf ea56 e1bc 9d8c 9f3e 835a 58bd
00000190: f22a f8be 3b30 1c3d e7ff 863e 0481 3d3d
000001a0: 7103 19bd a433 59bf bd2b d43c b13c 54bf
000001b0: 49ea dcbd a907 a9be e8b7 37c0 cdc9 ad3e
000001c0: 1c2a 87be 6704 74bc ac5e a2bd 5f9c 07bf
000001d0: 3eed 8abd 3e6a 063e b594 1dbd 6a93 31bf
000001e0: 5208 f83e 84be 993d b848 9dbd 5128 93bd
000001f0: f41e f0bf da02 893f 2575 b7bc 1742 80be
00000200: 6b1b 693d 5359 19bc 7e9a 98be 5599 73bd
00000210: 4d38 0ebf 05a0 263f 0c68 e2bd a636 4bbe
00000220: 0b78 d5bd ab52 d5be e580 dabe 000e 923d
00000230: fbcc 70be 1c0b 76bf 4620 acbd 99b3 02bf
00000240: 1089 e0be 0e10 37be b54e a0bd cf0e a5bd
00000250: 99b0 513d 7d8c e2be 964a 29bc 66d1 563e
00000260: ed20 0e3f bf3e f23c 56eb 8bbc 5e33 edbd
00000270: e19e 603d bc0d 16bf 368a 43bd b6a3 10bd
00000280: 4453 7c3d 7f5c 063e 9723 12be e3b9 f3bd
00000290: c61b 27bd eff1 6cbe 0ca8 bfbe 9547 01bc
000002a0: 4b5e 6cbe 02f6 4bbe 1ec0 703f 8bc0 04be
000002b0: 8dc3 81bd 59c7 99be 0393 253d 2ad4 a1be
000002c0: e679 633e 01b0 f93d 6e91 393c 2294 d1bc
000002d0: 242f 0ebf 798e 933d 6be9 84be f194 8dbd
000002e0: a2b1 ffbe d84b 213e f449 c4bd c44c 3d3d
000002f0: 144a 853c 34bb 8dbe 5902 b1bf 11fa e23d
00000300: cbc4 c8bd 81fa b9ba f17c f03c f0b6 143d
00000310: d5f7 d03d 982f f93c a3f3 2abd d526 51bf
00000320: cf30 88be 7025 c9bd 2fda a23c 085b dbbd
00000330: 1f8a ddbb bba5 5c3e 5686 07bd ed14 61be
00000340: 8332 c63c a60b efbd 38b3 07bd 5b4a b0bd
00000350: 73f4 e5be a95c 95bf 84c7 bd3d 5395 4ebc
00000360: 1edd 9bbf 200e f8bd 7a92 efbd 5b65 febc
00000370: 757b a3bf 6976 2b3e 8e63 673e 6c7b aebd
00000380: 43a5 53bf 41b2 2cbd 7cdf 91c1 bc25 a1c0
00000390: 1993 65bd 9069 75be 88d3 3c3e d869 9e3b
000003a0: c064 6b3d b696 b2bd bcc2 0abe 1d4d 25be
000003b0: 2e76 29c0 12af eebd 75e9 8cbe 834f 04c0
000003c0: 2550 443e 56ae c93e e886 ac3b cb72 cfbe
000003d0: 0403 b93d f272 b7c0 939c bfc0 e1dc 103e
000003e0: 5317 5ec0 e824 dc3d 0c43 6ec0 73b5 6a3d
000003f0: 54e0 c93e be29 38bd 2edd c83d 6db7 60bd
-0.031645473 -1.8885888 -1.1976591 -0.07894946 0.024532916 0.16429383 -0.08029893 -0.07164548
0.10664146 0.09873057 0.05224747 -0.5456493 -0.0778786 -0.009429223 -0.052635197 0.005993414
-0.8194735 -0.022070859 -0.7870643 -0.12754816 -1.9855186 -0.8691943 0.038742233 -0.01908559
-0.3076061 -0.07054943 -1.1133069 -1.3839688 0.020253627 0.100038156 -0.530147 -0.06734991
0.06359181 0.09959883 -0.03017084 -1.1901411 0.064419314 -0.84987986 0.10073035 -0.08285295
-0.2594349 0.04085088 -1.0704583 0.0027232175 -0.10400255 -1.0743047 0.03153847 0.07154323
0.0569646 -1.6662219 -2.1129425 -0.37669736 -0.055693585 -0.07664147 -0.017406916 -1.9375049
0.018164493 -0.14289756 -0.054017205 0.038085025 0.08138626 -0.4039493 -0.0129200965 -0.6570117
-0.00710837 0.018644214 -1.8753371 0.029604426 -0.22067808 0.0353759 0.011849664 0.056961488
0.01608865 0.021365747 -1.0347149 0.1300574 -0.389736 -2.1298342 0.0342111 -0.19837566
-0.14686014 -0.083806835 -0.18027419 -0.48774856 -0.39833218 -0.027821492 -0.23313022 -0.38796067
-0.2714405 -0.04589112 -0.69819266 -0.7727916 -0.09158775 0.20069282 -0.03471584 1.866141
-0.6641484 -0.027507264 0.31161967 -0.052820694 -0.48470265 0.038131934 0.26367113 0.046265617
-0.037356798 -0.8484442 0.025899762 -0.8290511 -0.10786874 -0.33013657 -2.8705997 0.33943024
-0.26399314 -0.014893628 -0.079282135 -0.5297298 -0.067835316 0.13126466 -0.038471896 -0.6936556
0.48443848 0.07507041 -0.076798856 -0.07185424 -1.8759446 1.0703995 -0.022394726 -0.25050423
0.056910913 -0.009359675 -0.29805368 -0.0594724 -0.5555466 0.6508792 -0.110550016 -0.19845065
-0.10423287 -0.41664633 -0.42676464 0.071315765 -0.23515694 -0.961107 -0.08404593 -0.51055294
-0.4385457 -0.17877218 -0.07827512 -0.08059465 0.051193807 -0.4424781 -0.010332724 0.20978317
0.5551899 0.029570935 -0.01707999 -0.11582063 0.05483902 -0.58614707 -0.04773923 -0.035312377
0.061602846 0.13121222 -0.14271389 -0.119006895 -0.04079797 -0.23139165 -0.37432897 -0.007890602
-0.23082845 -0.19918063 0.9404315 -0.12964074 -0.063361265 -0.30034903 0.040423404 -0.3160718
0.2221447 0.12191773 0.011326177 -0.02558333 -0.5554068 0.07204909 -0.25959334 -0.06913174
-0.4994021 0.15751588 -0.09584418 0.046215788 0.016270675 -0.27681887 -1.3828841 0.11082853
-0.0980316 -0.0014189036 0.029356452 0.036307275 0.1020352 0.030418202 -0.041736256 -0.8169988
-0.26599738 -0.09821594 0.019879429 -0.10710722 -0.00676085 0.21547596 -0.033087097 -0.21980639
0.024194008 -0.11672144 -0.0331299 -0.08607932 -0.44913062 -1.1668903 0.0926657 -0.012608844
-1.2176855 -0.12112069 -0.1169786 -0.03105419 -1.2772051 0.16744389 0.22596571 -0.085196346
-0.82674044 -0.042162184 -18.234123 -5.0358562 -0.056048486 -0.2396605 0.18440068 0.004834395
0.05746913 -0.08720152 -0.13550848 -0.16142698 -2.647838 -0.11654486 -0.27521864 -2.067353
0.19171198 0.3939082 0.0052651055 -0.40517268 0.09033778 -5.7327814 -5.987863 0.14146759
-3.4701736 0.10749227 -3.7228422 0.05730195 0.3942896 -0.044961683 0.09807812 -0.05486243

layer4.bias f4 [50]
00000000: 52db 8bbf 312a f53c f2d0 cebd dcfa 60be
00000010: 98b5 83bd 7783 d73e d2b3 5abe f52c 9ebe
00000020: 8615 033f c9f4 3e3e 6696 4b3e aba6 4f3f
00000030: 0806 74be f133 d0bd 3c70 2c3f 01ee 9bbd
00000040: c627 82bd aed1 cfbd 60ab 1abe f3d3 12be
00000050: cd5d 33be 7d2d 823c 64da 963e 0252 d6be
00000060: bda2 e2bd 2517 26be 9d43 aabd cb9a c2bb
00000070: ed36 be40 c533 483e 8172 103d 3de6 773e
00000080: bf35 debd e522 803d e9cd abbe ca33 0fbf
00000090: 6336 a93c 5239 3abe c364 863d c325 42bf
000000a0: f7d8 82be 30d8 d13e e70f 583d 3efa 4bbe
000000b0: c195 4e3e 4120 60be a8cd e6bb 31c8 3dbe
000000c0: d243 d0bc f326 de3d
-1.0926306 0.029927345 -0.10098447 -0.21970695 -0.06431121 0.42092487 -0.21357659 -0.30893674
0.5120472 0.18648066 0.19881591 0.8111369 -0.23830426 -0.10166157 0.67358756 -0.07613755
-0.063552424 -0.10147415 -0.15104437 -0.14338665 -0.17516251 0.015890831 0.29463494 -0.41859442
-0.11066196 -0.16219766 -0.083136775 -0.005938863 5.944205 0.19550999 0.03526545 0.24208923
-0.10850095 0.062566556 -0.33555534 -0.559384 0.020655816 -0.18185928 0.065621875 -0.7583887
-0.25556156 0.4098525 0.05274954 -0.19919679 0.20174314 -0.21887304 -0.007043559 -0.18533398
-0.025422964 0.10847273

layer5.weight f4 [35, 50]
00000000: dfa2 703e cc67 363c 320a 4dbf db42 b93e
00000010: 488a e53d 4500 703f d3c5 a33d dfd8 af3d
00000020: a454 48bf 69b1 1b3f 4e7f ec3e afa5 043d
00000030: 0995 ea3b a1a7 cabd 147c a03e 41b4 17bf
00000040: 5f65 1fbc dbe9 853f cbc9 6a3e b781 693e
00000050: 8f57 b7bd 78db 57be b6a9 2ac0 62f7 623e
00000060: 48e6 db3f e82a edbe 7f3f 473f f3bc 4fbe
00000070: 46fd 1fbe 15e3 173f c507 453e b74f 4e3f
00000080: e417 25be da74 2bbf cdb5 e7be 55d4 ecbf
00000090: d4e6 3c3f d5ee 803f 3cf6 5d3f f4eb 31bf
000000a0: 67bc b33e aea2 563f 363e 84bf da1a 95be
000000b0: 733a 873e 170f 12bc 3c7a 3340 398f 6bbc
000000c0: 5b8e 0cbd 622b 353f 3d04 bd3f ab58 0dc0
000000d0: 4ef6 4dbf b0b1 43c0 4afb 3a40 64ad 3340
000000e0: 192c d23f 6811 4bbe bb3c afc0 f897 c63f
000000f0: 04df 823f cf31 4040 5695 0c3f a07d 513c
00000100: 644c 66c0 77ee e7c0 e00c 8c40 0992 cf3f
00000110: c0e6 a03f 9143 b240 ef26 bfbe f2da 41bb
00000120: 2e00 26c1 a4b7 3740 7974 bd3f 62f2 90c0
00000130: f62d 6940 1464 c2c0 a21f c240 d4d0 2340
00000140: 8b9d 6e40 783a c43f 6691 04bf ff56 debe
00000150: 4bd1 c4c0 a7b4 623f 32b8 f040 496c df3f
00000160: ed21 98c0 0294 cc40 82d7 51bf 33f6 1c40
00000170: 6f5f 9ec0 6cde c1bf 1743 d740 f8ad f03f
00000180: afb3 6340 1e60 2fbf 7790 c23c d3da 8a40
00000190: d946 bf3d 342d 173f 8977 08bf 855f 5e3e
000001a0: 4372 143f 1fc0 a03f 1250 02bf 8182 4bbb
000001b0: 3f7f e9bf c438 db3c 8089 fd3e 2f5e 753f
000001c0: 704c 8fbd 4076 73be 9de2 b1be f425 bebf
000001d0: 6b20 e2bd ff18 f93f e934 073d 44eb a53f
000001e0: 783e 373c 4dfc 2a3e 1495 ffbf 6fbb 1d3e
000001f0: 6aab af3f 1080 babf b296 813f 0541 843f
00000200: ce6b 41be f7f0 0b40 e179 1f3f 8bde 6dbe
00000210: 9fbc 2ebe d9c6 56bf 315e 9dbf 54d9 c5bf
00000220: 78ae 0abf 83b9 733d 377a c63f 472c eebf
00000230: 05bc f03e 86da ed3e 9681 c9bf 0dc7 c63d
00000240: ef5f 5a3f 68d3 9c3e b61e 8d3f edb0 05be
00000250: 8f44 693e ae5f 363c d87b 393d f087 2bbe
00000260: 61f6 f03e ac62 82bf 9e8a a5bf b941 0ebe
00000270: 47f7 693d 7a21 ba3d 63a3 e63d ce4d 24c0
00000280: db6d dfbe ca61 18bf 811e c43d c592 f43e
00000290: dc20 7abf 6fad 31c0 32d9 cdbf 6fc0 e43d
000002a0: 1aee 103e 41be 1cc0 3ebb e4bd d845 40be
000002b0: 5e86 e3bf 59aa f23e 0ad1 dfbd bc75 04be
000002c0: 2218 91c0 557a 21c0 ac8c 2fc0 c950 963e
000002d0: a317 8a3c 0fcb 04bf 6afa 2dbd 95c1 3ebd
000002e0: b5bf 37bf bbb9 bb3e 642b cd3e 66d7 e1bd
000002f0: 9cb5 0ec0 a7f0 27bf c303 803e e793 16bf
00000300: 42fd d3bd fd45 b7bf 94e1 f1bf 6aa8 8f3e
00000310: 427e 133e a0c3 28be dacb 4dbd 72f9 33bf
00000320: 0104 153d 99bf 4abf 2345 6bbd a82d 9f3e
00000330: 2576 55bf 4835 11bf f64a 9abd 1548 f93d
00000340: 6572 3fbf b33a 93bf ece9 08be 9c5a ed3d
00000350: 1611 1b3e 27b8 61bf e737 24bf 660d 28c0
00000360: aa1a aabe e547 5c3e 1cbb 4d3d 5d78 29c0
00000370: 4a90 643e 460e b03e f4da c73e b012 b33e
00000380: 6b0c fb3e 4d0b 903e 1efb 76bf 4f58 6cbf
00000390: b601 43be b315 37bf 8006 983e 2242 60be
000003a0: 6078 26be 022b 933c 8f21 bf3f e11b 0c3e
000003b0: c68a 0dc0 057a 60be 43e0 babe 2f49 35bf
000003c0: e460 a3be ec34 09bf e1e5 2abf c89f 2b3e
000003d0: 6b96 8ebe 97d8 203e d8a3 41bf e283 09be
000003e0: b718 12be 2c15 52bf 2865 e53d 0f3e 5fbf
000003f0: 3cee 83bd 1e34 873d 52bf 25bf 9545 703f
0.2349963 0.011133146 -0.8009368 0.3618382 0.11208016 0.9375041 0.07996716 0.08586287
-0.7825415 0.6081758 0.46190876 0.03238457 0.0071588797 -0.09895254 0.31344664 -0.5925942
-0.009728759 1.0461992 0.2292854 0.22803389 -0.08952247 -0.21079814 -2.6666083 0.22164682
1.7179651 -0.46321797 0.7783126 -0.20286922 -0.1562396 0.59330875 0.19241245 0.80590385
-0.16122395 -0.66975176 -0.4525589 -1.8502299 0.73789716 1.0072886 0.8670385 -0.6950066
0.35104677 0.8384198 -1.0331485 -0.2912205 0.2641178 -0.0089147305 2.8043356 -0.014377409
-0.03431545 0.7076932 1.4766918 -2.2085369 -0.80453956 -3.0577202 2.9215875 2.807458
1.6419708 -0.19830859 -5.4761634 1.5515127 1.0224309 3.00304 0.5491537 0.012786299
-3.5984125 -7.2478595 4.3765717 1.6216441 1.2570419 5.570748 -0.3733439 -0.0029579964
-10.375044 2.8705835 1.480117 -4.5295877 3.6434302 -6.0747166 6.0663614 2.5596209
3.7283657 1.5330343 -0.5178436 -0.43425748 -6.1505485 0.88556904 7.522485 1.7454921
-4.7541413 6.3930674 -0.81969464 2.4525268 -4.9491496 -1.5146003 6.7269397 1.8803091
3.557842 -0.6850604 0.023750527 4.339212 0.09339685 0.5905335 -0.53307396 0.21716125
0.5798685 1.2558631 -0.5090343 -0.0031053128 -1.8241957 0.026760466 0.49518967 0.9584684
-0.06997001 -0.23775578 -0.34743205 -1.4855332 -0.110413395 1.9460753 0.033009443 1.2962422
0.011184327 0.16697808 -1.996737 0.15403531 1.3724186 -1.4570332 1.0124114 1.0332342
-0.1888878 2.1865823 0.6229535 -0.23229425 -0.1706414 -0.8389717 -1.229437 -1.5456948
-0.5417247 0.05950309 1.5506047 -1.8607262 0.47018448 0.46455783 -1.5742671 0.09705935
0.85302633 0.3063004 1.1024997 -0.13055773 0.2278006 0.01113121 0.045284122 -0.16751075
0.47062972 -1.0186362 -1.2932928 -0.13892259 0.057120588 0.090884164 0.11261632 -2.5672488
-0.436385 -0.59524214 0.09576131 0.47768226 -0.9770639 -2.7762105 -1.6081908 0.11169516
0.14153329 -2.4491122 -0.11168526 -0.18776643 -1.7775381 0.4739559 -0.10928543 -0.12935537
-4.534196 -2.5230916 -2.742961 0.2935851 0.016856974 -0.5187234 -0.04247514 -0.046571333
-0.71776897 0.3666514 0.40072167 -0.11027412 -2.2298346 -0.6560158 0.2500287 -0.5881943
-0.103510395 -1.4318234 -1.8896966 0.28058177 0.14403632 -0.16480875 -0.050243236 -0.703025
0.03638077 -0.79198605 -0.05743898 0.3108952 -0.833834 -0.56721926 -0.07533829 0.12171952
-0.7478393 -1.1502289 -0.13370484 0.11589548 0.15143237 -0.8817162 -0.641478 -2.6258178
-0.33223468 0.215118 0.05022727 -2.6479714 0.22320667 0.3438589 0.39034235 0.34975195
0.49032912 0.28133622 -0.96476924 -0.9232225 -0.19043621 -0.71517485 0.2969246 -0.21900228
-0.16256857 0.017964844 1.4932116 0.1368251 -2.211595 -0.21921547 -0.36499223 -0.70814794
-0.3190986 -0.5359638 -0.6675702 0.1676017 -0.27849135 0.15707622 -0.7564063 -0.13429216
-0.1426724 -0.82063556 0.11200935 -0.8720407 -0.06441924 0.066017374 -0.64745057 0.93856174

layer5.bias f4 [35]
00000000: 64dd 46bd 7ae2 92c0 5990 b2be 6b1e 43bf
00000010: fe62 b2be de43 aabe 9d43 9fbe 91b5 6fbe
00000020: 13f6 08bf 7715 0bbd 536e 513d ee58 b9be
00000030: 110c 7ec0 0cd2 943e 408c c4be 05c0 32bd
00000040: caec f63d 4a38 3bbc d571 a6be 2bd4 4bbf
00000050: 5ec0 cc3e 6f8e a43d 31f6 04bf 0a97 b8be
00000060: 3474 4abf 227b 2a3e b0ae c3be c655 f23e
00000070: 93bd 50c0 98c3 0e40 28ed a73e 7bdf 4ebe
00000080: b1ef 42be 980d 883e c2f9 c93d
-0.04855098 -4.590146 -0.34875754 -0.7621829 -0.3484115 -0.33254904 -0.31106272 -0.23409106
-0.5350048 -0.033956017 0.051130604 -0.3620066 -3.9694865 0.29066503 -0.38388252 -0.043640155
0.12056883 -0.011426995 -0.32508722 -0.7962062 0.39990515 0.080349796 -0.5193816 -0.36052734
-0.7908356 0.16648534 -0.38219213 0.47331065 -3.2615707 2.230688 0.32798123 -0.20202439
-0.19036748 0.2657287 0.09862091

layer6.weight f4 [1, 35]
00000000: 0b91 e3bf 67be bfbf 3109 bbbf 7e00 10c1
00000010: 5902 15c1 ce21 edbf 00e1 ddc0 7173 0341
00000020: dd08 b240 91be 0340 83c4 d3bf c06a f5bf
00000030: 0fa1 6240 a3b7 f6bf eb61 ef40 c4a0 1b40
00000040: c8c7 dd40 0f85 17c0 dd08 d63f 2bb2 c5bf
00000050: a462 bcbf d5f7 de3f 081b f8bf 3c3a 02c0
00000060: 9dc5 e940 1024 eabf 43a5 0341 d7f1 fbbf
00000070: 559b 6440 ffbd 943f c826 6e3f 5c80 03c0
00000080: a421 0cc0 788f cebf 5ac0 bbbf
-1.7778639 -1.4979981 -1.461218 -9.00012 -9.313073 -1.8525941 -6.933716 8.215684
5.563582 2.0585063 -1.6544346 -1.9173203 3.5410802 -1.9274791 7.480703 2.4316874
6.9306374 -2.3674963 1.6721455 -1.5444998 -1.4717603 1.7419382 -1.9383249 -2.0348043
7.3053727 -1.8292255 8.227847 -1.9683179 3.5719807 1.1620482 0.93027925 -2.0547094
-2.1895533 -1.6137533 -1.4668076

batchnorm1.weight f4 [50]
00000000: b20c 873f 87a8 3a40 8f56 7ac0 1589 b63f
00000010: 668c 4140 a3ce 9440 a237 893f b95f 793f
00000020: cfc4 b2c0 9485 e23f f441 8c40 9074 b740
00000030: c6e9 8b3f 91e2 5041 888f 30c0 be53 1940
00000040: 48c9 913f bb68 af40 890a 8b3f ede1 6c40
00000050: be1c 803f 0e41 753f a203 f840 5f6b 9d3f
00000060: 2355 d4c0 7435 3e40 001e 1d41 5fda 3940
00000070: afb4 d93e 6703 b240 9d03 5c40 3b13 0b40
00000080: a31e 643f 7d56 3240 ecf5 86c0 e39a ff40
00000090: fae8 8340 8154 f53f 3ae8 9c40 1999 9d40
000000a0: 2cfa 6e40 d39d 8d40 a93b 93c0 9f75 ea3f
000000b0: 14e7 b740 7a05 873f 0d4e df40 f3d1 613f
000000c0: 196f 1a3f 396e 9640
1.0550749 2.916536 -3.911533 1.4260584 3.0241942 4.650224 1.0720103 0.97411686
-5.5865245 1.7697015 4.383051 5.732979 1.0930717 13.055314 -2.7587605 2.3957362
1.1389551 5.4815345 1.086259 3.7012894 1.0008771 0.9580239 7.7504435 1.2298392
-6.6353927 2.9720125 9.819824 2.9039533 0.42520663 5.5629153 3.4377205 2.1730487
0.8910925 2.7865288 -4.2175198 7.987657 4.1221895 1.9166414 4.903348 4.9249387
3.7340193 4.4255157 -4.6010327 1.8317145 5.746958 1.0548546 6.9782777 0.8821098
0.6032577 4.700955

batchnorm1.bias f4 [50]
00000000: 3d04 a43e fdc1 1841 b627 42c0 5b99 1040
00000010: 0627 2141 83af 9940 b4da 043e cb9f 3ebe
00000020: fe46 1ec0 db7c c240 49e1 aa40 421c 3b41
00000030: 2448 973e cb09 adc0 8d64 2641 cecb 4641
00000040: 60ea 9d40 ce6c 8c3f 50ea a1bf d3e2 1341
00000050: de43 9d3e c23b 133e c75b 2741 a9c9 403d
00000060: a200 0a41 7695 5241 0072 3a41 1a35 a240
00000070: eb6a e940 b537 5040 8de2 d740 20a9 83bf
00000080: ee5c 953e bc07 653f 7460 03c1 b75c 8fc0
00000090: 8284 2341 2107 2840 5e00 6641 785f 9940
000000a0: aa47 a140 23a6 fc40 28a6 6c41 fa60 9140
000000b0: 1e30 3641 e966 b9be 432f 1241 bcb3 a73e
000000c0: 71c8 9a3d 0651 0e41
0.32034484 9.54736 -3.0336738 2.25936 10.072027 4.802675 0.12974054 -0.18615644
-2.473083 6.077741 5.3400006 11.694399 0.29547226 -5.4074454 10.399549 12.424757
4.93486 1.0970705 -1.2649632 9.242877 0.3071584 0.14378265 10.459907 0.047067318
8.6251545 13.1614895 11.652832 5.068982 7.2943015 3.2534 6.746405 -1.0285988
0.29172462 0.89464927 -8.211048 -4.4800677 10.219851 2.625435 14.37509 4.792904
5.039998 7.8952804 14.7905655 4.543088 11.386747 -0.36211327 9.1365385 0.32754314
0.075577624 8.894781

batchnorm1.running_mean f4 [50]
00000000: 0400 0000 0400 0000 0400 0000 0400 0000
00000010: 532a 2846 e0b4 864a 0400 0000 0400 0000
00000020: ed11 4148 0400 0000 b9a2 a346 aa5e 0f48
00000030: 0400 0000 0400 0000 f0c8 5647 0400 0000
00000040: f26e 5c34 dd70 8a47 0400 0000 9be8 9145
00000050: 0400 0000 0400 0000 9516 de45 0400 0000
00000060: f44d 2f46 7783 1746 ded2 ec46 b27b 8345
00000070: 0400 0000 7eba 1148 0400 0000 9d3c 7145
00000080: 0400 0000 62a2 1337 d0bf ae46 6493 8c45
00000090: c375 f146 54e4 6c45 ce38 f346 eed8 3340
000000a0: 0400 0000 8874 f54b a9b2 0848 c528 8e45
000000b0: d6ab 8746 0400 0000 0286 4448 0400 0000
000000c0: 0400 0000 ab4d 6148
6e-45 6e-45 6e-45 6e-45 10762.581 4.414064e+06 6e-45 6e-45
197703.7 6e-45 20945.361 146810.66 6e-45 6e-45 54984.938 6e-45
2.0529458e-07 70881.73 6e-45 4669.0757 6e-45 6e-45 7106.8228 6e-45
11219.488 9696.866 30313.434 4207.462 6e-45 149225.97 6e-45 3859.7883
6e-45 8.7996905e-06 22367.906 4498.424 30906.88 3790.2705 31132.402 2.8101153
6e-45 3.2172304e+07 139978.64 4549.096 17365.918 6e-45 201240.03 6e-45
6e-45 230710.67

batchnorm1.running_var f4 [50]
00000000: 0400 0000 0400 0000 0400 0000 0400 0000
00000010: 072e 4c4e b161 1c56 0400 0000 0400 0000
00000020: 7336 f651 0400 0000 18d0 454f 7d0a 2a51
00000030: 0400 0000 0400 0000 a103 a850 0400 0000
00000040: 3cfe 6c37 276b 4150 0400 0000 7e4d b34d
00000050: 0400 0000 0400 0000 3033 8a4d 0400 0000
00000060: 3f03 0a4e 3471 b14d 8d66 ac4f 3e30 8f4d
00000070: 0400 0000 e0c5 4751 0400 0000 6134 6c4d
00000080: 0400 0000 0416 663b 54f0 4d4f 3b8f ed4c
00000090: 4a71 ce4f 3ad8 894d 1426 d24f dfd6 2946
000000a0: d80f 0000 3990 1059 0c78 2451 b921 ab4d
000000b0: 558c f94e 0400 0000 57cd d951 0400 0000
000000c0: 0400 0000 14aa fb51
6e-45 6e-45 6e-45 6e-45 8.563921e+08 4.298585e+13 6e-45 6e-45
1.3218443e+11 6e-45 3.3187492e+09 4.5645025e+10 6e-45 6e-45 2.255048e+10 6e-45
1.412589e-05 1.29801e+10 6e-45 3.7602502e+08 6e-45 6e-45 2.898263e+08 6e-45
5.7886714e+08 3.7212326e+08 5.784804e+09 3.0028794e+08 6e-45 5.3626143e+10 6e-45 2.4767848e+08
6e-45 0.0035108337 3.4550794e+09 1.2454959e+08 6.927062e+09 2.8908115e+08 7.0514217e+09 10869.718
5.684e-42 2.5431857e+15 4.4149293e+10 3.5888925e+08 2.0933618e+09 6e-45 1.1693162e+11 6e-45
6e-45 1.3511128e+11

batchnorm2.weight f4 [35]
00000000: 0afa c93f 3125 ee3f c887 b53f 3873 e2be
00000010: a232 413d 0d0a fa3f fed4 1ac0 9798 963f
00000020: 432f a33d cd8a 13c0 a1c2 d33f 83f7 e03f
00000030: 4415 2440 ab97 f63f d1dc 8a3f 095b f8be
00000040: 7842 1340 79f4 1540 0093 e5bf 5772 d43f
00000050: 2a6b 9c3f b2ca dcbf 1d0f ff3f e39f 0440
00000060: bf70 683f 9401 e23f 3088 6f3f df57 0840
00000070: 1661 4f3e 9bc0 9bbe 9645 4fbf 8aaa 0540
00000080: 4f53 1140 a8e8 d83f b7d5 e33f
1.5779431 1.86051 1.4182062 -0.4422853 0.047167428 1.9534317 -2.41925 1.1765317
0.07967999 -2.3053467 1.6543771 1.7575535 2.563798 1.9265035 1.0848638 -0.48506954
2.300932 2.3430464 -1.7935486 1.6597394 1.2220204 -1.7249358 1.9926487 2.0722587
0.90797037 1.7656732 0.9356718 2.1303632 0.20251879 -0.30420384 -0.80965555 2.0885339
2.2707098 1.6946001 1.7799596

batchnorm2.bias f4 [35]
00000000: 8b87 f8bf 8bb7 c1bf 739c edbf 7702 10c1
00000010: 6a02 15c1 8fdc ddbf fde0 ddc0 8273 0341
00000020: bf10 b240 6a5c d83f 8932 01c0 aabc 02c0
00000030: 85ca 6240 6851 eabf ef61 ef40 ada8 1b40
00000040: cfc7 dd40 9759 03c0 79c2 d23f e176 cabf
00000050: 0216 c6bf 9288 cf3f 7284 cdbf af82 debf
00000060: 9ec5 e940 49b4 d3bf 42a5 0341 ba50 c4bf
00000070: f1a8 6440 e407 9f3f ec0e 913f 9005 efbf
00000080: 8383 ebbf 8643 e5bf 3e9a c2bf
-1.9416364 -1.5134138 -1.856337 -9.000602 -9.313089 -1.7332934 -6.9337144 8.2157
5.564544 1.6903203 -2.0187094 -2.0427651 3.5436108 -1.8306093 7.480705 2.4321702
6.9306407 -2.0523431 1.6465598 -1.5817529 -1.5475466 1.6213553 -1.6056044 -1.7383631
7.305373 -1.6539394 8.227846 -1.5337136 3.5728114 1.2424283 1.1332679 -1.8673573
-1.8399509 -1.7911232 -1.5203321

batchnorm2.running_mean f4 [35]
00000000: 0e2d 9142 0072 2043 bfa4 8342 0400 0000
00000010: 0400 0000 3650 3142 0400 0000 0400 0000
00000020: 0400 0000 c14d 9342 a697 9b42 743d 8d42
00000030: 0400 0000 5292 ab42 0400 0000 0400 0000
00000040: 0400 0000 1261 8d42 94b1 1942 3f65 6142
00000050: 089f c742 2d86 4b42 987b 4f42 17ed c342
00000060: 0400 0000 198a 5742 0400 0000 b187 a942
00000070: 0400 0000 9e7a 9c3c 7371 5d43 b732 8d42
00000080: e75d 9f42 454a 8942 ed04 ad42
72.588 160.44531 65.82177 6e-45 6e-45 44.32833 6e-45 6e-45
6e-45 73.65186 77.79619 70.620026 6e-45 85.78578 6e-45 6e-45
6e-45 70.68959 38.423416 56.348873 99.81061 50.88103 51.870697 97.963066
6e-45 53.88486 6e-45 84.76502 6e-45 0.019101437 221.44316 70.59905
79.6834 68.64506 86.50962

batchnorm2.running_var f4 [35]
00000000: f0c3 cb45 f028 4147 32e2 d445 0400 0000
00000010: 0400 0000 8d53 8545 0400 0000 0400 0000
00000020: 0400 0000 dcfa f945 30dc f745 b91b eb45
00000030: 0400 0000 9d82 1746 0400 0000 0400 0000
00000040: 0400 0000 279b cb45 2ee0 3145 7f70 9545
00000050: c004 fb45 e4f4 9645 b8d8 8445 c43a 2f46
00000060: 0400 0000 6891 9b45 0400 0000 9644 0646
00000070: 0400 0000 bd82 6440 a18e d046 bd36 c545
00000080: 6f38 0246 1ee5 d445 17a1 1646
6520.492 49448.938 6812.2744 6e-45 6e-45 4266.444 6e-45 6e-45
6e-45 7999.3574 7931.5234 7523.4653 6e-45 9696.653 6e-45 6e-45
6e-45 6515.394 2846.0112 4782.062 8032.5938 4830.6113 4251.09 11214.691
6e-45 4978.176 6e-45 8593.146 6e-45 3.5704796 26695.314 6310.8423
8334.108 6812.6396 9640.272

batchnorm3.weight f4 [75]
00000000: 0000 803f 0000 803f 6f01 8741 89f4 363f
00000010: ac45 5941 0000 803f 0000 803f cc7e 643f
00000020: 0000 803f 6f0c 8f3f 7b22 893f 2671 b541
00000030: 0000 803f be12 4741 52c4 843f 0000 803f
00000040: 0000 803f 0000 803f 0000 803f 15f8 813f
00000050: 0182 793f 0000 803f 0404 c641 0000 803f
00000060: 0000 803f 2731 ac41 0000 803f 0000 803f
00000070: 0000 803f d134 593f 0000 803f a4dc 9741
00000080: 0000 803f 0000 803f bfa6 733f 0000 803f
00000090: ebb1 8141 0000 803f 0000 803f 0000 803f
000000a0: 2921 ac41 506b 4941 0000 803f 0000 803f
000000b0: d578 eabf 0000 803f 0000 803f 2e83 b241
000000c0: a6a8 0541 df69 9a41 0000 803f 271d b141
000000d0: 0000 803f 0000 803f 214e 663f 0000 803f
000000e0: 0000 803f 0000 803f 49fd 7f3f 718d c23f
000000f0: b3ba a640 9bc3 8240 f274 9541 15b2 be3f
00000100: 0000 803f 0000 803f 0000 803f 2b2a 0c42
00000110: 43d1 8f41 894b 7f3f 0000 803f e279 e841
00000120: 0000 803f 4c8e be41 f859 ab3f
1.0 1.0 16.8757 0.7146688 13.57951 1.0 1.0 0.89255977
1.0 1.117567 1.0713648 22.680248 1.0 12.442076 1.0372412 1.0
1.0 1.0 1.0 1.0153834 0.97463995 1.0 24.75196 1.0
1.0 21.524 1.0 1.0 1.0 0.84846216 1.0 18.982735
1.0 1.0 0.9517631 1.0 16.211874 1.0 1.0 1.0
21.516191 12.588699 1.0 1.0 -1.8318125 1.0 1.0 22.314053
8.353674 19.301695 1.0 22.139235 1.0 1.0 0.89962965 1.0
1.0 1.0 0.9999586 1.5199414 5.2102904 4.0863776 18.682102 1.4898096
1.0 1.0 1.0 35.04118 17.977179 0.9972463 1.0 29.059513
1.0 23.81948 1.3386831
