model17_weights.pth (torch, 251147 bytes, 25 tensors)

layer1.weight f4 [128, 67]
0	0x3c50dd6e	0.012748105
1	0x3e0d8e38	0.13823783
2	0xbdd601e1	-0.10449577
3	0xbcc71e5e	-0.024306472
4	0x3d11707c	0.035507664
5	0xbc121632	-0.008916425
6	0x3d9d6d31	0.07686842
7	0xbca66a70	-0.020314425
8	0xbc6ceae0	-0.014460295
9	0x3e10a259	0.1412443
10	0x3e345bc7	0.17613135
11	0x3da0e933	0.07856979
12	0xbdc82e27	-0.09774428
13	0xbd8c39f0	-0.06846988
14	0x3c0e5e21	0.008689434
15	0xbd896aa6	-0.06709795
16	0xbd5fb37d	-0.054614533
17	0x3e5f700e	0.21820089
18	0x3ce9d0b0	0.028541893
19	0x3d29462c	0.041326687
20	0xbdab8862	-0.08375622
21	0xbc551eb0	-0.013007805
22	0x3dbe39f3	0.09288397
23	0x3e767a54	0.24070102
24	0xbdae4608	-0.08509451
25	0x3d2f0132	0.04272575
26	0x3dfae6f8	0.12251085
27	0x3dade740	0.08491373
28	0xbce9478d	-0.0284765
29	0xbc8808be	-0.016605731
30	0x3e0f47fb	0.13992302
31	0x3df74a08	0.12074667
32	0xbd202856	-0.039100967
33	0xbe1d1d75	-0.15343268
34	0x3e9172a5	0.2840778
35	0x3e0429f1	0.12906624
36	0xbdcc3841	-0.09971667
37	0x3e8e0f6d	0.27746144
38	0xbdba9fd3	-0.09112515
39	0xbaf3cdc6	-0.0018600754
40	0x3e1a7a6c	0.15085763
41	0x3e77ed5a	0.24211636
42	0xbdea29fc	-0.11433789
43	0xbe30ff48	-0.17284882
44	0xbd95ed7a	-0.07320686
45	0xbccbedd5	-0.02489368
46	0xbdf951e9	-0.12173826
47	0xbdfac2f4	-0.122442156
48	0x3df3ac24	0.118980676
49	0x3d83d359	0.06436796
50	0x3e7e6ef0	0.24847007
51	0xbd98a8f5	-0.07454101
52	0x3d328bb2	0.043590255
53	0xbd13a66f	-0.036047395
54	0x3e3717ab	0.17880122
55	0xbc0e85c7	-0.008698887
56	0x3df9350f	0.12168323
57	0x3d2d60c1	0.0423286
58	0x3dde8afd	0.10866354
59	0xbde0684c	-0.10957393
60	0x3e7326cd	0.2374527
61	0x3e32915f	0.17438267
62	0x3dbf4561	0.09339405
63	0x3da2ffc1	0.079589374
64	0xbd4466ca	-0.04794959
65	0x3d0a1b07	0.03371718
66	0xbd5869a8	-0.052835137
67	0x3c191849	0.009344169
68	0x3d98ec72	0.07466973
69	0x3db126f8	0.08650011
70	0xbce0f6b9	-0.027461397
71	0x3daac959	0.08339185
72	0xbc0b1b77	-0.008490435
73	0x3e15c2c0	0.14625072
74	0xbd29b058	-0.04142794
75	0x3b99ac54	0.0046897326
76	0x3e31e347	0.17371856
77	0xbd920bcd	-0.07131157
78	0x3e6ad5b2	0.22933081
79	0x3dd056ef	0.10172831
80	0x3ddb82d9	0.107183166
81	0x3d5d1a67	0.053980257
82	0xbda3d6e8	-0.079999745
83	0xbd829fe4	-0.06378153
84	0x3e2760ee	0.1634557
85	0xbbe97a13	-0.007125148
86	0x3db55e4a	0.08855875
87	0x3d78aabc	0.0607097
88	0x3e3055d6	0.17220244
89	0x3ea3466e	0.3188967
90	0xbce5554b	-0.027994772
91	0x3def2907	0.11677747
92	0x3d3d9fc3	0.04629494
93	0x3e178791	0.14797808
94	0x3db367cb	0.08760031
95	0x3cc2fdac	0.0238026
96	0x3e16fea2	0.14745572
97	0x3de6c3f1	0.112678416
98	0xbd7c6878	-0.061623067
99	0x3e1d02f6	0.15333161
100	0xbd2e3899	-0.042534444
101	0x3df4966c	0.11942753
102	0x3dbeb169	0.09311182
103	0x3c798705	0.015229945
104	0x3d160fc2	0.03663612
105	0x3c0da86a	0.00864611
106	0x3ab71e57	0.0013970834
107	0x3e0da116	0.1383098
108	0x3e00d5ac	0.1258151
109	0xbd168d4b	-0.03675584
110	0x3cfe84a6	0.031069111
111	0xbd548679	-0.051886056
112	0x3d8aa7d3	0.06770291
113	0x3e2f9932	0.17148283
114	0xbd93c046	-0.072144076
115	0x3d8ab4b2	0.06772746
116	0xbd9b4a32	-0.07582511
117	0x3e3a079b	0.18166964
118	0xbd326050	-0.043548882
119	0xbd82a321	-0.063787706
120	0x3dbea794	0.09309307
121	0x3e0b995b	0.13632719
122	0x3e395231	0.1809776
123	0x3e0f9a7a	0.14023772
124	0x3e02fd99	0.12792052
125	0x3dc44cee	0.09584986
126	0x3e1a3476	0.15059075
127	0x3e468bd0	0.19389272
128	0x3cb6ca34	0.022313215
129	0xbd80b1cf	-0.06283914
130	0xbe298754	-0.1655553
131	0xbdbaeaad	-0.09126792
132	0x3e6a29db	0.22867529
133	0x3c34f9ac	0.011045855
134	0x3d251a37	0.040308204
135	0x3d4938fb	0.049126606
136	0x3d854f75	0.06509296
137	0x3dc52f9a	0.0962822
138	0xbd9034a9	-0.07041294
139	0xbd102b2c	-0.035197422
140	0xbe4d71d9	-0.2006296
141	0xbe07852a	-0.13234392
142	0xbbac4259	-0.0052569327
143	0x3dae41f1	0.08508671
144	0xbda74ab3	-0.081685446
145	0xbd8caad9	-0.06868524
146	0xbd83ff52	-0.06445183
147	0x3dc71c15	0.09722153
148	0x3dbe5f10	0.092954755
149	0xbcd3f4c5	-0.025873551
150	0xbe007257	-0.12543617
151	0xbc386025	-0.011253391
152	0xbd94cfb2	-0.07266177
153	0xbd949b16	-0.07256143
154	0xbdbe46a1	-0.09290815
155	0xbd88935c	-0.066687316
156	0xbd8a9083	-0.06765845
157	0x3d9592f0	0.07303417
158	0xbc5a0cb9	-0.013308697
159	0xbca26894	-0.019825257
160	0x3e02fe78	0.12792385
161	0x3d90a337	0.07062381
162	0xb90807ec	-0.00012972922
163	0x3c067464	0.008206461
164	0x3dab3bb7	0.08360999
165	0xbdd18f2d	-0.10232387
166	0x3df2a503	0.1184788
167	0x3e45e243	0.19324593
168	0xbd958432	-0.07300605
169	0xbe21b3a6	-0.15791187
170	0xbc539da1	-0.012916
171	0x3ca7e96b	0.020497045
172	0x3d9099e4	0.07060602
173	0x3e135cca	0.14390865
174	0x3dcd5c50	0.10027373
175	0x3da74ca7	0.08168917
176	0x3e254081	0.16137888
177	0x3d89e374	0.06732836
178	0xbd0d2c4b	-0.03446607
179	0x3dd5c964	0.10438803
180	0x3ca240cb	0.019806286
181	0xbcfadd72	-0.030623171
182	0xbcb26540	-0.021776795
183	0x3e2ca570	0.16859984
184	0xbda3490a	-0.079729155
185	0x3d5bae5e	0.053633086
186	0x3d5aac74	0.05338712
187	0xbe26f6ab	-0.16305034
188	0xb90e03f2	-0.00013543645
189	0xbe807f3d	-0.25097075
190	0x3e5654dd	0.2093081
191	0x3dbf940b	0.09354409
192	0x3d86578c	0.06559667
193	0x3de65b7b	0.11247917
194	0x3d1640f2	0.03668303
195	0xbdc257ec	-0.09489426
196	0x3dc79884	0.09745887
197	0x3d9c551c	0.07633421
198	0x3dceb055	0.100922264
199	0x3df98ced	0.121850826
200	0xbd86272f	-0.065504424
201	0x3da8c11c	0.08239958
202	0x3dab3a58	0.083607376
203	0xbd70cffd	-0.058792103
204	0x3d4f6b6c	0.050639555
205	0x3e02e57e	0.12782857
206	0x3ca264ea	0.01982351
207	0xbc6edeab	-0.014579455
208	0xbd2bcf2f	-0.041945633
209	0x3e19995a	0.14999905
210	0x3da4ee29	0.08053238
211	0xbcf8cff4	-0.030372597
212	0x3de9fcfb	0.11425205
213	0xbd6caa7a	-0.057779767
214	0x3da8875a	0.08228941
215	0xbd8d878b	-0.069106184
216	0x3d95bed3	0.073117875
217	0x3e10693b	0.14102642
218	0x3df7defb	0.12103077
219	0xbd8ea29c	-0.06964609
220	0x3dcdc603	0.10047533
221	0xbcf6f668	-0.030146793
222	0xbd5e16c7	-0.05422094
223	0xbd8644a6	-0.065560624
224	0x3db4f561	0.08835865
225	0x3dd73f15	0.10510079
226	0x3d6a7702	0.0572424
227	0x3dab3997	0.08360594
228	0x3d13278a	0.03592638
229	0xbd33c95e	-0.04389321
230	0x3dabd0e8	0.08389455
231	0x3c13100a	0.008975992
232	0x3bb717f2	0.0055875713
233	0x3d627648	0.055288583
234	0x3e14e638	0.14540946
235	0x3df17735	0.11790315
236	0xbe00c699	-0.12575759
237	0xbd942064	-0.072327405
238	0xbc81680e	-0.015796687
239	0x3d38c92c	0.045113727
240	0x3e26b41e	0.16279647
241	0xbca45cdf	-0.020063816
242	0xbc7e56aa	-0.015523592
243	0xbbcc9077	-0.0062428075
244	0xbd8f68af	-0.07002389
245	0x3e43bbee	0.19114658
246	0x3e595afb	0.21226113
247	0x3b8fde46	0.0043905107
248	0x3d20cf79	0.03926036
249	0xbd95b9e1	-0.07310844
250	0x3dc40a7f	0.095723145
251	0xbd2cad0f	-0.04215723
252	0xbd50080f	-0.050788935
253	0x3d988c9f	0.07448696
254	0x3cacf454	0.021112598
255	0x3cff22f3	0.031144595

layer1.bias f4 [128]
0	0x3bc314e5	0.0059534186
1	0x3b7d6841	0.0038666876
2	0x3e1c7da3	0.15282302
3	0x3d79ca4b	0.060983937
4	0x3d01ea05	0.03171732
5	0x3dc7b075	0.097504534
6	0xbb1bef6e	-0.0023793834
7	0x3bf251a3	0.0073949858
8	0x3e3b8dc0	0.18315792
9	0xbd6ec1be	-0.058290236
10	0xbccf7b8f	-0.025327472
11	0xbd2b7f67	-0.041869547
12	0xbc54a27e	-0.012978194
13	0xbd1d7d0e	-0.03844934
14	0x3cb813df	0.022470413
15	0x3ca3c159	0.019989656
16	0xbe0018f1	-0.12509514
17	0xbc181676	-0.009282699
18	0x3d91e1ef	0.071231715
19	0xbd62baf0	-0.05535406
20	0x3d565c6e	0.05233424
21	0xbbd1391c	-0.006384982
22	0xbdc6dc15	-0.09709946
23	0xba4e84dc	-0.0007878074
24	0xbdd7ef14	-0.105436474
25	0x3cc2f58f	0.023798732
26	0xbc8c46e9	-0.017123656
27	0xbd9f912d	-0.07791362
28	0xbe07bb09	-0.13254942
29	0x3da36ab3	0.07979336
30	0x3d07af24	0.03312601
31	0x3db15984	0.08659652
32	0xbc40374b	-0.011731933
33	0x3d9fd745	0.07804731
34	0x3e20ed77	0.15715586
35	0x3d5eb673	0.054373216
36	0xbc60bd79	-0.013717049
37	0x3dd8c4a9	0.10584385
38	0x3ddcf544	0.10788968
39	0x3dc0e030	0.0941776
40	0x3d3edfbd	0.046600092
41	0x3d5dda5c	0.05416332
42	0xbcf6db63	-0.030133909
43	0x3debdfda	0.11517306
44	0xbdde17a6	-0.10844354
45	0xbc21bb55	-0.009871324
46	0x3e0282c4	0.12745196
47	0xbd023ac2	-0.031794317
48	0xbdab2449	-0.0835653
49	0x3dece6ba	0.11567445
50	0x3ca52847	0.020160807
51	0xbd3a4961	-0.045480136
52	0x3ddd37c0	0.10801649
53	0x3da9c7a9	0.08290035
54	0xbde50c80	-0.11184025
55	0x3e2b3a26	0.167214
56	0x39f88720	0.00047402922
57	0xbc3efd3d	-0.011657056
58	0xbe2b647b	-0.16737549
59	0x3dd07d1a	0.10180111
60	0xbd335c5b	-0.04378925
61	0x3da8147d	0.08207033
62	0xbda70442	-0.08155109
63	0x3dbd4706	0.09242062
64	0x3bb934ed	0.005652061
65	0xbe2c32fe	-0.16816327
66	0x3d96de57	0.07366627
67	0xbda31468	-0.079628766
68	0x3ca4f561	0.020136537
69	0x3e1b8cdd	0.15190454
70	0x3db968f0	0.09053218
71	0x3def7212	0.11691679
72	0xbdbd220d	-0.0923501
73	0xbc4f6a53	-0.012659627
74	0x3aa1c749	0.0012342717
75	0xbd80467b	-0.06263443
76	0xbd60eacf	-0.05491143
77	0xbda1ea2d	-0.079059936
78	0x3d680938	0.056649417
79	0x3c42d7d7	0.011892281
80	0x3d78932d	0.060687233
81	0x3c0ed9ee	0.008718951
82	0x3e2bdf16	0.1678432
83	0x3de24efc	0.11050221
84	0xbbdfa21a	-0.006824744
85	0xbe34c7c5	-0.17654331
86	0x3d8e45de	0.0694692
87	0xbd73ffa8	-0.059569985
88	0xbcbdf50f	-0.023188142
89	0xbd0529f4	-0.032510713
90	0x3d8de4da	0.069284156
91	0x3dd1afd2	0.10238613
92	0xbd43f71b	-0.04784308
93	0xbda42c47	-0.08016258
94	0x3c401c96	0.011725565
95	0xbd8873ed	-0.06662736
96	0x3de8f5ad	0.11374984
97	0x3ca3fbe4	0.020017572
98	0x3df7b73f	0.12095498
99	0x3d9b1838	0.07572979
100	0xbcbc36f3	-0.02297542
101	0xbe012310	-0.12611032
102	0xbdc2dbb8	-0.09514564
103	0xbd9c358e	-0.07627402
104	0x3db05d9b	0.08611604
105	0x3dcd14aa	0.10013707
106	0xbbe908df	-0.007111653
107	0x3df86c77	0.12130063
108	0x3acba234	0.0015536011
109	0xbdfe0a42	-0.124043
110	0x3d353d94	0.04424818
111	0xbd1c1528	-0.038106114
112	0x3d1e8175	0.03869768
113	0x3df83b7e	0.12120722
114	0xbd5db3d6	-0.054126583
115	0xbd3e14e6	-0.04640665
116	0xbcb47823	-0.022029942
117	0xbdb763d7	-0.0895459
118	0x3d1b9ab8	0.03798935
119	0x3e29ee86	0.16594896
120	0xbe107e5b	-0.14110701
121	0x3d61b14b	0.05510072
122	0xbdc7651c	-0.09736082
123	0x3d9079d3	0.07054486
124	0xbde02df1	-0.10946263
125	0xbdbae90d	-0.09126482
126	0x3c3e7a14	0.011625785
127	0x3d996b90	0.07491219

layer2.weight f4 [128, 128]
0	0xbe37f13a	-0.17963114
1	0xbc8de714	-0.0173221
2	0x3e40d3e2	0.18830827
3	0x3e0aac61	0.1354232
4	0xbd465328	-0.048419148
5	0x3d6ba37f	0.05752897
6	0x3d80bb34	0.06285706
7	0x3db38892	0.08766283
8	0x3d547f66	0.05187931
9	0x3dcd19e7	0.10014706
10	0x3d882b13	0.06648841
11	0xbd91d7f5	-0.07121269
12	0xbcf36106	-0.02970935
13	0x3d145c4f	0.036220845
14	0x3d2a53a2	0.041583665
15	0x3ddb31f2	0.10702886
16	0x3d909b5a	0.07060881
17	0xbd8f02d4	-0.06982961
18	0x3dc802aa	0.09766133
19	0x3dce0c0e	0.10060893
20	0xbdca9342	-0.098913684
21	0x3b26f421	0.0025475102
22	0x3ddb741c	0.107155055
23	0xbd47925d	-0.048723567
24	0xbdc74c7e	-0.097313866
25	0xbb0eb90c	-0.0021777777
26	0x3c925dc7	0.017866982
27	0x3d143543	0.036183607
28	0x3cefedfa	0.02928828
29	0x3df300d6	0.11865394
30	0x3d7a1e96	0.061064325
31	0xbcc9af41	-0.0246197
32	0x3cbf294c	0.023335122
33	0x3d820ced	0.06350122
34	0x3d9fc7e9	0.07801802
35	0x3ca19d42	0.019728307
36	0x3e226832	0.1586006
37	0xbd0bdff9	-0.034149144
38	0xbd2a1796	-0.0415264
39	0x3db80397	0.0898506
40	0x3ded9b71	0.11601914
41	0x3bed8286	0.0072482256
42	0x3dcf08bd	0.101090886
43	0x3e151ce3	0.145618
44	0xbb91984f	-0.0044432054
45	0xbd5512f7	-0.05202004
46	0xbd4b17c3	-0.049583208
47	0xbcad8eeb	-0.021186313
48	0x3d39d3ea	0.045368113
49	0x3e2b6237	0.16736685
50	0xbd71fa89	-0.05907682
51	0x3ac2b5ef	0.0014855246
52	0x3e136711	0.14394785
53	0x3c86212a	0.016373236
54	0x3d8ae350	0.06781638
55	0x3c4e0ac4	0.012575809
56	0x3ba5602c	0.005046865
57	0xbd343a22	-0.044000752
58	0xbbd5120c	-0.0065023955
59	0xbb855c13	-0.004069814
60	0x3dd728f9	0.10505862
61	0x3dba819a	0.09106751
62	0xbcc6b3f8	-0.024255738
63	0x3d9acfe1	0.07559181
64	0x3de6024f	0.11230909
65	0x3da7792f	0.08177411
66	0x3ddb24fa	0.10700412
67	0x3d864a4f	0.06557142
68	0x3da7d603	0.08195116
69	0x3d94274f	0.0723406
70	0x3da76737	0.081739835
71	0x3dca29a9	0.09871227
72	0x3d090a84	0.033457294
73	0xbd06ccb5	-0.032910068
74	0xbce72095	-0.028213779
75	0x3e2841b4	0.16431314
76	0x3db26e16	0.087124035
77	0x3d759a2b	0.05996148
78	0x3db46b09	0.08809478
79	0x3ce6813a	0.028137792
80	0xbd156443	-0.03647257
81	0x3de1086b	0.10987934
82	0x3dd183c3	0.1023021
83	0x3de0c7fc	0.10975644
84	0x3e1a6161	0.1507621
85	0x3d64675c	0.055762634
86	0x3da80121	0.0820334
87	0xbd36dc1c	-0.044643506
88	0xbcb9a469	-0.022661405
89	0x3d5c82e5	0.05383577
90	0x3da2cf4d	0.07949696
91	0x3e384495	0.17994912
92	0xbd7f9eca	-0.062407292
93	0x3e14c143	0.14526848
94	0xbd523ad1	-0.051325623
95	0x3c577585	0.013150577
96	0x3d4f3df7	0.050596204
97	0xbce7342d	-0.028223122
98	0x3ddef843	0.10887196
99	0xbd628fb6	-0.055312835
100	0xbc9ade09	-0.018904703
101	0x3d4e047b	0.05029724
102	0x3cfed8f8	0.031109318
103	0x3e408f40	0.18804646
104	0x3d835d93	0.06414332
105	0x3dad2400	0.08454132
106	0x3d1379cb	0.036004823
107	0x3d03b28c	0.032152697
108	0x3c7f5eb7	0.015586547
109	0xb9f6dc4b	-0.00047084907
110	0x3cd58990	0.026066571
111	0x3db9be65	0.09069518
112	0x3dbb02fd	0.09131429
113	0x3d9a8cb5	0.07546369
114	0x3de29e90	0.110654
115	0x3cd12270	0.025529116
116	0xbd36d5d6	-0.044637524
117	0x3d8f072e	0.06983791
118	0x3b8b2372	0.004246169
119	0x3e2b46a8	0.16726172
120	0x3cc9e249	0.024644034
121	0xbdb65999	-0.08903808
122	0x3c202100	0.009773493
123	0x3d5b1486	0.05348637
124	0xbd059c87	-0.03261998
125	0x3ca89077	0.020576699
126	0x3c931006	0.017951977
127	0x3cb5192f	0.022106735
128	0x3d357ff6	0.044311486
129	0x3e0305c6	0.12795171
130	0x3d8979df	0.06712698
131	0xbd4cb55e	-0.049977653
132	0x3d74ee43	0.059797537
133	0x3dd41de5	0.103572644
134	0x3c93f293	0.018060004
135	0x3da9b9a7	0.082873635
136	0x3d9f968a	0.07792385
137	0x3c2f6d0c	0.010707151
138	0x3dfb6e2c	0.12276873
139	0x3d1fabc9	0.038982186
140	0x3b788288	0.00379196
141	0x3dd5ff10	0.1044904
142	0x3e286592	0.16444996
143	0x3d43bcfc	0.04778765
144	0x3d499610	0.049215376
145	0x3d409a85	0.04702236
146	0x3baa872f	0.0052041034
147	0x3d40efcd	0.04710369
148	0x3cabdf39	0.020980464
149	0x3d63485a	0.05548892
150	0xbcd79ed7	-0.026320858
151	0x3da02c39	0.07820935
152	0x3c997518	0.018732592
153	0xbcfc59c9	-0.030804532
154	0x3dab75c9	0.08372075
155	0x3e244a32	0.16043928
156	0x3e0b5fe0	0.13610792
157	0xbd78290a	-0.060586013
158	0x3dead35a	0.11466093
159	0x3d78680c	0.0606461
160	0x3d5894e9	0.052876387
161	0x3e17cab6	0.14823422
162	0x3d352e6f	0.044233736
163	0x3c75cac6	0.015001958
164	0x3de4c681	0.11170674
165	0x3ce5477d	0.02798819
166	0xbd10d956	-0.035363518
167	0x3cc43642	0.023951653
168	0x3dec5b8e	0.115409
169	0x3b0fc843	0.0021939434
170	0xbc413163	-0.01179156
171	0x3db25900	0.08708382
172	0x3d2eb7d9	0.0426558
173	0x3dcd89c4	0.10036042
174	0xbd152b1a	-0.036418058
175	0x3ce9ea1c	0.028554015
176	0x3dec4777	0.11537068
177	0x3d4a76b1	0.0494296
178	0x3ded635f	0.11591219
179	0x3dcd8436	0.10034983
180	0xbd770cb5	-0.060314853
181	0x3de5a1ec	0.11212525
182	0xbd62b598	-0.055348963
183	0x3de4f826	0.11180143
184	0x3cf9f1c8	0.030510798
185	0xbd181129	-0.03712574
186	0x3e4993aa	0.19685236
187	0x3dc1d735	0.094648756
188	0x3e470f75	0.1943949
189	0xbcd74743	-0.026279097
190	0x3d80c843	0.06288197
191	0x3df132e0	0.11777282
192	0x3dff481f	0.12464928
193	0x3c9f705f	0.019462762
194	0xbd3e811f	-0.04650986
195	0x3db46791	0.08808816
196	0x3e0b95e5	0.13631399
197	0x3e0a52e3	0.13508181
198	0x3c61fca0	0.013793141
199	0xbd0b4dfc	-0.03400992
200	0xbd9e43f2	-0.07727803
201	0x3c56efc1	0.013118685
202	0xbce12f51	-0.027488383
203	0xbbe42f97	-0.006963681
204	0x3e35e116	0.17761645
205	0x3dba8891	0.09108079
206	0x3dd417ba	0.10356088
207	0x3e2b9aac	0.16758221
208	0x3e273dce	0.1633217
209	0x3b50d6f8	0.0031866413
210	0xbd31a972	-0.043374486
211	0x3dd4e975	0.10396091
212	0xbd5274d7	-0.05138096
213	0x3e08f3e6	0.1337429
214	0x3d54d67e	0.05196237
215	0x3e00c0d3	0.12573557
216	0x3e2dd987	0.16977511
217	0x3dd98e86	0.10622887
218	0x3e1639a5	0.14670427
219	0x3d818038	0.06323284
220	0x3d2af551	0.04173786
221	0x3d2f3dbc	0.042783484
222	0x3d4d974f	0.050193127
223	0x3a4967bd	0.0007683
224	0x3e133562	0.14375833
225	0xbd281d1e	-0.041043393
226	0x3d2ec327	0.04266658
227	0xbba61da1	-0.00506945
228	0x3d3c7e20	0.04601872
229	0x3dca98b8	0.0989241
230	0xbd7d71e2	-0.061876185
231	0xbc3255d3	-0.01088472
232	0x3d4a56b9	0.04939911
233	0x3e260897	0.16214214
234	0x3d15f51f	0.03661072
235	0xbd0c8518	-0.034306616
236	0x3dffd2e5	0.12491397
237	0xbcd70de6	-0.026251744
238	0xbbd2cadc	-0.006432874
239	0x3dac0973	0.0840024
240	0x3c4a71cd	0.012356234
241	0x3d03b46e	0.032154493
242	0x3dc5379d	0.09629748
243	0x3d3829cc	0.044961736
244	0x3b8087d3	0.0039224415
245	0x3e12d397	0.14338528
246	0x3da40064	0.08007887
247	0xbd589ca4	-0.05288376
248	0x3df6bdca	0.12047918
249	0xbc951ad5	-0.018201271
250	0x3c8ff038	0.0175706
251	0x3d27b145	0.04094054
252	0x3d30abc9	0.043132577
253	0x3e0d32db	0.13788931
254	0x3db76c0b	0.089561544
255	0x3de06340	0.109564304

layer2.bias f4 [128]
0	0x3d3b3631	0.045705978
1	0xbc0be985	-0.008539562
2	0x3d17d70c	0.03707032
3	0xbdc6ac41	-0.097008236
4	0x3caa699c	0.020802312
5	0x3c8fc914	0.017551936
6	0xbe052f44	-0.13006312
7	0x3c3fcfb5	0.011707236
8	0xbc29b8d9	-0.0103590125
9	0xbd8a2857	-0.067459755
10	0x3da8dd17	0.082452945
11	0x3e0c868e	0.13723204
12	0x3ca72ebc	0.020408027
13	0xbe0bca15	-0.13651307
14	0x3dca308d	0.098725416
15	0x3d187a9d	0.037226308
16	0xbdbdf972	-0.092760935
17	0x3d22c97a	0.039742924
18	0x3dd12e14	0.10213867
19	0x3dca154a	0.09867342
20	0x3c3a297b	0.011362429
21	0x3dda6280	0.10663319
22	0x3c7be65d	0.015374747
23	0xbd1fc4c9	-0.03900603
24	0xbc58a6dd	-0.013223377
25	0xbdd134ee	-0.10215174
26	0x3cb1648c	0.02165439
27	0xbd069931	-0.03286094
28	0xbdf3c6a8	-0.11903125
29	0x3cbde587	0.023180736
30	0xbce6104c	-0.028083943
31	0xbd93f522	-0.0722449
32	0x3cd502e3	0.026002353
33	0xbc852e18	-0.01625733
34	0xbcfb35e6	-0.03066535
35	0xba3c42bb	-0.00071815745
36	0x3d5b9a95	0.053614218
37	0xbde8c071	-0.1136483
38	0xbd31e0e4	-0.043427363
39	0x3d1589be	0.036508314
40	0xbd086bed	-0.03330605
41	0x3cfb63f3	0.030687308
42	0xbdef0a05	-0.11671833
43	0xbae11b65	-0.0017174302
44	0xbca8d43d	-0.020609016
45	0x3dd93bf1	0.10607136
46	0xbc0fce8d	-0.008777273
47	0xbd671eb7	-0.056425776
48	0x3c206dec	0.009791832
49	0x3aaa5a9c	0.0012996974
50	0x3d63f0ee	0.05564969
51	0xbe1dc196	-0.15405878
52	0x3dfa2fcc	0.12216148
53	0xbd5100e2	-0.051026233
54	0xbd95e3b9	-0.07318825
55	0x3d1eb365	0.038745303
56	0x3ded2366	0.11579017
57	0xbe39a598	-0.18129575
58	0x3de5e99f	0.112262
59	0x3d972523	0.0738013
60	0xbdcfe6d2	-0.10151447
61	0xbe19a183	-0.15003018
62	0x3e3c7744	0.18404871
63	0xbd9b4a60	-0.07582545
64	0x3e1774af	0.14790605
65	0xbe1836f8	-0.14864719
66	0x3dcda087	0.10040384
67	0xbcf3bcb4	-0.029753067
68	0x3da8f4c6	0.08249812
69	0xbdf3916e	-0.11892973
70	0xbd28670b	-0.041113894
71	0xbd69dad6	-0.057093464
72	0x3d654d72	0.05598206
73	0x3e0edeac	0.1395213
74	0x3cd6863e	0.026187059
75	0xbddbe2c2	-0.1073661
76	0x3d84b159	0.06479139
77	0x3e5021a7	0.20325337
78	0x3dc22d8d	0.09481344
79	0x3dad8ff5	0.08474723
80	0xbdc3eed9	-0.09567041
81	0x3d6b377b	0.057425957
82	0xbe391bf3	-0.18077068
83	0x3d2c2e1b	0.042036157
84	0x3da7594f	0.08171331
85	0xbcd01d81	-0.025404694
86	0x3c7ea0ae	0.015541239
87	0x3db9f1de	0.09079336
88	0xbdec59af	-0.11540543
89	0xbc81166b	-0.01575776
90	0x3d414cb1	0.04719228
91	0xbd6d658b	-0.057958167
92	0x3c09d029	0.008411446
93	0x3d2c32db	0.042040687
94	0xbd4071b2	-0.04698343
95	0xba558e81	-0.000814654
96	0x3d906c28	0.07051879
97	0xbd0b41ab	-0.033998173
98	0xbde7e943	-0.11323788
99	0xbd50de61	-0.050993327
100	0xbd442c28	-0.047893673
101	0xbda65369	-0.08121378
102	0x3cfac562	0.030611698
103	0xbd20518a	-0.03914026
104	0x3dd47d5d	0.10375474
105	0x3ddd0eba	0.107938245
106	0x3ddcd698	0.10783118
107	0x3d44ec53	0.04807694
108	0x3cc9f10f	0.024651079
109	0x3b6468f1	0.003485259
110	0x3d3be01d	0.045868028
111	0xbcd73031	-0.026268097
112	0x3daa2c2d	0.08309207
113	0x3dd2a005	0.102844276
114	0xbc301726	-0.0107477065
115	0x3dbbb8dc	0.091661185
116	0xbd9d0987	-0.07667833
117	0xbcdf2425	-0.027238915
118	0xbcd15b3a	-0.025556196
119	0x3df31607	0.11869436
120	0xbdb62cb5	-0.08895246
121	0xbd053143	-0.032517683
122	0x3d14a10d	0.036286402
123	0x3c9270b2	0.017876003
124	0xbd9e38b1	-0.07725657
125	0xbda20c9b	-0.079125606
126	0xbc6860ea	-0.014183262
127	0x3dedae00	0.116054535

layer3.weight f4 [128, 128]
0	0xbce451f6	-0.027871113
1	0xbc822ce6	-0.01589055
2	0xbd33326d	-0.04374926
3	0x3d3926d1	0.045203034
4	0x3cd9b4a4	0.026575394
5	0x3e054edf	0.13018368
6	0x3e30a8c3	0.17251877
7	0x3e2f7e25	0.17137964
8	0xbbe5437d	-0.0069965706
9	0x3dcb021f	0.09912514
10	0xbcc1c6c3	-0.023654347
11	0xbcb55b54	-0.022138275
12	0x3db0bfa7	0.08630305
13	0x3d705feb	0.058685225
14	0x3dbe92a1	0.09305311
15	0xbe44db04	-0.19224173
16	0xbe54c53f	-0.20778368
17	0x3e095f37	0.13415228
18	0x3d36caf8	0.04462716
19	0x3c4d7ebe	0.012542425
20	0xbe4ede61	-0.20202018
21	0xbd097dcc	-0.033567235
22	0xbe184145	-0.14868648
23	0x3e00f6b9	0.12594117
24	0x3da92208	0.08258444
25	0x3e43b249	0.19110979
26	0x3d3f5375	0.04671045
27	0x3d8b5431	0.068031676
28	0x3d9e89b4	0.077411085
29	0xbe88ae32	-0.266954
30	0xbde6012e	-0.11230694
31	0xbc391076	-0.0112954285
32	0xbd8bbd63	-0.06823232
33	0x3d247c7b	0.040157776
34	0x3dee530a	0.11636932
35	0xbe1537ae	-0.14572021
36	0xbcb72173	-0.022354817
37	0xbb442a65	-0.0029932496
38	0x3d218104	0.03942968
39	0x3dc82c94	0.097741276
40	0xbd0ed7a7	-0.03487363
41	0xbcdc8e69	-0.026923375
42	0x3db66be0	0.08907294
43	0xbc1e2591	-0.009652511
44	0x3d8f7462	0.0700462
45	0x3d36d39f	0.04463541
46	0x3d3926c2	0.045202978
47	0x3d1ade7c	0.037809834
48	0xbd66fed3	-0.056395363
49	0x3e1cae47	0.15300857
50	0x3d8cd57d	0.06876657
51	0xbc464e04	-0.012103561
52	0xba1539b6	-0.00056924985
53	0xbe1312d7	-0.14362656
54	0x3dd29c31	0.102836974
55	0x3df7d7e0	0.12101722
56	0x3d90a974	0.070635706
57	0x3d735036	0.059402667
58	0xbb86c3b6	-0.004112686
59	0xbd7ddc09	-0.06197742
60	0x3e232267	0.15931092
61	0x3e170622	0.14748433
62	0x3dc423c8	0.09577137
63	0x3d706b25	0.05869593
64	0xbd09f129	-0.033677254
65	0x3d3d63a6	0.04623761
66	0xbd258cbe	-0.040417425
67	0x3d54125f	0.051775333
68	0xbd1f5f9e	-0.038909547
69	0x3cff30bb	0.031151166
70	0xbb5b9448	-0.003350513
71	0x3d1c0c3e	0.038097613
72	0x3d974717	0.07386606
73	0x3c90a16b	0.017655095
74	0xbca0e4bb	-0.019640317
75	0x3db4e359	0.088324256
76	0x3c6afd1f	0.014342575
77	0x3d0b002d	0.033935715
78	0xbc56328b	-0.013073574
79	0x3ce6c5fa	0.028170574
80	0x3c8655a3	0.016398257
81	0xbd8dbfe7	-0.06921368
82	0x3d6fedf5	0.058576543
83	0xbd69f727	-0.05712047
84	0x3b860f2b	0.0040911636
85	0xbd86a29c	-0.06573984
86	0xbdf58734	-0.119886786
87	0xbcaf9b64	-0.0214364
88	0x3d914385	0.070929565
89	0xbce0e130	-0.027451128
90	0x3e377cff	0.17918776
91	0xbb9204fa	-0.0044561597
92	0x3e02e00d	0.12780781
93	0x3d4baae9	0.04972354
94	0x3d46c075	0.048523385
95	0x3dba37f9	0.09092707
96	0x3da3b165	0.0799282
97	0xbb47de8d	-0.003049764
98	0xbe4e9b3f	-0.20176409
99	0x3bad6dff	0.0052926536
100	0x3dcaec48	0.09908348
101	0x3d0f34e0	0.034962535
102	0x3dac3f53	0.08410516
103	0x3e0d5c39	0.13804711
104	0x3d416267	0.047212984
105	0x3d3c2f54	0.045943573
106	0x3cace9db	0.021107605
107	0x3d748f55	0.059707005
108	0x3dd3234f	0.10309469
109	0x3cf3cf79	0.029762017
110	0x3dec67bd	0.11543224
111	0x3e409fac	0.1881091
112	0xbcf312f6	-0.029672127
113	0xbd028292	-0.031862803
114	0xbdf6a781	-0.120436676
115	0x3dcb54ea	0.099283054
116	0x3de9007a	0.11377044
117	0x3d8a52ce	0.06754075
118	0x3e256bff	0.16154478
119	0xbe23d0f3	-0.15997677
120	0x3daee355	0.08539454
121	0xbda4c808	-0.080459654
122	0x3cbac65a	0.02279966
123	0xbdb523a2	-0.08844687
124	0x3a2d0cd6	0.0006601339
125	0x3da6244e	0.08112393
126	0x3d150234	0.036379054
127	0x3c07e2e3	0.00829384
128	0xbd34b349	-0.044116292
129	0x3d091c65	0.033474345
130	0x3d7d06ba	0.061773993
131	0x3da81b07	0.0820828
132	0x3ce6834b	0.028138777
133	0xbde63803	-0.11241152
134	0xbdd7afe1	-0.10531593
135	0xbdecd4e9	-0.11564047
136	0xbcb4575c	-0.022014312
137	0xbd509240	-0.050920725
138	0xbdbb730a	-0.09152801
139	0x3d9c1615	0.07621399
140	0xbd6585c3	-0.05603577
141	0x3c9bd542	0.019022588
142	0xbd2b0b94	-0.04175909
143	0xbd1c1342	-0.038104303
144	0x3d0a6bcc	0.03379421
145	0xbe297257	-0.16547523
146	0xbd0982af	-0.033571895
147	0x3c794962	0.01521525
148	0x3cc0aa9b	0.023518851
149	0xbc55b0f6	-0.013042679
150	0xbddf4813	-0.10902419
151	0xbb6d5240	-0.0036212355
152	0xbd9fabbc	-0.077964276
153	0xbbe97592	-0.007124611
154	0xbd840514	-0.06446281
155	0x3cf55e50	0.029952198
156	0x3c8f25dc	0.017474107
157	0xbd557545	-0.05211379
158	0xbe0b5d41	-0.13609792
159	0xbbc24cbc	-0.0059295576
160	0x3cd8e137	0.026474578
161	0xbdbfa2d6	-0.0935723
162	0x3bd230b9	0.0064144996
163	0xbd85f8c5	-0.0654159
164	0xbca799e3	-0.020459121
165	0xbbc9714d	-0.0061475397
166	0x3da43b9c	0.08019182
167	0x3d2b4142	0.04181028
168	0xbc72afde	-0.014812438
169	0x3cab66a1	0.02092296
170	0xbda5cc4b	-0.080956064
171	0xbd8d7d64	-0.06908682
172	0xbeaf77e6	-0.34271163
173	0xbda1b60e	-0.07896052
174	0xbd395a7f	-0.04525232
175	0xbdc14cbd	-0.09438465
176	0xbe392981	-0.18082239
177	0xbe058dd2	-0.13042381
178	0xbdbeceb8	-0.09316772
179	0xbe6470b9	-0.22308625
180	0xbdc66bca	-0.09688528
181	0xbd5e2ec7	-0.05424383
182	0xbdb0aaa2	-0.086262956
183	0xbc89b8d5	-0.016811768
184	0xbd59fc38	-0.05321905
185	0xbd89b6d7	-0.06724327
186	0xbd394283	-0.045229446
187	0x3c2b2782	0.010446431
188	0xbe148aff	-0.14506148
189	0xbe363aba	-0.1779584
190	0xbd1b78a5	-0.037956852
191	0xbd3b99cd	-0.045800973
192	0x3b9f5aed	0.004863134
193	0xbde40d2c	-0.11135325
194	0x3bcb4f1f	0.0062045003
195	0xbd92bcf3	-0.071649455
196	0xbd96a9ef	-0.07356631
197	0xbe2800fa	-0.16406623
198	0xbe6436a9	-0.22286476
199	0x3d399152	0.045304604
200	0xbdee3922	-0.11631991
201	0xbd98aa43	-0.0745435
202	0xbd8a853c	-0.06763694
203	0xbdf20f4f	-0.11819326
204	0xbcfdb0a6	-0.030968022
205	0xbbe907de	-0.0071115335
206	0x3cf13909	0.029446142
207	0xbda5fd19	-0.08104915
208	0xbcaafaed	-0.020871604
209	0xbd922d43	-0.07137539
210	0xbe049062	-0.12945703
211	0xbd6bf6b8	-0.057608336
212	0xbda68631	-0.08131064
213	0x3df0e449	0.11762292
214	0xbd0c07b0	-0.03418702
215	0x3d04f75c	0.032462463
216	0xbdeb8b70	-0.11501205
217	0xbd40f5ce	-0.047109418
218	0xbe42e854	-0.19033939
219	0x3baf5a02	0.005351306
220	0x3b0ec68c	0.0021785824
221	0xbb965310	-0.0045875385
222	0x3d27d37e	0.04097318
223	0x3d0fc6e9	0.035101805
224	0x3d25862b	0.040411156
225	0x3d6c13d4	0.057636097
226	0x3ddf3398	0.108985126
227	0xbbd16a75	-0.0063908645
228	0xbe8f3ca7	-0.27975962
229	0xbcd2b456	-0.025720757
230	0xbe940d1a	-0.28916246
231	0xbd57f818	-0.052726835
232	0xbd9c3842	-0.07627918
233	0xbda768b5	-0.08174268
234	0x3d99077c	0.07472131
235	0xba203be3	-0.00061124394
236	0xbdfcbb4f	-0.12340414
237	0x3d0e68c5	0.034767885
238	0xbe402c1f	-0.18766831
239	0xbe37dfe3	-0.179565
240	0xbc33c4b2	-0.010972189
241	0x3dc6940a	0.09696205
242	0xbd54ab4c	-0.051921174
243	0x3d5a7a81	0.053339485
244	0x3d59f3f3	0.053211164
245	0xbdcf1702	-0.1011181
246	0x3d54820e	0.051881842
247	0x3d220f38	0.039565295
248	0xbd3a5684	-0.045492664
249	0x3c0a53a4	0.008442793
250	0xbd87191e	-0.065965876
251	0xbdc2d751	-0.095137246
252	0x3d0d6add	0.03452574
253	0xbe3dfeb9	-0.185542
254	0x3d8f328e	0.069920644
255	0x3d334607	0.043767955

layer3.bias f4 [128]
0	0x3d809c82	0.062798515
1	0x3d3a965a	0.045553543
2	0x3ddc90e1	0.10769821
3	0xbd474c2f	-0.04865664
4	0xbe00344a	-0.12519947
5	0xbc0160ec	-0.007896643
6	0x3d64abb6	0.05582782
7	0x3ddec1de	0.10876821
8	0xbd20a15c	-0.039216384
9	0x3ce6e432	0.028184984
10	0xbb5e3981	-0.0033908787
11	0x3ce302f8	0.027711377
12	0x3d6fbc21	0.058529023
13	0xbcced187	-0.025246395
14	0xbdb88fa0	-0.09011769
15	0x3d3714cd	0.04469757
16	0xbd661d76	-0.05618044
17	0x39b4a690	0.00034456374
18	0xbe3993d7	-0.18122803
19	0x3d4350cd	0.04768448
20	0xbca4214b	-0.020035407
21	0x3aa2d6ce	0.0012423636
22	0xbc056abe	-0.008143125
23	0x3da435de	0.08018087
24	0x3e028fc5	0.12750156
25	0x3dd7cc3e	0.10537003
26	0xba91020c	-0.0011063232
27	0x3bb569c6	0.005536291
28	0x3dbe2b5e	0.092856154
29	0x3e09a750	0.13442731
30	0xbd0d05b4	-0.034429267
31	0xbcab7579	-0.020930039
32	0xbbc69328	-0.006060023
33	0x3cccf5df	0.025019584
34	0xbde5374d	-0.111921884
35	0x3cd6e7f4	0.02623365
36	0xbd002c13	-0.031292032
37	0x3b9dda63	0.0048172935
38	0x3ca80d84	0.020514257
39	0x3dc7ba82	0.097523704
40	0xbdac32f5	-0.08408157
41	0x3db4c913	0.08827414
42	0x3c566d64	0.013087604
43	0x3dac6362	0.08417393
44	0xbb717697	-0.0036844367
45	0x3c549b19	0.012976431
46	0x3d773425	0.060352463
47	0x3d61c1e8	0.055116564
48	0x3d9deb2b	0.0771087
49	0xbdb74ad2	-0.08949818
50	0xbc10cb24	-0.008837495
51	0xbd92caee	-0.07167612
52	0x3daafd5a	0.08349104
53	0x3e04452a	0.12917009
54	0xbdac8789	-0.08424289
55	0xbdb7b89b	-0.089707576
56	0xbbc93c1b	-0.0061411983
57	0xbe231992	-0.15927723
58	0xbd5f7296	-0.054552637
59	0xbdc6ad65	-0.09701041
60	0xbe05d165	-0.13068159
61	0x3d622925	0.05521502
62	0xbde505d0	-0.11182749
63	0x3d68c2fe	0.056826584
64	0x3de1daef	0.110280864
65	0xbc72b1de	-0.014812915
66	0x3d138c11	0.03602225
67	0xbdcaf272	-0.09909524
68	0xbd99d31f	-0.07510971
69	0x3cb2e275	0.021836499
70	0xbaee55ac	-0.0018183491
71	0x3d9211da	0.07132311
72	0x3d4b439d	0.049625028
73	0x3d017715	0.031607706
74	0x3b6acb4f	0.0035826748
75	0xbd2ac042	-0.041687258
76	0xbd17e83c	-0.03708671
77	0xbdbf1ff1	-0.09332264
78	0x3dd4ea8f	0.10396301
79	0xbdf3ce7b	-0.119046174
80	0x3bca35de	0.0061709723
81	0x3d1f3610	0.038869917
82	0x3cf07a6f	0.029355256
83	0x3e1290e3	0.14313082
84	0x3dd441dc	0.10364124
85	0xbe0c98be	-0.13730142
86	0x3cb7ae5d	0.02242201
87	0xbd5ad549	-0.05342606
88	0xbcf3399a	-0.029690553
89	0x3d543839	0.05181143
90	0xbd0b5343	-0.03401495
91	0xbbcebe6b	-0.0063093207
92	0x3cf2b186	0.029625665
93	0x3d89fdb0	0.0673784
94	0xbc95f96f	-0.018307416
95	0xbc5f9ea7	-0.0136486655
96	0xbd7628da	-0.060097553
97	0xbd886a3f	-0.0666089
98	0x398bd6fe	0.00026672328
99	0x3cbd2d17	0.02309279
100	0x3c8c0b12	0.017095122
101	0x3df0cc1f	0.11757683
102	0x3b5b145a	0.0033428879
103	0xbdb1e485	-0.08686165
104	0x3d76eea3	0.060286175
105	0x3c848e52	0.016181145
106	0x3d341201	0.043962482
107	0xbdd37f85	-0.10327057
108	0xbde6661c	-0.112499446
109	0x3d44e185	0.048066635
110	0xbcb37de8	-0.021910623
111	0xbdac39e3	-0.084094785
112	0x3d290592	0.041265078
113	0xbd0e2f1a	-0.03471289
114	0x3d8bad41	0.06820155
115	0xbdada859	-0.084793754
116	0x3dd02e44	0.101650745
117	0xbd184a54	-0.03718026
118	0xbd612d98	-0.054975122
119	0x3daecf6b	0.085356556
120	0xbd94eace	-0.07271348
121	0x3d071811	0.032981936
122	0x3d2f94cd	0.042866517
123	0x3bdb148e	0.0066858
124	0x3c3f474f	0.011674716
125	0xbd9ad663	-0.07560422
126	0xbcde746e	-0.027155127
127	0xbd640f2f	-0.055678543

layer4.weight f4 [128, 128]
0	0x3dc0d5f3	0.094158076
1	0xbd2fa5d6	-0.042882763
2	0x3d718a2e	0.05896967
3	0x3de5b0d5	0.11215369
4	0x3d4a65a0	0.049413323
5	0xbe24848a	-0.16066185
6	0x3d2c637c	0.042087063
7	0xbc28cc30	-0.010302588
8	0xbdc74010	-0.09729016
9	0xba61f514	-0.00086195883
10	0x39ca6b7e	0.0003860853
11	0x3d8744cd	0.066049196
12	0xbcc6dacd	-0.024274254
13	0xbda359e7	-0.07976132
14	0x3d6afe83	0.057371628
15	0xbd910d66	-0.07082634
16	0x3dad6ad2	0.0846764
17	0xbc3b4b31	-0.011431501
18	0x3dae5a27	0.08513289
19	0xbe1b5730	-0.15169978
20	0xbd4ecd2a	-0.05048863
21	0xbd35b0ec	-0.04435818
22	0xbdcf0e43	-0.10110142
23	0x3cbaee16	0.022818606
24	0x3d122871	0.0356831
25	0xbb83d465	-0.004023122
26	0xbc13b119	-0.009014391
27	0xbdfbe1c7	-0.12298923
28	0xbd0e5e84	-0.034758106
29	0xbdb64f2e	-0.08901821
30	0xbda94ceb	-0.08266624
31	0x3cebb486	0.028772604
32	0x3dc2c615	0.095104374
33	0x3d096516	0.03354367
34	0x3d0c1ee2	0.03420914
35	0x3d9fe207	0.07806783
36	0xbb104f5b	-0.0022019956
37	0x3c4467e9	0.011987665
38	0xbdc2d515	-0.095132984
39	0x3d69df78	0.057097882
40	0xbd887793	-0.06663432
41	0xbd84a43c	-0.06476638
42	0xbdad6d1b	-0.08468076
43	0xbc86e5bd	-0.01646697
44	0x3d9171ae	0.07101761
45	0xbde5860f	-0.1120721
46	0x3d9448e4	0.07240465
47	0x3d9c3520	0.0762732
48	0x3bdf4826	0.0068140207
49	0xbdedcd87	-0.11611467
50	0x3dbbcbf6	0.09169762
51	0xbbca29ae	-0.0061695194
52	0xbd9ef9cc	-0.07762489
53	0x3d0abeb8	0.03387329
54	0x3e30c6a0	0.1726327
55	0xbdd372d6	-0.103246376
56	0xbd4a947b	-0.04945801
57	0x3c912d19	0.0177217
58	0x3c91646b	0.017748078
59	0x3e020187	0.12695895
60	0xbd434481	-0.047672752
61	0x3ce92775	0.028461197
62	0xbdfb3c49	-0.12267358
63	0x3af82b6e	0.0018933841
64	0xbc0734a5	-0.0082522975
65	0x3d35af0f	0.044356402
66	0xbaa89752	-0.001286248
67	0x3dd13a93	0.1021625
68	0xbddee5be	-0.108836636
69	0x3d63159a	0.055440523
70	0xbd3fbae8	-0.046809107
71	0xbdd78695	-0.10523716
72	0xbd71a14e	-0.058991723
73	0xbb84d9ad	-0.0040542693
74	0xbbc19f5c	-0.0059088897
75	0xbe47734d	-0.19477578
76	0x3d033aeb	0.03203861
77	0xbd88b494	-0.066750675
78	0xbcfa4794	-0.03055171
79	0x3df601fe	0.12012099
80	0xbcd84621	-0.026400628
81	0xbe453768	-0.19259417
82	0x3dd0349a	0.10166283
83	0x3dffb4e6	0.124856755
84	0xbca7f577	-0.020502789
85	0xbc03fcb9	-0.008055859
86	0x3cc28abd	0.023747796
87	0x3db96779	0.09052939
88	0x3d07f10d	0.03318887
89	0x3d10f733	0.035391998
90	0x3d39e1dd	0.045381416
91	0x3ca439a1	0.02004701
92	0xbe3f9864	-0.18710476
93	0xbe13ab7f	-0.1442089
94	0xbc3f77c0	-0.0116862655
95	0xbd9e59d9	-0.07731981
96	0x3e005f36	0.1253632
97	0x3dd123d8	0.10211915
98	0xbcc6f016	-0.024284404
99	0x3d67e1b8	0.056611747
100	0x3e11a549	0.14223208
101	0xbc5116e7	-0.012761808
102	0x3db9dc03	0.09075167
103	0x3d2cb39b	0.042163473
104	0x3cc378ce	0.023861315
105	0xba6550ca	-0.0008747695
106	0x3da10ad5	0.07863394
107	0xbddf13be	-0.108924374
108	0xbd853795	-0.06504742
109	0xbd8e49fc	-0.06947705
110	0xbe4975c0	-0.19673824
111	0x3b9545d3	0.004555443
112	0xbe19723d	-0.14984985
113	0x3cdf90b9	0.027290689
114	0xbc2225f7	-0.009896747
115	0xbbe32a1a	-0.006932509
116	0xbe45017a	-0.19238845
117	0xbce8f983	-0.028439289
118	0xbe142fae	-0.14471313
119	0xbd399430	-0.04530734
120	0xbba313cc	-0.004976725
121	0xbd0d6a8b	-0.034525435
122	0x3d076a05	0.033060092
123	0xbc206289	-0.009789118
124	0xbe116279	-0.1419772
125	0xbca8e62e	-0.02061757
126	0x3d3ef459	0.046619747
127	0xbb4ad1be	-0.003094777
128	0x3af3d00f	0.0018601435
129	0xbd67d19d	-0.056596387
130	0x3d8aa332	0.06769408
131	0x3d7da336	0.06192323
132	0x3d3f213e	0.04666256
133	0xbc98b6b8	-0.018641815
134	0xbcf65be1	-0.030073108
135	0xbe091e68	-0.13390505
136	0xbe0da557	-0.13832603
137	0xbd9182d4	-0.071050316
138	0x3dc1cb41	0.09462596
139	0xbc26cf39	-0.010181242
140	0xbc70d90c	-0.0147001855
141	0xbc831586	-0.016001474
142	0x3d15cbe7	0.03657141
143	0x3d03c6dc	0.03217207
144	0x3d24b4a9	0.040211353
145	0x3d9a943c	0.07547805
146	0x3ccdc729	0.025119381
147	0xbe2db977	-0.1696528
148	0x3d0908f8	0.03345582
149	0xbe2a084c	-0.16604728
150	0xbd0356ac	-0.03206508
151	0x3dbfb5c0	0.09360838
152	0x3db95bea	0.09050734
153	0xbd8fe4e2	-0.07026078
154	0x3d4eafb8	0.050460547
155	0xbd85e158	-0.065371215
156	0x3db47779	0.0881185
157	0xbe0aece0	-0.13566923
158	0xbe1d3065	-0.15350492
159	0x3da96b7e	0.08272456
160	0x3e1d89ef	0.15384649
161	0x3de0075a	0.10938902
162	0x3d8a592c	0.067552894
163	0x3d80e9b9	0.06294579
164	0x3d46d442	0.04854227
165	0x3cf330e5	0.0296864
166	0xbc935997	-0.017987056
167	0x3cb4b5eb	0.022059401
168	0x3c9487a8	0.018131092
169	0xbcc16cd9	-0.023611473
170	0xbd0a03f2	-0.03369517
171	0x3d83b8e6	0.06431751
172	0x3c8ea5aa	0.01741298
173	0xbb0e7a1e	-0.0021740268
174	0x3d93b5f5	0.0721244
175	0x3cd28948	0.025700226
176	0x3e1f9bfd	0.15586849
177	0xbdaa5167	-0.083163075
178	0xbc850476	-0.016237479
179	0x3c82f20b	0.015984556
180	0xbdc64505	-0.09681133
181	0x3d1e691a	0.03867445
182	0x3d223e61	0.03961027
183	0xbe0fbf85	-0.14037903
184	0x3b8b406c	0.004249623
185	0x3dd8646d	0.1056603
186	0x3cb687f7	0.02228163
187	0x3df5d1b8	0.12002891
188	0xbccb74db	-0.024835994
189	0x3d9c1cb0	0.07622659
190	0xbdb0c3f6	-0.086311266
191	0xbe08f8df	-0.13376187
192	0xbb513fd6	-0.0031928918
193	0x3d3c45a9	0.04596487
194	0xbcae8f3c	-0.021308534
195	0x3d68ed44	0.0568669
196	0x3b5d3acf	0.0033756976
197	0x3d53b34f	0.051684674
198	0xbd9bfcc7	-0.07616573
199	0xbe541b86	-0.20713624
200	0xbd14761b	-0.036245447
201	0x3dbaa17f	0.09112834
202	0xbd5c715f	-0.053819057
203	0xbccab004	-0.024742134
204	0x3d7d5dc5	0.061857004
205	0xbdc5837a	-0.09644218
206	0xbd431f43	-0.047637235
207	0x3d8b925b	0.068150245
208	0xbc24e423	-0.010064158
209	0xbe323ca3	-0.17405944
210	0x3d681263	0.05665816
211	0x3d43c74b	0.047797482
212	0x3ba38bae	0.0049910164
213	0x3c328aa9	0.010897317
214	0x3bc79bc4	0.0060915668
215	0x3d98cb8a	0.07460697
216	0xbdb2179d	-0.0869591
217	0xbdba3655	-0.09092394
218	0x3d3bd06c	0.045853063
219	0xbb41b6d5	-0.002955844
220	0xbcdbbb5e	-0.026822742
221	0xbd7bc256	-0.06146463
222	0x3d60fbbf	0.054927584
223	0xbe24b4a4	-0.16084534
224	0x3d2b3bb9	0.041805003
225	0x3cb73f4d	0.022369051
226	0xbcc1872d	-0.023624027
227	0x3d24e58f	0.040257987
228	0x3de702be	0.1127982
229	0x3d13240d	0.035923053
230	0x3c87514d	0.01651826
231	0xbca2b0fd	-0.019859785
232	0xbc88afa7	-0.01668532
233	0xbd258960	-0.040414214
234	0x3cdf0e89	0.02722861
235	0xbd50e30a	-0.05099777
236	0xbded606a	-0.11590655
237	0xbdd3d410	-0.10343182
238	0xbdcd3bc6	-0.100211665
239	0x3de3a3c8	0.11115223
240	0xbdf227d8	-0.11824006
241	0xbb227a46	-0.002479212
242	0xbd02ec7c	-0.03196381
243	0xbb5e8232	-0.0033952114
244	0xbdb32a1c	-0.08748266
245	0xbcec57fa	-0.028850544
246	0xbe24a931	-0.16080166
247	0xbe18d98e	-0.1492674
248	0xbcb9b9b5	-0.02267156
249	0xbb53b926	-0.0032306402
250	0x3dd45077	0.1036691
251	0xbcc1d7f2	-0.023662541
252	0xbe64c40f	-0.22340415
253	0xbca61cef	-0.020277468
254	0x3da9c25e	0.08289026
255	0xbd3a7058	-0.045517296

layer4.bias f4 [128]
0	0xbdf77803	-0.12083437
1	0xbdc26f16	-0.09493844
2	0x3e4842b7	0.195567
3	0x3e587398	0.21137846
4	0x3e168e6d	0.14702769
5	0xbe348d61	-0.17632057
6	0xbda15752	-0.07877983
7	0xbda4d56b	-0.08048519
8	0x3e202b34	0.1564148
9	0xbda8353f	-0.08213281
10	0x3df2f2bb	0.118627034
11	0xbe4928a2	-0.19644406
12	0x3d0dd0fe	0.03462314
13	0xbcff5787	-0.031169666
14	0x3df439a1	0.11925054
15	0xbe435347	-0.19074737
16	0x3dfd4ed2	0.123685494
17	0xbe2395f4	-0.15975171
18	0xbed4855d	-0.41507998
19	0x3db4d812	0.08830275
20	0xbde853ec	-0.11344132
21	0x3e090fca	0.1338493
22	0x3e31b584	0.17354399
23	0x3d8bb54c	0.06821689
24	0x3da5e7ee	0.08100878
25	0x3e1a21ec	0.15052003
26	0x3d1ebf80	0.038756847
27	0xbd3f0dd7	-0.046644058
28	0x3e7925d3	0.24330835
29	0xbdabf216	-0.083957836
30	0xbe30c47c	-0.17262453
31	0xbe6720a7	-0.2257105
32	0xbdc32eb9	-0.09530396
33	0xbdb8643a	-0.09003492
34	0xbdcdcab0	-0.10048425
35	0xbce4218b	-0.027848026
36	0xbe5e6708	-0.21718991
37	0xbd04de03	-0.03243829
38	0x3e19bbf1	0.150131
39	0x3e7a9868	0.24472201
40	0xbd0e923a	-0.03480742
41	0x3dd85322	0.10562731
42	0xbe9dc477	-0.30813953
43	0xbd686859	-0.05674014
44	0x3cf77572	0.03020737
45	0xbe249faf	-0.1607654
46	0xbe1b24c0	-0.15150738
47	0xbc6f36bf	-0.014600455
48	0xbe5e38d5	-0.21701367
49	0xbd435c39	-0.047695372
50	0x3e1eee01	0.15520479
51	0xbc128343	-0.008942428
52	0xbe3376ed	-0.17525835
53	0xbdc8cb77	-0.09804433
54	0x3da4bccc	0.08043823
55	0x3e08578a	0.13314644
56	0xbddf9d07	-0.109186225
57	0xbd30efca	-0.04319743
58	0xbdc6e4f0	-0.09711635
59	0xbdd2d1f6	-0.10293953
60	0x3cc73c2e	0.024320688
61	0xbdba2a56	-0.09090106
62	0xbec3d4cf	-0.38248298
63	0x3e13bccf	0.14427494
64	0xbbf3d12a	-0.007440706
65	0xb76dc1d5	-1.4171431e-05
66	0xbd9520fd	-0.07281683
67	0x3daa6ed1	0.08321918
68	0xbd8b0837	-0.06788676
69	0x3db9d652	0.090740815
70	0xbd915439	-0.07096142
71	0xbdb4a647	-0.088207774
72	0xbbdf1a01	-0.00680852
73	0x3b27a043	0.00255777
74	0x3e039519	0.12849845
75	0x3b1bc08c	0.002376589
76	0x3c14fcf3	0.009093511
77	0x3e32c4f6	0.17457947
78	0xbe4cef3d	-0.20013137
79	0xbc93cb55	-0.018041292
80	0xbced645f	-0.028978525
81	0xbd05d0fc	-0.032670006
82	0x3d9397a0	0.072066545
83	0x3c5ff148	0.013668366
84	0xbd982bbd	-0.074302174
85	0x3d5e9226	0.054338597
86	0x3e0d182d	0.13778754
87	0xbe3b5424	-0.18293816
88	0xbcaecd30	-0.021338075
89	0xbe0dfd68	-0.13866198
90	0x3e655df2	0.22399119
91	0x3de20bc9	0.11037404
92	0xbce9e993	-0.02855376
93	0x3da245aa	0.079234436
94	0xbdac1c60	-0.084038496
95	0x3d5c1db4	0.053739265
96	0x3d910d00	0.07082558
97	0x3cae6786	0.021289598
98	0x3bea1c0f	0.007144458
99	0xbdf2243f	-0.1182332
100	0xbdbd439c	-0.09241411
101	0x3de8fa72	0.11375894
102	0x3bb38dc0	0.0054795444
103	0x3e7b3d32	0.24535063
104	0xbc8c5aee	-0.017133202
105	0xbdf710f2	-0.12063779
106	0xbdfc40aa	-0.12317021
107	0xbe7b3c0f	-0.2453463
108	0xbc548fca	-0.012973735
109	0xbd61389f	-0.05498564
110	0xbdc22336	-0.09479372
111	0xbda40cf8	-0.08010286
112	0x3e36bcce	0.17845461
113	0xbdbbe21a	-0.09173985
114	0x3d9836e5	0.07432345
115	0xbe5d0b7b	-0.2158641
116	0xbdc930e6	-0.0982378
117	0xbd2f0158	-0.04272589
118	0x3e0b54ab	0.13606517
119	0xbe26eb90	-0.16300797
120	0x3966076c	0.00021937274
121	0x3d2306b7	0.039801326
122	0xbd118d08	-0.03553489
123	0xbd8350eb	-0.06411918
124	0x3d118cc1	0.035534624
125	0xbd7241cf	-0.05914479
126	0xbe8c4ef7	-0.27403995
127	0x3e08f893	0.13376074

layer5.weight f4 [1, 128]
0	0x3ff9fdde	1.9530599
1	0x3ffa0dc2	1.9535449
2	0x3ff9006e	1.9453256
3	0x4008b2f9	2.1359236
4	0x4008ce27	2.1375825
5	0x3ff4e154	1.9131265
6	0x3ff3da46	1.9050987
7	0x3ffb5b6c	1.9637275
8	0x40089f20	2.1347122
9	0x3ff9ff04	1.953095
10	0x3ff7e2b3	1.9366058
11	0x3ff2933f	1.8951186
12	0x3ff7f275	1.9370867
13	0x3ff3a19e	1.9033697
14	0x40090e61	2.1415026
15	0x3ff15e09	1.8856822
16	0x3ff0d9e3	1.8816494
17	0x3ff783f6	1.9337146
18	0x40094215	2.1446583
19	0x3ff9e9fb	1.952453
20	0x3ff5b571	1.9195997
21	0x3ff83ea6	1.9394119
22	0x400a1645	2.1576092
23	0x400abae1	2.1676562
24	0x400707a6	2.1098418
25	0x4009bf3b	2.1522968
26	0x3ff7b480	1.9351959
27	0x3ff4544d	1.9088227
28	0x3ffb7b73	1.9647049
29	0x3ffd5fa6	1.9794815
30	0x3ff9293b	1.9465708
31	0x3ffa67dd	1.9562947
32	0x4005827f	2.0860898
33	0x3ff6b14a	1.9272854
34	0x3ff48244	1.9102254
35	0x400a1dec	2.1580763
36	0x3ff6e22d	1.9287773
37	0x3ff56c5e	1.9173696
38	0x3ff435ac	1.9078879
39	0x4008ca67	2.1373537
40	0x3ff7915c	1.9341235
41	0x400854eb	2.130183
42	0x4008a331	2.1349604
43	0x400a0d99	2.15708
44	0x3ff4dd28	1.9129992
45	0x3ff2d3cd	1.8970886
46	0x3ff3839c	1.9024539
47	0x3ff4d7ee	1.9128397
48	0x3ff27d5d	1.8944508
49	0x3ffbe90f	1.9680499
50	0x3ff0949f	1.8795356
51	0x3ffa0527	1.9532822
52	0x3ff79dc9	1.9345027
53	0x3ff4c164	1.9121518
54	0x3ff31b7c	1.8992763
55	0x3ff498d7	1.9109143
56	0x3ff967a6	1.9484756
57	0x3ff6e90e	1.9289873
58	0x3ff73a56	1.9314678
59	0x3ff981c0	1.9492722
60	0x400a77c7	2.1635606
61	0x3ffa7c11	1.9569112
62	0x4009ae2e	2.151256
63	0x400a5cd4	2.1619158
64	0x3ff9eb22	1.9524882
65	0x400a70b8	2.1631298
66	0x4009c3b7	2.1525705
67	0x4009ed13	2.1550949
68	0x3ff559a1	1.9167978
69	0x3ff577e5	1.9177214
70	0x3ff5ba99	1.919757
71	0x4006b66b	2.104884
72	0x3ff2da10	1.8972797
73	0x3ff8d552	1.94401
74	0x3ff5fa07	1.9216927
75	0x3ff94ca2	1.9476511
76	0x3ff77b01	1.9334413
77	0x3ff3dca0	1.9051704
78	0x3ff1b806	1.8884284
79	0x3ff359a1	1.9011728
80	0x3ff6f271	1.9292737
81	0x4007a8e7	2.119684
82	0x400804b9	2.1252882
83	0x3ffc1364	1.9693418
84	0x3ffb05e1	1.9611169
85	0x3ff6021d	1.9219395
86	0x4008bbc7	2.136461
87	0x3ff73283	1.931229
88	0x4007b8ab	2.1206462
89	0x3ffad135	1.9595095
90	0x3ff28d34	1.8949342
91	0x3ff65aa7	1.9246415
92	0x3ff82dc6	1.9388969
93	0x3ff3966f	1.9030284
94	0x3ff36c44	1.9017415
95	0x3ff152b9	1.885337
96	0x400965c1	2.1468356
97	0x3ffc4dbe	1.9711225
98	0x4009d436	2.1535773
99	0x3ff35092	1.9008963
100	0x3ff71c75	1.9305559
101	0x40095223	2.1456382
102	0x3ff5610f	1.9170245
103	0x3ffe054a	1.9845364
104	0x40074bbc	2.1139975
105	0x3ff93cf8	1.9471731
106	0x3ff183f4	1.8868394
107	0x3ff50873	1.9143203
108	0x4009b6f8	2.1517925
109	0x3ff2e337	1.897559
110	0x3ff2ef2e	1.8979242
111	0x4008786c	2.13235
112	0x3ff7dec2	1.9364855
113	0x3ffcfba1	1.9764291
114	0x3ff615c0	1.9225388
115	0x3ff670b0	1.925314
116	0x4009c75b	2.1527927
117	0x3ffab855	1.9587504
118	0x4009e531	2.1546137
119	0x400550ba	2.0830522
120	0x3ff7ad2d	1.9349724
121	0x3ffa3bcb	1.9549497
122	0x3ff2838b	1.8946394
123	0x40095e8b	2.1463954
124	0x3ff3091e	1.8987157
125	0x3ff615d8	1.9225416
126	0x40079048	2.1181812
127	0x3ffabcb7	1.9588841

batchnorm1.weight f4 [128]
0	0x3f83240d	1.0245377
1	0x3f80bdba	1.00579
2	0x3f7d27fc	0.98889136
3	0x3f6f8d93	0.935754
4	0x3f7461a2	0.95461476
5	0x3f677746	0.9041637
6	0x3f85cb8e	1.0452745
7	0x3f8519e1	1.0398523
8	0x3f812ca3	1.0091747
9	0x3f80c332	1.0059569
10	0x3f8143bd	1.0098797
11	0x3f809f68	1.0048647
12	0x3f859481	1.0435945
13	0x3f757170	0.95876217
14	0x3f7a0b0c	0.97673106
15	0x3f61aac7	0.8815121
16	0x3f81919e	1.0122564
17	0x3f6ff016	0.9372572
18	0x3f70041d	0.93756276
19	0x3f7ac5c8	0.9795804
20	0x3f7f6f26	0.99778974
21	0x3f8e9c40	1.1141434
22	0x3f81a08e	1.0127122
23	0x3f6ff4ed	0.937331
24	0x3f9e7285	1.2378699
25	0x3f8b996b	1.0906194
26	0x3f6fc6ce	0.93662727
27	0x3f73a68f	0.95176023
28	0x3f75eb56	0.9606222
29	0x3f7e9b87	0.99456066
30	0x3f71dfd6	0.9448217
31	0x3f78a5be	0.971279
32	0x3f8acf13	1.0844444
33	0x3f6aff66	0.9179596
34	0x3f6985ed	0.9121998
35	0x3f5b227b	0.8559949
36	0x3f68689d	0.9078463
37	0x3f78bcbb	0.9716298
38	0x3f89faa4	1.0779614
39	0x3f803ace	1.0017946
40	0x3f75733b	0.9587895
41	0x3f7cc4db	0.9873788
42	0x3f80ba5e	1.0056875
43	0x3f852590	1.0402088
44	0x3f5b55b7	0.85677665
45	0x3f7b23ce	0.9810151
46	0x3f7c2bfc	0.98504615
47	0x3f64ee06	0.89425695
48	0x3f65629a	0.8960358
49	0x3f819037	1.0122136
50	0x3f6f57cb	0.93493336
51	0x3f7c338c	0.98516154
52	0x3f6cfe4d	0.9257553
53	0x3f6a4a0b	0.9151923
54	0x3f6cd0ab	0.925059
55	0x3f66bedf	0.90134996
56	0x3f751058	0.95728064
57	0x3f8e97a9	1.1140033
58	0x3f7f60a0	0.99756813
59	0x3f801512	1.000643
60	0x3f77286b	0.9654605
61	0x3f83d11b	1.0298189
62	0x3f80bcf3	1.0057663
63	0x3f812b11	1.0091268
64	0x3f7055a5	0.93880683
65	0x3f7e3e16	0.99313486
66	0x3f862084	1.0478673
67	0x3f851d76	1.0399616
68	0x3f564744	0.8370249
69	0x3f7690ec	0.96314883
70	0x3f81461c	1.0099521
71	0x3f7cd618	0.9876418
72	0x3f7d2b72	0.9889442
73	0x3f81cb71	1.014021
74	0x3f886d1c	1.0658298
75	0x3f6c268a	0.92246306
76	0x3f7c8e96	0.9865507
77	0x3f6168c5	0.8805049
78	0x3f74877a	0.9551922
79	0x3f7ba378	0.9829631
80	0x3f80c34a	1.0059597
81	0x3f8caf6e	1.0991037
82	0x3f744cf2	0.9542991
83	0x3f72cf7e	0.9484786
84	0x3f78c9ea	0.97183096
85	0x3f6e5bd6	0.9310888
86	0x3f7e37f4	0.9930413
87	0x3f7b6f16	0.9821638
88	0x3f787f37	0.97069114
89	0x3f6df03a	0.9294468
90	0x3f81d757	1.0143842
91	0x3f6e2068	0.930182
92	0x3f64b8b5	0.8934434
93	0x3f744434	0.9541657
94	0x3f69ec56	0.91376245
95	0x3f80d07d	1.0063626
96	0x3f80792c	1.0036979
97	0x3f72601d	0.9467791
98	0x3f645e13	0.89206046
99	0x3f80767f	1.0036162
100	0x3f521c0d	0.8207405
101	0x3f87167c	1.0553737
102	0x3f9aefed	1.210447
103	0x3f72ac59	0.9479423
104	0x3f7af957	0.9803671
105	0x3f6e9cb1	0.9320784
106	0x3f6f73e6	0.9353622
107	0x3f8d4d1b	1.1039156
108	0x3f65c911	0.8975993
109	0x3f5ffe6d	0.874976
110	0x3f8427fc	1.0324702
111	0x3f819cde	1.0125997
112	0x3f7d3eb5	0.9892381
113	0x3f84540d	1.033815
114	0x3f79642e	0.9741849
115	0x3f6f0f58	0.9338279
116	0x3f673501	0.9031525
117	0x3f734622	0.9502889
118	0x3f75a85d	0.95960027
119	0x3f72ae9e	0.94797695
120	0x3f80b624	1.0055585
121	0x3f7cc5a0	0.9873905
122	0x3f6f17d9	0.93395764
123	0x3f6985fd	0.91220075
124	0x3f8c6082	1.0966952
125	0x3f7c4bd3	0.985532
126	0x3f80fbd1	1.0076848
127	0x3f78be1a	0.9716507

batchnorm1.bias f4 [128]
0	0xbe06b4c7	-0.13154899
1	0xbdf2786c	-0.11839375
2	0xbe151a69	-0.14560856
3	0xbdb3f222	-0.087864175
4	0xbd624a59	-0.055246685
5	0xbd76cc62	-0.06025351
6	0x3c62a31a	0.013832832
7	0xbcca6068	-0.024704173
8	0xbd90a043	-0.070618175
9	0xbd91a75b	-0.07111999
10	0xbd60e31a	-0.05490408
11	0x3c326932	0.010889338
12	0xbd1f2a46	-0.038858674
13	0x3d81933e	0.06326912
14	0xbdaf652e	-0.0856422
15	0xbdc24bd8	-0.09487122
16	0x3d780820	0.060554624
17	0xbdac6673	-0.08417978
18	0xbe1720d2	-0.14758614
19	0xbdd56076	-0.10418789
20	0xbde43124	-0.11142185
21	0x3d63d98f	0.055627402
22	0xbcb38d25	-0.021917889
23	0xbd7b0492	-0.061283655
24	0xbc85c6c1	-0.016330125
25	0xbd0445e0	-0.0322932
26	0xbdb49cb7	-0.088189535
27	0xbde05bdc	-0.10955021
28	0xbd8f085d	-0.06984017
29	0xbde24dd6	-0.11050002
30	0xbd591836	-0.053001605
31	0xbde80995	-0.113299526
32	0xbdd4517e	-0.10367106
33	0xbdbc36ba	-0.09190126
34	0xbd934178	-0.071902215
35	0xbdc66c8e	-0.09688674
36	0xbe141c0a	-0.14463821
37	0xbddf69cc	-0.10908851
38	0xbdd2c2fd	-0.10291097
39	0xbe0b41ea	-0.13599363
40	0xbcabfa01	-0.020993235
41	0xbdf2f24e	-0.11862622
42	0xbdd53030	-0.10409582
43	0xbda27631	-0.079326995
44	0xbe1c9f06	-0.15295038
45	0xbdef1cdf	-0.116754286
46	0x3ccbe07a	0.024887312
47	0xbe3c0e5a	-0.1836485
48	0xbd9a9175	-0.07547275
49	0xbd8b5a4a	-0.06804331
50	0xbdeabe7c	-0.11462113
51	0xbdd0b424	-0.10190609
52	0xbe0d4f0b	-0.13799684
53	0xbdb1c440	-0.0868001
54	0xbd81fe21	-0.06347299
55	0xbe099a78	-0.13437831
56	0xbdfb0049	-0.12255914
57	0xbd747862	-0.05968512
58	0x3cef3f63	0.02920503
59	0xbd83956e	-0.06424986
60	0xbdfad42f	-0.12247502
61	0xbda5908f	-0.08084213
62	0x3cfc9d13	0.030836618
63	0xbb21561d	-0.0024617978
64	0x3c388ad8	0.011263572
65	0x3c8707cb	0.016483208
66	0xbd4552c6	-0.048174642
67	0xbdab615f	-0.083681814
68	0xbda9e80e	-0.08296214
69	0xbe0705c9	-0.131858
70	0xbd88c6fd	-0.06678579
71	0x3d1bb97d	0.038018692
72	0xbd261869	-0.040550623
73	0xbd8d1744	-0.06889203
74	0x3c01e26c	0.007927518
75	0xbe1d7218	-0.15375555
76	0xbd8eef15	-0.06979195
77	0xbe22b6e3	-0.15890078
78	0xbcd5e5c4	-0.026110537
79	0xbda1a74e	-0.07893239
80	0xbd719f5c	-0.058989868
81	0xbd6bdcc6	-0.057583593
82	0xbe09c091	-0.13452365
83	0xbdcad0c7	-0.09903102
84	0xbdadcfca	-0.08486898
85	0xbe0e35b6	-0.13887677
86	0xbd0c34e8	-0.034230143
87	0xbd81ba7f	-0.063343994
88	0xbdcb83ba	-0.09937234
89	0xbda2c398	-0.07947463
90	0x3cc29de5	0.02375693
91	0xbe7a7570	-0.24458861
92	0xbe13d2cb	-0.1443588
93	0xbe2e5fdc	-0.17028755
94	0xbdc279ac	-0.09495863
95	0xbb81dc4a	-0.003963028
96	0xbccb6569	-0.02482863
97	0xbe06d7b2	-0.13168219
98	0xbe148100	-0.14502335
99	0x3c2d3ee8	0.01057408
100	0xbded33b5	-0.11582128
101	0x3d98c9b8	0.0746035
102	0xbd8ecfe1	-0.069732435
103	0xbe0cdbdb	-0.13755743
104	0xbd735dbb	-0.05941556
105	0x3dbba320	0.09161973
106	0xbe1b91c8	-0.1519233
107	0xbd48d30b	-0.04902939
108	0xbd83e386	-0.06439881
109	0xbe2c055f	-0.16798924
110	0xbd4c64f5	-0.049900968
111	0x3b247438	0.0025093686
112	0x3d7fde24	0.06246771
113	0x3d6c9908	0.05776313
114	0xbdd8644c	-0.10566005
115	0xbdaae811	-0.083450444
116	0xbdd7c512	-0.10535635
117	0xbe0cfb6a	-0.13767782
118	0xbb08f94e	-0.002090055
119	0xbe54f413	-0.20796232
120	0xbdca2fb5	-0.09872381
121	0xbdf123c8	-0.11774403
122	0xbde6a336	-0.11261599
123	0xbe0c3aa8	-0.1369425
124	0xbd9b2954	-0.07576242
125	0xbd942a6c	-0.07234654
126	0xbd56f39e	-0.052478425
127	0xbdae4cc4	-0.08510736
