model_weights_8.pth (torch, 154513 bytes, 37 tensors)

layer1.weight f4 [75, 68]
00000000: 25af fca0 cab7 bc22 6e25 a5a2 5482 c1a3
00000010: 1e4e 0523 3b98 34a1 08e8 2a22 969b 4ea2
00000020: b0b0 1322 a70c 9aa2 eb0b a2a2 667c 9522
00000030: 1d1e 5422 38e7 7322 b301 a522 1132 a521
00000040: 1b52 a622 6349 6722 3488 b3a1 c733 f1a0
00000050: 4544 9ca2 fcf1 93a2 d535 a1a1 9def bd9f
00000060: 17e1 6721 60b7 58a1 669d 0f22 2399 bba1
00000070: d0b5 0922 897e 6421 f21d 8ea2 fbcf a322
00000080: 7e72 2922 469b 3aa1 2f65 14a2 01a7 5ba2
00000090: 2a1e 55a2 d67b 38a1 091d 7922 0578 8fa1
000000a0: 4d4d 0b22 dda7 a2a1 6151 8121 d542 4822
000000b0: 36ff 1221 39f7 48a1 eb97 7520 75c8 7ba1
000000c0: 816b 8022 0ad2 3422 c32d c2a0 eed9 15a2
000000d0: c6a3 8f22 8141 29a2 6cbd baa0 86b1 8622
000000e0: a79b 75a2 8766 bfa2 b9f1 f9a1 18ba 6aa2
000000f0: a82d 0522 c3de e221 9f84 9ca2 be13 eb21
00000100: d236 a0a2 e080 ca1f 4292 f4a1 da59 8c22
00000110: 59ef 35a2 9188 7ca2 a5bb 30a2 7aba 89a2
00000120: aca0 c9a1 04b2 84a1 ae14 92a2 d5a3 6522
00000130: 84f1 2ca1 8a01 cea1 f696 e7a1 8295 b29f
00000140: 0d40 9322 f6a9 1f22 1051 04a1 bde2 c3a1
00000150: 93da 8fa2 7643 a4a2 2458 b7a1 d920 9322
00000160: d3c9 3122 9821 cb21 c47f f41f e3d8 36a2
00000170: 140e 86a2 8bc5 9d22 1d01 8d22 4993 88a1
00000180: 62b1 aaa2 b466 b4a1 973b a5a2 e6bd 1c22
00000190: 02ab e121 9c35 a1a2 2fd5 28a2 64ed 4722
000001a0: 374f 3fa2 34a9 4ca2 911d 98a2 e198 a5a0
000001b0: 4de8 ed21 c1ed 66a2 6b9a 7b22 a853 aca1
000001c0: 22d3 57a2 f5d9 a922 aa7a 4da2 759a fd20
000001d0: eedb 9321 f711 3fa2 4f4c cf20 43f7 8e22
000001e0: 61c7 e821 12d2 9222 ebde 8fa2 5a68 2d22
000001f0: 2866 3622 e3d5 88a1 5f9c e221 d65e 85a2
00000200: b766 21a2 5309 2fa1 7224 a121 ed9e 8022
00000210: c4bf 5aa2 a7bb 9121 138f a2a1 ed15 bea1
00000220: b943 73a8 75c8 6028 b86b e628 de63 8328
00000230: d4ee a5a7 1860 e925 b990 0625 91e6 8525
00000240: ea72 5fa4 4417 91a3 296c 3426 e86a 13a5
00000250: 5455 94a4 7b71 fca5 ea3a bb26 c729 c825
00000260: 1eb5 7926 7ca5 5d26 2946 1126 7788 30a7
00000270: dedd 4126 1862 5c25 eebb 2326 ca5b da25
00000280: 37fb 31a5 f3ae 3526 20cf be24 e78a e3a5
00000290: c446 cb25 c272 12a5 a3c1 6025 426f c4a4
000002a0: edf4 3226 9e5b 1f24 3dac 8a25 ff1e 23a5
000002b0: de6f 0325 4393 f7a5 455e 7c26 dcad 1126
000002c0: b01c 6225 044b 0e25 7a77 e122 d749 f1a4
000002d0: 6b02 e6a5 de0d d523 535b cd25 bc95 9622
000002e0: db7b 8424 908a 27a5 87ae b6a4 76ae 9b23
000002f0: ea58 8da2 4d46 2c25 c9a4 0ca5 5c10 1f25
00000300: da0b 2f25 7a77 e126 79f7 1926 6968 2626
00000310: 69c8 a725 4793 0b26 71f9 eb25 0ad2 68a5
00000320: 953d 1a26 2525 5726 8daf 9ca4 0143 6e25
00000330: 9997 41b3 cf5f 1e34 7ef9 87b4 b0ba e8b3
00000340: 53bc aa34 8a27 f9af 6d43 2f2f b821 8731
00000350: 0a60 dbaf 31d0 83ad 4f07 2baf 7f8d 84ad
00000360: fcf1 13af 4dfa 1f32 7d17 a4b0 d1f9 a82f
00000370: c65d bf31 e2eb f1b0 1d02 0fb0 088d 7e31
00000380: dfda 0c30 530b c431 e420 4eb1 2517 dbaf
00000390: c226 63b0 f1c5 c630 944e 0d31 f484 54b1
000003a0: 0f8d c0af c3cd 9bb0 0078 d530 6ee8 e5b0
000003b0: 1370 55b1 3886 aeae 503f 87ae 5742 b12f
000003c0: 5d54 9bae 9386 6eb1 ab76 dbb1 a5db 5db0
000003d0: d1f4 4830 84c3 6bb0 7745 cdb0 9808 4a2f
000003e0: 72f0 0a2f 07d8 022f 824a 97af 7d0c 442f
000003f0: 41ce 27b0 00dd a22f 9fb4 8a2f 92fd 0831
-4.2806361e-19 5.1152096e-18 -4.476297e-18 -2.0980298e-17 7.226486e-18 -6.118785e-19 2.3162132e-18 -2.8000572e-18
2.0015753e-18 -4.175518e-18 -4.3922807e-18 4.0518243e-18 2.87473e-18 3.3055047e-18 4.472514e-18 1.1194087e-18
4.5081323e-18 3.1345188e-18 -1.2165564e-18 -4.0861251e-19 -4.2356168e-18 -4.010064e-18 -1.0924034e-18 -8.044102e-20
7.856375e-19 -7.342634e-19 1.946344e-18 -1.2712148e-18 1.8663213e-18 7.7416873e-19 -3.8520883e-18 4.4401446e-18
2.2964383e-18 -6.3224754e-19 -2.0111306e-18 -2.9768446e-18 -2.8882852e-18 -6.250552e-19 3.3761164e-18 -9.721826e-19
1.8878935e-18 -1.102198e-18 8.762921e-19 2.7140435e-18 4.9804493e-19 -6.808983e-19 2.0802573e-19 -8.530741e-19
3.4808294e-18 2.4505743e-18 -3.289516e-19 -2.0308636e-18 3.893363e-18 -2.2938448e-18 -3.1634975e-19 3.6508733e-18
-3.3286093e-18 -5.187921e-18 -1.693688e-18 -3.181143e-18 1.8049031e-18 1.537332e-18 -4.2424303e-18 1.5929445e-18
-4.342613e-18 8.5763533e-20 -1.6572797e-18 3.804221e-18 -2.4656784e-18 -3.4224666e-18 -2.3951786e-18 -3.7331364e-18
-1.3662819e-18 -8.991788e-19 -3.9595275e-18 3.112202e-18 -5.859551e-19 -1.395951e-18 -1.5693128e-18 -7.563327e-20
3.9912246e-18 2.1638495e-18 -4.4830625e-19 -1.3273731e-18 -3.8991652e-18 -4.4523716e-18 -1.2423893e-18 3.987921e-18
2.4094818e-18 1.3764707e-18 1.0354939e-19 -2.4780418e-18 -3.633568e-18 4.276409e-18 3.8219305e-18 -9.254705e-19
-4.6266404e-18 -1.222446e-18 -4.4786433e-18 2.1242474e-18 1.5291858e-18 -4.36959e-18 -2.2881104e-18 2.7095203e-18
-2.5927263e-18 -2.773673e-18 -4.1230987e-18 -2.8053254e-19 1.6121234e-18 -3.1296678e-18 3.4098591e-18 -1.1677317e-18
-2.9249706e-18 4.6038313e-18 -2.7847618e-18 4.2962078e-19 1.0019322e-18 -2.5894837e-18 3.511766e-19 3.8750976e-18
1.5773707e-18 3.97958e-18 -3.899625e-18 2.3501115e-18 2.471968e-18 -9.272334e-19 1.5355747e-18 -3.6150134e-18
-2.1873946e-18 -5.9304647e-19 1.0919431e-18 3.486274e-18 -2.964603e-18 9.875253e-19 -1.1015418e-18 -1.2880705e-18
-1.3503895e-14 1.2477965e-14 2.5581845e-14 1.4587232e-14 -4.6055638e-15 4.0484173e-16 1.1671681e-16 2.322806e-16
-4.8452753e-17 -1.5730785e-17 6.259663e-16 -1.2786439e-16 -6.432932e-17 -4.379193e-16 1.29917e-15 3.472278e-16
8.663469e-16 7.689905e-16 5.0402066e-16 -2.4498884e-15 6.726101e-16 1.9115194e-16 5.680668e-16 3.787917e-16
-1.5437418e-16 6.303409e-16 8.275025e-17 -3.9472347e-16 3.526284e-16 -1.2702363e-16 1.949451e-16 -8.518993e-17
6.208809e-16 3.4555232e-17 2.4055897e-16 -1.4148498e-16 1.1400341e-16 -4.2947458e-16 8.755782e-16 5.0542604e-16
1.9612095e-16 1.2341953e-16 6.1112873e-18 -1.0464218e-16 -3.9900278e-16 2.309938e-17 3.5623715e-16 4.081612e-18
5.7455694e-17 -1.4531888e-16 -7.922558e-17 1.687902e-17 -3.831227e-18 1.4942441e-16 -1.2198896e-16 1.3796594e-16
1.5182846e-16 1.5644895e-15 5.3417926e-16 5.773432e-16 2.9105685e-16 4.842491e-16 4.093503e-16 -2.0193956e-16
5.351294e-16 7.464345e-16 -6.795161e-17 2.0665911e-16 -4.507419e-08 1.4749752e-07 -2.532724e-07 -1.08373e-07
3.1801991e-07 -4.532093e-10 1.5940112e-10 3.9328505e-09 -3.9904108e-10 -1.4985431e-11 -1.5554956e-10 -1.50695e-11
-1.3455542e-10 9.31193e-09 -1.1939246e-09 3.0736527e-10 5.5694924e-09 -1.76021e-09 -5.20261e-10 3.7042032e-09
5.124274e-10 5.705638e-09 -2.9995642e-09 -3.9852313e-10 -8.2637197e-10 1.4462654e-09 2.0562867e-09 -3.0925635e-09
-3.5024825e-10 -1.1336215e-09 1.5531896e-09 -1.6728003e-09 -3.1059286e-09 -7.936446e-11 -6.150336e-11 3.224325e-10
-7.06357e-11 -3.4710055e-09 -6.38723e-09 -8.0711465e-10 7.310748e-10 -8.5770346e-10 -1.4935456e-09 1.8374846e-10
1.263645e-10 1.190018e-10 -2.751968e-10 1.7830533e-10 -6.104735e-10 2.9624658e-10 2.5230393e-10 1.9934743e-09

layer1.bias f4 [75]
00000000: dd3d 85a1 cb3e eda0 dfdc 2ba3 e198 d82a
00000010: 02bd 3822 ea69 f7a1 b9eb 2ea2 2492 4e22
00000020: 8e1b c7a1 7df1 c320 1010 6ba2 09b5 11a1
00000030: 1ea9 57a2 e84e f3a5 0916 959f f277 6da1
00000040: caf2 09a2 22a6 7fa1 2b8c bcac 95b9 98a1
00000050: fade a3a2 2025 0022 b123 5922 59da b4a1
00000060: b6fe 0ca2 db30 ada7 269f eca0 c1fd 53a7
00000070: a41a 8421 3d2f 88a2 020d 02a2 b5f9 8fa1
00000080: 2a46 ab22 d05b 17a9 f158 93a2 cd6a 8721
00000090: 759b 8522 22a3 75a2 3c2c bfa6 5d3a 7521
000000a0: 4c57 0622 ebfa 9022 934b 3aa2 cde2 0c22
000000b0: 11d0 6029 786b a5a0 20fd a022 d24b 0722
000000c0: a62d 8921 2dea 0ea2 4ed1 651e e657 8ba2
000000d0: c1f9 7322 ead4 47a2 e4a3 80a2 603d 8d22
000000e0: 95c3 4022 ea7c 5d22 7a96 8121 31c4 f521
000000f0: 69e3 a2a2 eb64 eca1 04ed 9622 8adf a8a2
00000100: d349 87a2 45b7 0722 1d93 0ea2 d2da 0a22
00000110: 1682 02a5 9b78 9fa2 e403 9522 e189 eda1
00000120: 316f 98a2 ffd3 8c22 131f 2ea2
-9.028806e-19 -4.0190915e-19 -9.3167e-18 3.847539e-13 2.503671e-18 -1.6765406e-18 -2.3706188e-18 2.7995572e-18
-1.3492058e-18 3.3194088e-19 -3.1856942e-18 -4.936751e-19 -2.9227463e-18 -4.220725e-16 -6.314041e-20 -8.045747e-19
-1.8695494e-18 -8.6617236e-19 -5.358843e-12 -1.0349044e-18 -4.4417324e-18 1.7366889e-18 2.9427879e-18 -1.2255071e-18
-1.910838e-18 -4.8070115e-15 -4.008527e-19 -2.9419693e-15 8.95172e-19 -3.691289e-18 -1.7625172e-18 -9.756154e-19
4.642393e-18 -3.360837e-14 -3.99386e-18 9.176226e-19 3.621432e-18 -3.3290053e-18 -1.3265277e-15 8.308647e-19
1.82066e-18 3.929695e-18 -2.524771e-18 1.9093605e-18 4.991846e-14 -2.8023204e-19 4.3636093e-18 1.833605e-18
9.295564e-19 -1.936856e-18 1.2166442e-20 -3.776909e-18 3.306486e-18 -2.7082245e-18 -3.4867995e-18 3.828311e-18
2.6124392e-18 3.0017214e-18 8.781211e-19 1.6653777e-18 -4.4150968e-18 -1.6018695e-18 4.090853e-18 -4.5773172e-18
-3.6669988e-18 1.8392934e-18 -1.932247e-18 1.881833e-18 -1.1319777e-16 -4.3224732e-18 4.039065e-18 -1.6096241e-18
-4.131741e-18 3.8171536e-18 -2.3597848e-18

layer2.weight f4 [75, 75]
00000000: c1a2 bd26 7770 47a6 754c a8a8 12f2 7927
00000010: aa07 3aa4 82ed 72a5 6385 07a7 f47a 80a5
00000020: 3b43 8826 b6f4 afa3 fdea 9725 c047 fea5
00000030: 4251 8c26 2d10 3328 cae6 6425 fec4 12a8
00000040: c0f1 a227 4e6e 1e26 1e78 0828 9384 2525
00000050: 8d74 eea6 aa42 cfa6 4894 4b26 f9cd 23a6
00000060: 2aa9 2126 a89d 18a7 59d9 8025 50c4 cfa6
00000070: 718e 58a6 2a36 56a6 0ee0 b3a6 a73a b5a6
00000080: fa63 0ca7 e282 8b28 5ff0 03a6 5326 36a7
00000090: 9552 7326 9740 4ca6 5c77 43a8 3180 45a7
000000a0: 386d 53a7 cf49 03a7 f070 eba5 31d5 c427
000000b0: af24 84a7 fe11 8d27 5c06 10a7 4707 1227
000000c0: 9fa4 eaa6 1d28 cda6 fb8c 3aa7 75c3 66a7
000000d0: a97c ca26 8dd9 2527 79f9 f1a5 fcc6 6ba7
000000e0: 1859 4927 9c3b 0d27 3418 5827 84f6 9726
000000f0: a89e 37a7 a614 5626 6386 98a7 4e7a 5c25
00000100: a3d7 7b26 d584 41a6 d314 eda6 241f 3c26
00000110: 7233 a8a7 f796 c1a6 cce7 d327 f1df 0227
00000120: acf2 0d27 42fd 7aa6 0762 19a7 9547 0530
00000130: 42c9 8caf 2fdf d7b1 52b4 05b3 458e 86ad
00000140: bead a9ae daf7 3db0 7900 bfae 8311 be2f
00000150: f0a6 e0ac db34 022f 0af1 3caf 225c c42f
00000160: c2ca 4f31 17c5 9e2e f9d4 4db1 060a e430
00000170: eb7c 5f2f 8961 1533 d0f4 5d2e bf84 27b0
00000180: 6a17 11b0 7f64 8e2f a8c6 65af e4a4 612f
00000190: ed89 2b32 c6ca b52e 1924 27ae 1a9f 97af
000001a0: 0981 96af eb86 fbaf 6d15 feaf 117b 45b0
000001b0: fa9d 4332 c889 38af 3bfc 7fb0 bc88 ab2f
000001c0: 4463 8eaf 7087 b8b1 3f8a 8ab0 315d 92b0
000001d0: a84b 38b0 7e39 24af 0364 0931 f62a 3032
000001e0: d3e0 c530 2df9 49b0 c840 4930 5d1a 25b0
000001f0: e70a 10b0 d7f8 82b0 fe23 a2b0 a200 0e30
00000200: 7375 6930 0b65 2aaf c759 a5b0 2057 8d30
00000210: b859 4630 7ef7 9530 bf40 d62f 61d5 80b0
00000220: 9aa3 952f 821d d6b0 bfc5 952e 4c78 b02f
00000230: 3dac 86af e403 27b0 1e98 842f 90a3 f4b0
00000240: f33d 08b0 71ee 1331 3a93 3430 bb33 4730
00000250: 51ba afaf d1a1 57b0 d389 362e b3ce c0ad
00000260: aed9 13b0 38db 6132 073f b8ab fa5c e8ac
00000270: 6214 82ae e9c9 02ad ed2a 022e d7d5 19ab
00000280: c24e 322d 355d 81ad 1177 062e 3b49 8e2f
00000290: 0a6a d92c 50f1 8caf 9027 1c2f 5c06 992d
000002a0: 6e8f 4532 b3fa 972c c967 65ae 60bc 46ae
000002b0: 3805 c32d ce58 9dad cf7f 9a2d bb05 6a30
000002c0: 59f2 f82c d4ec 60ac 72a7 cfad 7217 cead
000002d0: 6a38 2cae 84fc 2dae bd39 87ae 1ed1 7830
000002e0: 13bb 7cad ab49 afae bbe8 ea2d 63fa c2ad
000002f0: 27de fcaf 6dba bdae b873 c8ae d469 7cae
00000300: 4ce7 60ad eb20 3c2f da74 b2b0 557d 072f
00000310: a148 8aae edce 892e 981e 62ae 103d 45ae
00000320: d564 b3ae 6507 deae 3e79 422e b2d7 9f2e
00000330: 6855 69ad e772 e2ae 2c8e c12e 2fd4 872e
00000340: a361 cd2e 39b6 122e 6877 b0ae baed cc2d
00000350: e49e 12af 531e cd2c 55b0 f12d 5173 b8ad
00000360: b6b9 64ae 1792 b52d c682 27af a495 3aae
00000370: 9d9c 4a2f 4d4a 772e ff64 882e 8899 f0ad
00000380: dca6 93ae 0add b42e ef08 3fae 477b 92b0
00000390: 1bb3 a9b1 128d 36ac 703a 66ad 0ce1 00af
000003a0: 7794 81ad 85f9 802e 646a 98ab 15ae b02d
000003b0: 092e 00ae 973c 852e d8fc 0c30 006a 572d
000003c0: 3da2 0bb0 67b8 9a2f 829e 172e 8e7b 9631
000003d0: 0698 162d 094a e3ae 35e7 c4ae 0a37 412e
000003e0: 3ce6 1bae 7c16 192e 434b e830 dea8 762d
000003f0: f4e2 ceac 6bbc 4dae 8d35 4cae eba4 aaae
1.3158624e-15 -6.919441e-16 -1.8684905e-14 3.4686918e-15 -4.0338813e-17 -2.1070625e-16 -1.8807323e-15 -2.2287777e-16
9.455119e-16 -1.9077177e-17 2.635356e-16 -4.4110596e-16 9.736476e-16 9.940004e-15 1.9854042e-16 -8.147344e-15
4.522614e-15 5.496675e-16 7.575563e-15 1.4356387e-16 -1.6546159e-15 -1.438158e-15 7.063073e-16 -5.683113e-16
5.6087356e-16 -2.1179703e-15 2.235174e-16 -1.4416721e-15 -7.51331e-16 -7.431957e-16 -1.248135e-15 -1.2575296e-15
-1.94831e-15 1.5488861e-14 -4.577552e-16 -2.527835e-15 8.441948e-16 -7.0864253e-16 -1.08505564e-14 -2.7408735e-15
-2.934134e-15 -1.8219914e-15 -4.084253e-16 5.463207e-15 -3.6677132e-15 3.915487e-15 -1.9987462e-15 2.0265515e-15
-1.6281632e-15 -1.4235605e-15 -2.588911e-15 -3.202487e-15 1.4050355e-15 2.3016284e-15 -4.1975885e-16 -3.272067e-15
2.7942651e-15 1.9599995e-15 2.9989142e-15 1.0544548e-15 -2.548236e-15 7.427415e-16 -4.2334177e-15 1.9123397e-16
8.737536e-16 -6.7140347e-16 -1.6450823e-15 6.5267806e-16 -4.6685144e-15 -1.3432984e-15 5.881558e-15 1.8162523e-15
1.9699233e-15 -8.70794e-16 -2.1286156e-15 4.848684e-10 -2.5608854e-10 -6.2826966e-09 -3.1130476e-08 -1.5297217e-11
-7.716093e-11 -6.911002e-10 -8.6857584e-11 3.4573241e-10 -6.3849967e-12 1.1842209e-10 -1.7184135e-10 3.5717657e-10
3.023772e-09 7.220018e-11 -2.9952487e-09 1.6592032e-09 2.0326112e-10 3.4780474e-08 5.046702e-11 -6.094289e-10
-5.2783966e-10 2.5901056e-10 -2.0898006e-10 2.0522212e-10 9.984871e-09 8.266947e-11 -3.8003465e-11 -2.7579788e-10
-2.7376526e-10 -4.57525e-10 -4.6217555e-10 -7.184307e-10 1.1386414e-08 -1.6783652e-10 -9.31269e-10 3.1201874e-10
-2.5900182e-10 -5.3705023e-09 -1.0080113e-09 -1.0649385e-09 -6.7046324e-10 -1.4936138e-10 1.9992974e-09 1.02543165e-08
1.4397535e-09 -7.3477474e-10 7.3215434e-10 -6.0064115e-10 -5.240239e-10 -9.529469e-10 -1.1797281e-09 5.16602e-10
8.493181e-10 -1.5497308e-10 -1.2030846e-09 1.0283863e-09 7.215948e-10 1.0911518e-09 3.8972378e-10 -9.373872e-10
2.7219188e-10 -1.5578936e-09 6.810862e-11 3.209969e-10 -2.449684e-10 -6.0759775e-10 2.4118746e-10 -1.7799824e-09
-4.9564547e-10 2.1526854e-09 6.569284e-10 7.246929e-10 -3.19647e-10 -7.84465e-10 4.150442e-11 -2.1919666e-11
-5.378763e-10 1.3146568e-08 -1.309148e-12 -6.604159e-12 -5.915336e-11 -7.4344775e-12 2.9596704e-11 -5.465328e-13
1.0135616e-11 -1.4706994e-11 3.0573825e-11 2.5881683e-10 6.1792836e-12 -2.5637314e-10 1.4202173e-10 1.739691e-11
1.1499521e-08 4.3195113e-12 -5.216075e-11 -4.51873e-11 2.2171251e-11 -1.788827e-11 1.7564531e-11 8.513685e-10
7.07549e-12 -3.196378e-12 -2.3607536e-11 -2.34299e-11 -3.9158378e-11 -3.9559925e-11 -6.1493456e-11 9.051905e-10
-1.436608e-11 -7.971165e-11 2.6706073e-11 -2.216644e-11 -4.5996382e-10 -8.627841e-11 -9.115503e-11 -5.739216e-11
-1.2784284e-11 1.7110195e-10 -1.2984416e-09 1.2322705e-10 -6.288415e-11 6.266796e-11 -5.1413623e-11 -4.484685e-11
-8.157889e-11 -1.0096705e-10 4.4218178e-11 7.268798e-11 -1.3263481e-11 -1.0297701e-10 8.801879e-11 6.1767806e-11
9.3396645e-11 3.3358403e-11 -8.024764e-11 2.3297687e-11 -1.3335072e-10 5.829817e-12 2.7476835e-11 -2.0969589e-11
-5.2006142e-11 2.0642195e-11 -1.5235022e-10 -4.242441e-11 1.8427433e-10 5.622729e-11 6.2025045e-11 -2.7353023e-11
-6.714426e-11 8.224717e-11 -4.3436307e-11 -1.0657936e-09 -4.9389093e-09 -2.5942065e-12 -1.3086962e-11 -1.1721485e-10
-1.4731534e-11 5.86509e-11 -1.0829779e-12 2.0086191e-11 -2.9144718e-11 6.058903e-11 5.1291016e-10 1.2244872e-11
-5.079846e-10 2.8143463e-10 3.4474208e-11 4.379621e-09 8.560269e-12 -1.0335916e-10 -8.954119e-11 4.3932004e-11
-3.544741e-11 3.4808142e-11 1.6901612e-09 1.4020977e-11 -5.880069e-12 -4.6778952e-11 -4.6431792e-11 -7.76e-11

layer2.bias f4 [75]
00000000: 8b7b 7da7 3a12 afb2 8994 34b0 3a5c 91b0
00000010: bf24 17b0 d6c7 43ae 9708 29b2 af3d a0b4
00000020: 8c7c 8cb0 0d81 b8b1 13f1 6fad 3f7f 18b0
00000030: 0a02 7ab0 9bf2 a4ab 2d71 aeaf e9e4 c7ad
00000040: cb48 47ab e861 8db2 17ec c2ac 5c9c 07b2
00000050: 0388 f6b2 6dae 97b0 7725 57b1 3779 07ac
00000060: 72f6 d3b2 478f 3cb0 9635 c3ad 55b8 76af
00000070: 605c 3eb1 d4c5 99ab 04d4 94ae ee99 73aa
00000080: 0f5a f4b2 caf9 19b0 8366 47b4 051b 3eb0
00000090: 5489 1eb2 e472 adb0 f1de bab0 8a04 84af
000000a0: e74c 6db3 0ab3 1b33 f262 cf2b 099c 5db5
000000b0: 9400 deb3 126e 92b4 d242 19b2 40a5 5eaf
000000c0: 80aa e5b0 6e0c 04b5 2e23 e3af 3035 56b4
000000d0: 8186 a5ae 833f c2b1 1d45 7fb0 6db1 ebaf
000000e0: 5f51 d2b0 a902 2bb3 2440 34af 8e98 4eae
000000f0: 08ce 5bb5 054a 87ae abed 1fb2 fdef 61b4
00000100: e0b0 b4b2 8de6 12b0 ee06 50a9 0014 00b0
00000110: bea8 8bb1 3200 4dac a9a8 29b3 bc16 b4b5
00000120: 4903 98ae 17a8 adb1 fd84 05af
-3.5177776e-15 -2.038097e-08 -6.56947e-10 -1.0576351e-09 -5.49857e-10 -4.4515357e-11 -9.839048e-09 -2.9847203e-07
-1.0221739e-09 -5.369776e-09 -1.3639106e-11 -5.5478105e-10 -9.095237e-10 -1.1720237e-12 -3.1730832e-10 -2.2725337e-11
-7.0800023e-13 -1.6459083e-08 -5.540023e-12 -7.893586e-09 -2.870002e-08 -1.1036271e-09 -3.1307914e-09 -1.9251942e-12
-2.4675703e-08 -6.859761e-10 -2.219273e-11 -2.2439058e-10 -2.7701148e-09 -1.0926212e-12 -6.767922e-11 -2.1636141e-13
-2.8446292e-08 -5.601605e-10 -1.8570613e-07 -6.9159994e-10 -9.228035e-09 -1.262006e-09 -1.3596645e-09 -2.4013885e-10
-5.5250805e-08 3.6251585e-08 1.4735697e-12 -8.2555977e-07 -1.0337786e-07 -2.7274706e-07 -8.920965e-09 -2.0249491e-10
-1.6710402e-09 -4.919192e-07 -4.1316056e-10 -1.9949653e-07 -7.527224e-11 -5.6533636e-09 -9.2866675e-10 -4.287232e-10
-1.5302638e-09 -3.981646e-08 -1.6393692e-10 -4.6974473e-11 -8.188367e-07 -6.152238e-11 -9.3090575e-09 -2.1042065e-07
-2.1035191e-08 -5.3442123e-10 -4.619129e-14 -4.659455e-10 -4.064616e-09 -2.913236e-12 -3.9501774e-08 -1.3417662e-06
-6.912743e-11 -5.0540723e-09 -1.2143526e-10

layer3.weight f4 [75, 75]
00000000: 585e 9026 1c1c aeb1 3e69 55b0 d4cb 3fb0
00000010: 99c0 2c30 e116 80ad 16b9 b431 8a2f b030
00000020: d708 19b0 eed6 0630 7cff 642c d2d4 f82e
00000030: 94f1 512f 96d6 c52c b91f b530 6bdf 242f
00000040: 7f2f 082e fe59 dbb0 b8bf 992b 6575 ad31
00000050: 8ff1 06ae 0d8f 2baf c77f 53b1 57d8 722c
00000060: ffaa 71b1 4aa5 5cb0 a3fb 192b c3e9 602e
00000070: cfb6 27b0 e9e3 7d2e 2491 da2e ae9f d32a
00000080: 57be 912f 41a4 f32e a92f dc30 ffe9 1b31
00000090: a6d7 b6b1 5c48 c2b0 646a be2f d1cc bf2f
000000a0: 55d7 49b1 030d 1231 2fe6 68aa f467 65b2
000000b0: f098 3c31 83c5 7333 06c2 2d30 a99a 80ac
000000c0: 50f1 afaf d2f0 9e32 cfd1 e3af 4844 c431
000000d0: a71e c730 3966 f630 d07c 93b0 5b99 0c30
000000e0: 2097 e0ae 3cc6 7cb1 82d1 f4af fd76 e02e
000000f0: 9063 ceb1 0a08 3030 104d 032f 80a0 e22f
00000100: 5822 bd2f 4946 fcae 6912 2ea9 30b4 52b0
00000110: 3bf6 47af 3d7c dcab 1047 0ab2 cd54 e431
00000120: 9ddc 0c2f 1f0c 292f 6e6c b92e a030 1325
00000130: 9330 55af c423 a3ae 825b 8daf 9e8c 932e
00000140: b11e 0fac 487a 8230 d4c8 ec2f e019 2faf
00000150: 0be8 592f 0a73 d02a 3340 282e 0bc1 a32d
00000160: d40a 882b 66ac 402f d793 182e 5abb ed2c
00000170: 7990 1c30 c8ad 012b 3a23 3431 0c09 7aad
00000180: 5ad3 73ad 10d8 21b0 09e7 9d2b d681 29b0
00000190: d8c7 82af 2f32 edab ba96 492d d3c6 4aae
000001a0: 3e10 3f2d b4d6 262e e113 a729 3e28 e72e
000001b0: fe7c 3d2d b3fd a6b0 8895 9d2f 2233 a62f
000001c0: 7369 afaf b2ba 3cae 3408 052e 5339 c4af
000001d0: 15a4 832f 775d 2529 7fb0 38b2 8387 f62f
000001e0: feab ca32 9827 cb2e 8fde cead 43ef 62ae
000001f0: 2c16 6eb1 b27d 42ae 4258 6531 13b3 3a2f
00000200: 7cc5 54af 20ff 2aaf e706 a22e d612 7aad
00000210: 164e 6c2f 2f57 83ae bfb2 872d 1eca d3b0
00000220: 66b4 082f ff9d 20ad b5bb 2eb0 ccff c22f
00000230: 47ac 732d b816 11a8 f9bf 0baf 8fea c2ad
00000240: 5014 cc2a 2b88 c0b1 35f0 0031 1def e32d
00000250: 0935 5f2f 89d8 942d a8cc bda8 616d cc31
00000260: 5bee e8b0 46e8 8131 e344 f730 f341 47af
00000270: 81b8 fdb0 3d33 65b1 6b54 1bb0 8edb fbb0
00000280: 8c1d 5d2c f619 acaf e23b 6731 b1e2 25ae
00000290: 6fbe 8b31 f36d 0b31 a38f b32f c088 9832
000002a0: 97e1 b2ac 630e 8134 5876 3131 efc1 a031
000002b0: ee52 0f32 e9f4 9caf e4d3 fb33 df2e bab2
000002c0: 1dd5 a52c c112 feaf eabe 5f30 d2c6 6b2f
000002d0: ae6d 4e30 c767 7eac b7de fdb0 ee5a 44b1
000002e0: cda3 0fb3 15cb 3c32 f8bd ef33 ca10 96b0
000002f0: 8d0e 9730 1a55 d031 87fe 1531 361f 6832
00000300: d36e 07ae c9c3 1032 f3af 84b2 e7e4 26b4
00000310: 6950 76b0 bfb5 29b1 c58a 12af 6137 f7b4
00000320: d14d 8231 af0a 14b4 7e53 6b31 7adb 0333
00000330: adc8 8c31 2b8c 4db0 b36c 7faf 9f18 d2b0
00000340: 7acc 2eb0 0b5a 2ab0 ae16 0db4 f67e 8fb1
00000350: 11d9 fd31 ef8b 69b2 0c4a 8eaf 5489 ceb1
00000360: e735 cf2a 410e 09b2 065d 40af be4e 9bad
00000370: 281e 0133 94bd beb4 3594 59b0 59db 3530
00000380: 39dc 982f b647 fe26 9132 6031 660b d62f
00000390: 88a9 50b0 bbea 04ae be62 d32c b987 7330
000003a0: 38c6 50b2 31e4 1fae 6d9d f92f 687d 4aac
000003b0: 14a5 9c2f 3b6f dbae 1990 af2c e475 dcae
000003c0: 43e2 a6ac 75cf a22d ef9a 6db1 64cb 88aa
000003d0: 1aea 3331 c4df 24af 99cb 8eaf 2104 0530
000003e0: b139 9f2d 601b 00b2 6c3c 62b0 0b6a e0a8
000003f0: 7f28 622e 1a61 95af 43b8 772d 4f99 0c2e
1.0017579e-15 -5.067262e-09 -7.7638507e-10 -6.977505e-10 6.2846933e-10 -1.4562076e-11 5.2597313e-09 1.2819197e-09
-5.567364e-10 4.905435e-10 3.254257e-12 1.1315539e-10 1.9094265e-10 5.6229006e-12 1.3178499e-09 1.4995087e-10
3.0965005e-11 -1.5959924e-09 1.0924516e-12 5.048309e-09 -3.068262e-11 -1.5603181e-10 -3.0777174e-09 3.4510361e-12
-3.5167316e-09 -8.0270424e-10 5.4705735e-13 5.1139325e-11 -6.101403e-10 5.7727965e-11 9.9392744e-11 3.759193e-13
2.651059e-10 1.1079538e-10 1.6020653e-09 2.268848e-09 -5.3214135e-09 -1.4135924e-09 3.4636394e-10 3.4888228e-10
-2.9371752e-09 2.1253193e-09 -2.06856e-13 -1.33531906e-08 2.7444536e-09 5.6757482e-08 6.321276e-10 -3.6551495e-12
-3.2003777e-10 1.8503133e-08 -4.1440137e-10 5.7121134e-09 1.4487868e-09 1.7927909e-09 -1.0731132e-09 5.1149635e-10
-1.0213186e-10 -3.678351e-09 -4.4532206e-10 1.0207477e-10 -6.006708e-09 6.403985e-10 1.1941759e-10 4.1223203e-10
3.4403302e-10 -1.14721184e-10 -3.865173e-14 -7.6653617e-10 -1.8186423e-10 -1.5666423e-12 -8.048815e-09 6.645314e-09
1.2811303e-10 1.5374767e-10 8.432087e-11 1.2766692e-16 -1.9389494e-10 -7.418735e-11 -2.571277e-10 6.709765e-11
-2.033856e-12 9.493499e-10 4.3070847e-10 -1.592535e-10 1.9818473e-10 3.7028047e-13 3.8255798e-11 1.8616683e-11
9.666387e-13 1.7523547e-10 3.4692107e-11 6.7567453e-12 5.695778e-10 4.6071176e-13 2.6213471e-09 -1.42128635e-11
-1.385988e-11 -5.88785e-10 1.1219646e-12 -6.166635e-10 -2.378886e-10 -1.6853792e-12 1.1458995e-11 -4.6106074e-11
1.08606995e-11 3.7934725e-11 7.419738e-14 1.0511812e-10 1.077116e-11 -1.2150195e-09 2.8664382e-10 3.0231556e-10
-3.190724e-10 -4.291207e-11 3.0247985e-11 -3.5692924e-10 2.3945348e-10 3.6718428e-14 -1.075034e-08 4.4843426e-10
2.3594108e-08 9.2384045e-11 -2.3518324e-11 -5.1598958e-11 -3.4646161e-09 -4.4222133e-11 3.3374055e-09 1.6980221e-10
-1.9351448e-10 -1.5552049e-10 7.368133e-11 -1.4215037e-11 2.1491817e-10 -5.972677e-11 1.5427102e-11 -1.5409716e-09
1.2433218e-10 -9.130029e-12 -6.356758e-10 3.547015e-10 1.3851204e-11 -8.054043e-15 -1.2710179e-10 -2.2159411e-11
3.6251774e-13 -5.603416e-09 1.8762993e-09 2.59131e-11 2.0300574e-10 1.6921813e-11 -2.107197e-14 5.9496164e-09
-1.6947966e-09 3.7808006e-09 1.7991194e-09 -1.8122374e-10 -1.8460612e-09 -3.3353011e-09 -5.6508637e-10 -1.8325055e-09
3.142239e-12 -3.1305064e-10 3.3648964e-09 -3.7718e-11 4.0670822e-09 2.028966e-09 3.266197e-10 1.7757316e-08
-5.0841098e-12 2.403859e-07 2.582416e-09 4.6786606e-09 8.3425515e-09 -2.8550254e-10 1.1726641e-07 -2.1674564e-08
4.7132424e-12 -4.6215656e-10 8.139823e-10 2.144376e-10 7.509823e-10 -3.615318e-12 -1.8471472e-09 -2.8573441e-09
-3.3443758e-08 1.0989216e-08 1.116386e-07 -1.0918708e-09 1.0990832e-09 6.0632717e-09 2.1827036e-09 1.3511274e-08
-3.0793878e-11 8.42642e-09 -1.5446835e-08 -1.5543229e-07 -8.960855e-10 -2.4696047e-09 -1.3327923e-10 -4.604763e-07
3.7923447e-09 -1.3787461e-07 3.424446e-09 3.0700427e-08 4.0973505e-09 -7.4777756e-10 -2.3230733e-10 -1.5286509e-09
-6.359141e-10 -6.19736e-10 -1.3139899e-07 -4.1762815e-09 7.3879467e-09 -1.3594202e-08 -2.5882263e-10 -6.0110015e-09
3.680799e-13 -7.9776905e-09 -1.7495347e-10 -1.7656428e-11 3.006258e-08 -3.5528194e-07 -7.9154755e-10 6.615913e-10
2.7805117e-10 1.7644228e-15 3.2625034e-09 3.8934472e-10 -7.591088e-10 -3.0221808e-11 6.0079433e-12 8.859576e-10
-1.2152263e-08 -3.635509e-11 4.5404694e-10 -2.877554e-12 2.849353e-10 -9.9787255e-11 4.989797e-12 -1.0025383e-10
-4.743124e-12 1.8509397e-11 -3.4576109e-09 -2.4299584e-13 2.6181e-09 -1.499521e-10 -2.5974314e-10 4.8390986e-10
1.8101827e-11 -7.456805e-09 -8.2304186e-10 -2.4914985e-14 5.142242e-11 -2.7171937e-10 1.4081239e-11 3.196848e-11

layer3.bias f4 [75]
00000000: aa9b 0630 e399 5ab0 cc71 9533 6dfc c132
00000010: 19d8 1335 483e 23b2 c926 8c37 2124 c2b4
00000020: 0639 1eb5 465e 3e37 7c05 5eb1 13d0 1d33
00000030: 57b7 9732 9f8a 94b5 ab15 3636 531e a037
00000040: ca5d 0fb7 3fb2 8536 8046 1cb4 6c7e 7fb2
00000050: 5c77 43b4 472e 2d2e 01cf 30b0 9642 8732
00000060: 899c c9b3 580c b633 4ac9 0a32 7f50 6630
00000070: 7338 d0b0 0f06 d5b1 52a9 79b5 8d3a 37ae
00000080: 1f50 cb31 be7f d832 e45a 8d35 c05b a1af
00000090: 72b3 7830 e0ad cdb1 2b9e f8ae 783b 4ab4
000000a0: c74f d0b2 e0d0 0baf 9d6a 0e35 011a 31b5
000000b0: 1619 e831 f216 d633 4e8e b332 cb36 2a32
000000c0: 346f 04b4 0b65 632d 286d 4334 876d d833
000000d0: a5a5 feae 80d8 5b32 1c8d ec33 524b 92b2
000000e0: a29f 3fb0 0b8f d8b6 6108 a536 dbf2 22b3
000000f0: 7af3 6435 76de dab1 997e 52b5 9ed5 e4b3
00000100: 37a1 fead 039f ccb3 4ffd 3037 bd5f 9bb4
00000110: 43ea 8b31 6ef7 1c37 5583 0bb4 f8b4 37b2
00000120: 2c86 acb3 e4c9 acaf 7868 b730
4.897013e-10 -7.9526624e-10 6.959053e-08 2.2582947e-08 5.507623e-07 -9.50201e-09 1.6707361e-05 -3.6161603e-07
-5.8942567e-07 1.1346832e-05 -3.230837e-09 3.6743653e-08 1.7662087e-08 -1.1067203e-06 2.7132726e-06 1.9087607e-05
-8.545301e-06 3.9844595e-06 -1.455428e-07 -1.48716985e-08 -1.8204213e-07 3.937675e-11 -6.43226e-10 1.5746348e-08
-9.3882655e-08 8.477281e-08 8.078425e-09 8.3787904e-10 -1.5150036e-09 -6.1998047e-09 -9.300612e-07 -4.1661386e-11
5.9171863e-09 2.52038e-08 1.0531771e-06 -2.9350922e-10 9.047688e-10 -5.9860525e-09 -1.13058306e-10 -1.883435e-07
-2.4250665e-08 -1.2716184e-10 5.3054265e-07 -6.597548e-07 6.7549406e-09 9.969325e-08 2.0903055e-08 9.907761e-09
-1.2333913e-07 1.2925892e-11 1.8200501e-07 1.0078207e-07 -1.1580007e-10 1.2796704e-08 1.1015274e-07 -1.7030889e-08
-6.9712247e-10 -6.453954e-06 4.9183586e-06 -3.793944e-08 8.5290924e-07 -6.369926e-09 -7.841532e-07 -1.0655934e-07
-2.894805e-11 -9.528414e-08 1.05493955e-05 -2.894066e-07 4.072065e-09 9.355934e-06 -1.2993162e-07 -1.06931495e-08
-8.03378e-08 -3.143007e-10 1.3344694e-09

layer4.weight f4 [75, 75]
00000000: 8ead 482f 9568 5b2e 1224 1b30 4882 b2ae
00000010: 5ed7 d2b0 5339 b7ad 4f1f 6f31 807a 34b1
00000020: cc30 3030 5572 4db1 094f 1fae e176 5d2f
00000030: 0b2f 87ae 6847 b1b1 d3f9 24b1 b6d4 19b2
00000040: 3102 af30 ecba b2b1 d455 f9af ba8d e02c
00000050: 3296 c0b0 2d5b 832e 2c3c d32b 9646 3a2e
00000060: 7c54 5db0 4a91 832f 3329 e1af 85c3 59ad
00000070: df2c 14ad 4951 1eaf 96f6 ddb1 fcbc 0d2e
00000080: 5198 092e 6bef f62f ca99 0fb1 eb1f bf2d
00000090: bbf6 7aae 9aeb 952d bbea 5bae d931 aab1
000000a0: 2e51 892f 1e1d a1ad 08d1 3a30 304d 1730
000000b0: 8967 3dae 22ff 6cb0 2196 ca2e d385 d72c
000000c0: 2f33 4e2f cea2 542c 1299 79af e399 04af
000000d0: 4623 05ab 5b6a bd2e b3e7 0d30 ef54 1e2e
000000e0: b5b4 842c 4364 49b1 a4b8 aeb2 be3d fe2e
000000f0: 558b 35b0 1e81 5fae 9018 26b2 97a8 f42f
00000100: ba2a a8ae d231 9830 3362 b830 264f cbb0
00000110: d8dc 0d2f fae8 83b1 a4d3 9caf bddd b02e
00000120: 3ac7 36b0 780e 742c cdf1 3eae f63e be30
00000130: 81c5 3030 5043 75b0 f5bd a331 93e0 4c33
00000140: 1063 12b1 db17 cf34 3203 3930 686e d6b3
00000150: d6a8 4bb4 e1aa ffaf 78b1 32b3 e962 8eb1
00000160: df65 0eb4 705d 6d33 af24 cb33 a7ae 2ab4
00000170: 2020 8bb3 dd49 39b4 faba ce30 c2d2 91b2
00000180: ca3d 77af 1c0c 7baf bf9c 9031 4eb6 f8b3
00000190: 48a0 8532 7345 922f df2a d3af 2b64 d8b0
000001a0: bde8 bb2f 744d c6b3 5383 a22f be58 91b0
000001b0: 9508 0bb2 58c5 50b3 a451 07b0 0ca3 5aaf
000001c0: aedc 75b0 3d6d 87b0 e043 12b2 6363 fcaf
000001d0: 3bae 0baf 6c9b 4533 6039 a132 7435 b731
000001e0: fd8e ffb2 a03b bc30 3a67 4731 2bc5 b531
000001f0: b1ca cfad a4d4 91b3 7d2f a5b2 44a3 182f
00000200: 84cb 6831 1ee5 1633 fe76 4131 2fbe cf2e
00000210: 1c5e f0b3 708a a0b4 d5f4 b4af bd2c eeb2
00000220: 1096 44af 99a5 1bb4 c4e5 c332 bf7b 63b1
00000230: 44a4 4733 3ee1 e4b3 5ffc 2133 b12e 792f
00000240: a3a5 12b4 2002 90b2 12a0 7431 7756 81b2
00000250: d7ea 972f a4e2 08b0 beec d7b1 1254 83b0
00000260: 8ab1 1734 bd4e c833 0f3b 9036 9ef4 05b3
00000270: fdda aab7 ec5f eab5 3639 07b7 c652 8537
00000280: cc62 f930 c912 2eb3 3fa8 01b4 5bea c7b5
00000290: a754 2036 61bd 3737 da4f 78b6 ec08 adb6
000002a0: 82e4 a5b4 7c33 f332 31f4 2fb5 792c 3ab1
000002b0: 4f0b 2d2f 3a7d 9e33 cb21 54b5 96d7 6b34
000002c0: 7240 c5b3 e909 4bb1 394c b3af e0ba b9b1
000002d0: 1cf0 9fb5 7666 3aaf f639 b0b3 8e44 9532
000002e0: cdcb 4eb5 644d 5fb1 3633 8eb2 8e1d 50b0
000002f0: c421 bc30 190b 7734 bfb0 2633 60bb 4aaf
00000300: d2f2 8335 6bf5 1535 1914 8333 f326 27b5
00000310: ed58 1232 325e 5e32 aa0d 2334 d2d7 c02e
00000320: 5e07 56b5 e658 d1b4 7059 af30 0418 8c33
00000330: b8f3 9d34 3708 ce32 dd21 46b1 640c 44b6
00000340: 112b fb35 1c3c df33 2873 6bb4 7c5d c032
00000350: 65ba 15b6 eba2 7134 ef91 86b2 6942 d734
00000360: 624c cab6 cccc f834 6907 a533 1c87 62b5
00000370: 5cc3 2cb5 ec04 6b33 f168 61b4 c922 11b2
00000380: ee55 5630 206f 6631 895e 0230 6fe7 90b1
00000390: 9e1c cf31 9705 2634 0510 0431 9f24 6634
000003a0: fd29 30b3 a52a c2b4 c1fc 1fb4 3e61 282f
000003b0: 115e 1db3 dba2 2fb2 81dd 29b4 901b 4233
000003c0: 0637 c434 b4ad efb3 0285 d2b4 b635 4cb3
000003d0: cd98 8faf a6c3 b9b3 83cf adaf 24a0 b1af
000003e0: 1eeb 2031 9eba 60b4 43da 4e32 1e9f 6c32
000003f0: ad87 a2af 2a5b 32b0 a464 2230 fa7b 1b31
1.8251553e-10 4.9887722e-11 5.643993e-10 -8.1176454e-11 -1.5340722e-09 -2.0830148e-11 3.4796874e-09 -2.626308e-09
6.409777e-10 -2.9896416e-09 -3.622261e-11 2.0142067e-10 -6.147446e-11 -5.159496e-09 -2.400715e-09 -8.954137e-09
1.2733549e-09 -5.2017324e-09 -4.535382e-10 6.3821977e-12 -1.4012527e-09 5.9733864e-11 1.5009153e-12 4.2354197e-11
-8.051939e-10 2.3931995e-10 -4.0956535e-10 -1.2378436e-11 -8.422789e-12 -1.4398895e-10 -6.45998e-09 3.222754e-11
3.1285478e-11 4.4917256e-10 -2.0896658e-09 2.172836e-11 -5.706256e-11 1.7043967e-11 -5.0003317e-11 -4.953318e-09
2.4977836e-10 -1.8316512e-11 6.7963457e-10 5.504317e-10 -4.3065582e-11 -8.6218865e-10 9.212565e-11 6.125525e-12
1.8753775e-10 3.0217387e-12 -2.27008e-10 -1.2060002e-10 -4.7300044e-13 8.6136175e-11 5.1624766e-10 3.6000477e-11
3.771728e-12 -2.9306342e-09 -2.034023e-08 1.156155e-10 -6.604542e-10 -5.081901e-11 -9.668057e-09 4.4503132e-10
-7.647345e-11 1.1073615e-09 1.3415672e-09 -1.4792689e-09 1.2902335e-10 -3.839088e-09 -2.8526614e-10 8.042942e-11
-6.649433e-10 3.4682517e-12 -4.341576e-11 1.3842214e-09 6.4309097e-10 -8.922614e-10 4.76552e-09 4.77017e-08
-2.1302107e-09 3.8574112e-07 6.730715e-10 -9.985234e-08 -1.896727e-07 -4.6505647e-10 -4.160526e-08 -4.1439887e-09
-1.3261841e-07 5.5265843e-08 9.459597e-08 -1.5896022e-07 -6.4785354e-08 -1.7256339e-07 1.5041615e-09 -1.6976063e-08
-2.2486471e-10 -2.2832619e-10 4.2087716e-09 -1.1581561e-07 1.5556125e-08 2.6606592e-10 -3.8411138e-10 -1.5744538e-09
3.4180472e-10 -9.234182e-08 2.956094e-10 -1.0575361e-09 -8.092816e-09 -4.8608257e-08 -4.922873e-10 -1.988491e-10
-8.9444085e-10 -9.85359e-10 -8.5137515e-09 -4.5909151e-10 -1.2703875e-10 4.6008992e-08 1.8768958e-08 5.332078e-09
-2.975093e-08 1.3695747e-09 2.9016989e-09 5.2902087e-09 -2.3623188e-11 -6.790768e-08 -1.9230123e-08 1.3882323e-10
3.3876129e-09 3.5132977e-08 2.8152836e-09 9.4470536e-11 -1.1192989e-07 -2.990305e-07 -3.2915773e-10 -2.7727191e-08
-1.7879409e-10 -1.4495744e-07 2.2805473e-08 -3.310319e-09 4.6482697e-08 -1.0658049e-07 3.7715264e-08 2.2663006e-10
-1.3657568e-07 -1.6764773e-08 3.5597663e-09 -1.5056896e-08 2.7633604e-10 -4.979859e-10 -6.284238e-09 -9.555399e-10
1.4127559e-07 9.327548e-08 4.2984097e-06 -3.1188954e-08 -2.0367554e-05 -1.7462276e-06 -8.0599475e-06 1.589338e-05
1.8145214e-09 -4.0529617e-08 -1.2075269e-07 -1.4894862e-06 2.3891132e-06 1.0951743e-05 -3.700136e-06 -5.1568404e-06
-3.0899906e-07 2.8312336e-08 -6.5547925e-07 -2.7091842e-09 1.5738276e-10 7.380227e-08 -7.902533e-07 2.196451e-07
-9.18525e-08 -2.9546021e-09 -3.261407e-10 -5.405454e-09 -1.1916304e-06 -1.6953003e-10 -8.206182e-08 1.7377058e-08
-7.703755e-07 -3.2494762e-09 -1.6554264e-08 -7.571196e-10 1.3688397e-09 2.3007705e-07 3.8810636e-08 -1.8438362e-10
9.830931e-07 5.5863956e-07 6.1038186e-08 -6.2269027e-07 8.518538e-09 1.2943518e-08 1.5185529e-07 8.7694865e-11
-7.9731933e-07 -3.8993966e-07 1.2758345e-09 6.5236264e-08 2.9420858e-07 2.3985292e-08 -2.8832041e-09 -2.9213488e-06
1.8713491e-06 1.03951805e-07 -2.1927974e-07 2.2394254e-08 -2.2311226e-06 2.2504143e-07 -1.5666016e-08 4.009519e-07
-6.0289613e-06 4.634261e-07 7.684759e-08 -8.438817e-07 -6.435928e-07 5.4719678e-08 -2.0992935e-07 -8.44802e-09
7.797486e-10 3.3532572e-09 4.7428067e-10 -4.2172625e-09 6.0277463e-09 1.5461988e-07 1.9217634e-09 2.1433742e-07
-4.101638e-08 -3.6166344e-07 -1.489998e-07 1.5314058e-10 -3.6639964e-08 -1.022337e-08 -1.5819934e-07 4.5194213e-08
3.654788e-07 -1.1160901e-07 -3.9212324e-07 -4.75463e-08 -2.612012e-10 -8.650322e-08 -3.1615963e-10 -3.23099e-10
2.3416713e-09 -2.0929517e-07 1.2040405e-08 1.3773187e-08 -2.9564032e-10 -6.4885575e-10 5.9078276e-10 2.2625941e-09

layer4.bias f4 [75]
00000000: b76b 48b1 5af9 2eb4 c281 27b8 d4fd a5b3
00000010: 3d92 58b5 b723 f0af f7b1 eeb6 6b0c bdb6
00000020: 3929 282e a3ae 1ab2 c6da 4ab2 6f81 1bb5
00000030: 88b5 b9b0 dd14 33b3 fdc8 22b4 55cb 27b6
00000040: 04ad e0b6 5608 ceb7 1366 57b6 2e90 5eb9
00000050: dd93 f9b5 c9e5 06b6 6a7e edb4 d0f3 6ab9
00000060: 8408 7db7 daaf 20b8 edb7 89b3 d5bf 53b5
00000070: 1d67 cc28 444b 59b2 244a d5b4 4c56 bdb5
00000080: 8d93 e939 7266 2eb5 73cd 8db3 8a2e 6eb9
00000090: afe2 2bb4 0b6f e5b7 b49a 86b3 5e6f 35b2
000000a0: ec7d 94b5 b452 8cb9 f19b 68b7 ee21 bab4
000000b0: 4a06 7eb2 6164 c8b8 e0fe d2b2 22cd 84af
000000c0: da9c 53b2 44e1 81b9 45bb 08b9 a594 dbb5
000000d0: faf8 5ab3 936e c3a8 2385 a8b6 e3b6 abb5
000000e0: d4e0 b5b6 75ce 3ab3 8c7e 54b4 ff7b 30b3
000000f0: f0b2 a3b9 ddb4 6eb4 d350 92b2 b2c6 89b6
00000100: bb21 08b7 8ebf eeb6 b913 a8b0 972f 61b6
00000110: bc26 6eb8 074d 1fb1 5c32 b4ae b01b aeb5
00000120: bbc8 92b4 66a8 c0b3 5106 9caf
-2.916506e-09 -1.6295726e-07 -3.993675e-05 -7.729582e-08 -8.0679075e-07 -4.3681123e-10 -7.1136706e-06 -5.6340846e-06
3.823539e-11 -9.003688e-09 -1.1807691e-08 -5.793035e-07 -1.3512116e-09 -4.169566e-08 -1.5160545e-07 -2.5003294e-06
-6.695862e-06 -2.4560995e-05 -3.2096912e-06 -0.00021225281 -1.859498e-06 -2.0101309e-06 -4.4236668e-07 -0.00022406806
-1.5081958e-05 -3.8310747e-05 -6.4130155e-08 -7.888278e-07 2.2693268e-14 -1.2648176e-08 -3.9728286e-07 -1.4106713e-06
0.00044551157 -6.496913e-07 -6.603195e-08 -0.00022714786 -1.6008083e-07 -2.7350636e-05 -6.2680016e-08 -1.0560909e-08
-1.1063507e-06 -0.000267645 -1.38645855e-05 -3.4669887e-07 -1.4786176e-08 -9.55544e-05 -2.4563121e-08 -2.4156416e-10
-1.231748e-08 -0.00024772633 -0.00013039734 -1.6360033e-06 -5.0983523e-08 -2.1697303e-14 -5.0222893e-06 -1.279372e-06
-5.420394e-06 -4.349427e-08 -1.9790076e-07 -4.1090967e-08 -0.00031223102 -2.2231275e-07 -1.7033392e-08 -4.1060493e-06
-8.114085e-06 -7.1152526e-06 -1.2229214e-09 -3.3555314e-06 -5.6779696e-05 -2.318133e-09 -8.194398e-11 -1.2972068e-06
-2.734067e-07 -8.971328e-08 -2.8380723e-10

layer5.weight f4 [75, 75]
00000000: 5fbc 6e2d 557d 5630 dc3f 0432 a32e b4b0
00000010: 1b7f 3630 3b80 8aad 0e7c 4032 7f40 9230
00000020: d9b0 fcae e342 a62d 9eb4 b22e 2eb7 beaf
00000030: 42e4 212f 1407 9daf ba80 4a2f 88a4 2131
00000040: 7405 dc30 e9a9 cb2f 4b1e b830 26b7 1b30
00000050: c2fa 872e dae4 48ad 5b53 342f 4b02 b8b0
00000060: bb49 39b0 da1c 67b1 04d0 94af 4326 0630
00000070: 31b3 0629 26a6 02ad 76f5 f42f 8ce4 3731
00000080: e7e1 702f 8325 46b0 a7c3 17b0 7c1c c2b0
00000090: 1a68 72af c110 4eb2 dbb2 da2e 23b3 a0af
000000a0: 6756 8930 19d1 96ae 2798 0930 2ec7 8caf
000000b0: 7806 a8ad 5aa0 0132 af96 6eae 0457 e02c
000000c0: ad8d dc2c e542 9f32 0285 3eae a625 c8ae
000000d0: d3d9 3eaf 9dab 6fa7 a17d 252f 7fe0 de2f
000000e0: 7486 e431 9170 832e c6b0 882e b966 78ad
000000f0: 318c 1631 f472 7130 9948 802d 73cd 4231
00000100: b804 6333 9231 3b2f 34e4 1aae c556 4a30
00000110: 423b 6231 4fa2 14ac 8c54 61aa 1a97 f130
00000120: a359 5430 19b3 a9ae f825 102d f323 25b1
00000130: be7b 87b3 a086 0bb5 620b 95b2 51da f930
00000140: ffd3 f02f 1930 28b5 fbf7 b0b3 fbd2 eeb0
00000150: 32ba c62f fd72 83af 5ae7 1532 ba60 db30
00000160: cf03 2033 ae44 11b3 74dd ecb4 52b4 0eb5
00000170: 2cb2 ff34 bd08 1734 444e 5d36 569d 08b2
00000180: 5441 26b1 8ee1 abb3 5be1 a2b7 c333 ce32
00000190: 061d b1b5 da1a 86b2 f013 bab2 d5d8 5dab
000001a0: fbc4 8cb1 446c b032 286a a3b3 a08a 6fb6
000001b0: be3f f431 2803 4533 0fc6 d4b4 b856 4a32
000001c0: d56e 5cb4 2706 bdb1 e080 2431 95bc 1bb3
000001d0: 2c8d 5c36 84e4 6333 b337 2fb3 dc4a acb1
000001e0: baf7 30b4 e05a 8e30 8786 6b30 e64b 8231
000001f0: 8d2e 5ab6 47bc 8d33 463a 7a32 128f 1533
00000200: 57a6 7aad 3827 4b2f 259d 07b0 6939 c2b2
00000210: a82f 8931 bad2 d431 c6bc b931 1a20 1934
00000220: 4e4a 15b3 a916 9b30 1c51 2a34 6f52 8fb6
00000230: 5f4f f433 c3f4 0030 0952 3c33 4973 b4b4
00000240: 2ba4 00b0 4b75 0d2e 8c18 53b4 a6f1 fa33
00000250: 9ab6 85b1 6d1a 43b0 8e2d 9735 917d f837
00000260: f257 b738 e7ed 26b7 8c99 3d37 d289 62b4
00000270: 85df fc38 ddf5 8237 b5ba cfb3 172e ddb4
00000280: 007d ca35 db45 f336 34a3 ac36 13e2 b1b6
00000290: 63cc 1c37 5e70 7938 0182 1739 7e3f 52b8
000002a0: e085 48b8 6544 3c38 f056 7436 b431 8434
000002b0: 8070 27b6 87cf 02bc 9c42 3637 ed68 46b9
000002c0: 1047 6cb6 15af 09b8 177c 3f30 eef2 8035
000002d0: d81f b3b6 bff7 a337 c7bd 73bb 4a34 9ab6
000002e0: a12f 8a36 a7a7 19ba d6f0 f8b6 8f6f 1db9
000002f0: 49a3 4136 81aa 0334 2297 6737 7608 73bb
00000300: 9a46 e737 0ae1 e736 37ec cf35 2228 09b9
00000310: 620a a0b5 6a96 8eb3 dce7 a6b5 7722 703a
00000320: a2dc 8539 26f9 cc34 b99f f1b5 b2a7 a231
00000330: de10 3935 0396 c1b6 76cf 2938 f70f 09b6
00000340: a570 79b5 6a59 97b5 2080 763b 5173 ddb6
00000350: baad bdb4 2752 ebb7 5adf ed39 a908 bd37
00000360: 6426 2db5 a0eb 6737 0cd6 ce37 86a7 0734
00000370: 86ca 20b2 6d9e cf38 8bec 34b8 a62f 9cb6
00000380: cefc fa33 ee73 472d 958c 972f 8cbb d0b0
00000390: 782d 892f c172 eaad 8d77 98aa 33ee 03b1
000003a0: 68b9 27af 6cf0 902b 69a6 b4ac 3fb6 3e2c
000003b0: ed17 8f2f 7c03 032e a381 51ae be87 272f
000003c0: f061 8d30 f05e 0d31 c1d9 23af bd66 cfae
000003d0: ccc1 8aae 2711 352e 8f73 172d a737 d2ae
000003e0: 728c 2031 0cc2 de2f 4277 6530 2fb4 a22e
000003f0: 333f 2aaf ef81 f828 b31e 222e a6be 54af
1.35705605e-11 7.8030854e-10 7.697931e-09 -1.3109979e-09 6.639184e-10 -1.574573e-11 1.1204078e-08 1.0641229e-09
-1.1491048e-10 1.8901719e-11 8.126587e-11 -3.4690956e-10 1.4723958e-10 -2.8563163e-10 1.8417526e-10 2.3522109e-09
1.6008657e-09 3.7046213e-10 1.3396372e-09 5.664894e-10 6.183633e-11 -1.1419499e-11 1.6400518e-10 -1.3388414e-09
-6.7407385e-10 -3.3631324e-09 -2.7068847e-10 4.880329e-10 2.99094e-14 -7.426537e-12 4.4557752e-10 2.6759919e-09
2.190813e-10 -7.208529e-10 -5.521152e-10 -1.4123454e-09 -2.2046756e-10 -1.19945875e-08 9.9452634e-11 -2.9231115e-10
9.992619e-10 -6.8583535e-11 5.005653e-10 -2.5607377e-10 -1.9102261e-11 7.545248e-09 -5.424877e-11 6.3761236e-12
6.2685052e-12 1.8540456e-08 -4.3319133e-11 -9.101635e-11 -1.7357786e-10 -3.3260945e-15 1.5051295e-10 4.054108e-10
6.650959e-09 5.977186e-11 6.215965e-11 -1.4119977e-11 2.1907562e-09 8.783865e-10 1.4584155e-11 2.83475e-09
5.2856848e-08 1.7025162e-10 -3.521823e-11 7.361048e-10 3.2921013e-09 -2.1122164e-12 -2.0013348e-13 1.7578003e-09
7.725253e-10 -7.7170444e-11 8.193883e-12 -2.4031095e-09 -6.308936e-08 -5.197744e-07 -1.735106e-08 1.8179184e-09
4.3806378e-10 -6.265487e-07 -8.240746e-08 -1.7376743e-09 3.614829e-10 -2.3910465e-10 8.725545e-09 1.5961839e-09
3.7256367e-08 -3.3822907e-08 -4.4119554e-07 -5.316152e-07 4.7627088e-07 1.406615e-07 3.2977123e-06 -7.952016e-09
-2.4193314e-09 -8.003836e-08 -1.9416844e-05 2.4005095e-08 -1.3195975e-06 -1.5611864e-08 -2.1662316e-08 -7.8815887e-13
-4.0969304e-09 2.053833e-08 -7.609589e-08 -3.5694466e-06 7.1085813e-09 4.5870507e-08 -3.9632184e-07 1.1777665e-08
-2.0529417e-07 -5.5013234e-09 2.3938398e-09 -3.6260264e-08 3.2864727e-06 5.306039e-08 -4.079602e-08 -5.0143694e-09
-1.64814e-07 1.0357688e-09 8.5683677e-10 3.7921266e-09 -3.2511628e-06 6.6000716e-08 1.4565165e-08 3.4821888e-08
-1.424779e-11 1.8476676e-10 -4.933603e-10 -2.261068e-08 3.9926427e-09 6.193969e-09 5.4056697e-09 1.4260914e-07
-3.4759346e-08 1.1284175e-09 1.5861991e-07 -4.2713286e-06 1.1376573e-07 4.6913956e-10 4.384677e-08 -3.3611494e-07
-4.6799425e-10 3.2163865e-11 -1.9659836e-07 1.1685488e-07 -3.891569e-09 -7.097814e-10 1.1263635e-06 2.9622375e-05
8.742501e-05 -9.949762e-06 1.1301028e-05 -2.1098029e-07 0.0001205793 1.5611697e-05 -9.6731505e-08 -4.1197993e-07
1.5086553e-06 7.2500966e-06 5.144999e-06 -5.3013296e-06 9.345912e-06 5.9470876e-05 0.00014448912 -5.0127033e-05
-4.7808397e-05 4.488639e-05 3.6409438e-06 2.462308e-07 -2.4950423e-06 -0.007984049 1.0863554e-05 -0.0001892184
-3.5208104e-06 -3.2826403e-05 6.966174e-10 9.607445e-07 -5.338323e-06 1.954648e-05 -0.0037191974 -4.595645e-06
4.118265e-06 -0.0005861469 -7.419013e-06 -0.00015014246 2.8854286e-06 1.2262355e-07 1.3803861e-05 -0.00370839
2.7570222e-05 6.9105345e-06 1.5491449e-06 -0.00013080289 -1.1923951e-06 -6.6397504e-08 -1.2435444e-06 0.0009160409
0.0002553212 3.817924e-07 -1.8002385e-06 4.7338853e-09 6.8942416e-07 -5.769312e-06 4.0485953e-05 -2.0423884e-06
-9.292365e-07 -1.12764e-06 0.003761299 -6.599738e-06 -3.5330396e-07 -2.8052438e-05 0.00045370572 2.2534588e-05
-6.450339e-07 1.3823534e-05 2.4656787e-05 1.26338e-07 -9.359274e-09 9.900038e-05 -4.3135642e-05 -4.6547093e-06
1.1687517e-07 1.1337582e-11 2.756663e-10 -1.5187296e-09 2.4952462e-10 -2.6653681e-11 -2.708358e-13 -1.919841e-09
-1.5254431e-10 1.0298546e-12 -5.134383e-12 2.710179e-12 2.602855e-10 2.9789046e-11 -4.763624e-11 1.5236787e-10
1.0286936e-09 2.0572166e-09 -1.4902125e-10 -9.43152e-11 -6.309939e-11 4.116987e-11 8.609015e-12 -9.55958e-11
2.3362898e-09 4.0519443e-10 8.347919e-10 7.398914e-11 -1.5483863e-10 2.758988e-14 3.6861802e-11 -1.934902e-10

layer5.bias f4 [75]
00000000: 13b5 1ab2 f206 f835 621f 29bd 83f2 1fb0
00000010: 2335 4932 39dc 95b5 9a9f d9b6 c769 6bb5
00000020: aaae b5b3 b654 b830 ca3d 86b1 f163 7fb7
00000030: f2aa 19b2 0494 7d30 365f 08b7 7697 8eaa
00000040: a37a 3d32 b7a1 d7b6 7f22 bcb1 934a 9633
00000050: 6ed3 08b3 df27 5bb3 706d 95ac 338e 97ad
00000060: e939 83ae c3f5 0232 a230 dfb1 d0b8 e5b5
00000070: 7a82 58b5 928c 35ab f411 ac31 6793 93b3
00000080: c609 cab4 edba 00b7 ce51 15b5 fa66 813a
00000090: 88d6 d439 13be 75b2 356a c333 fd77 04ad
000000a0: f2f4 3534 be28 f4ad 0d5e 5fb2 7682 9eb4
000000b0: 20af 69b4 532b b5b5 7fc1 b539 4a03 0e34
000000c0: 56d3 d22e b814 8ab2 a029 43b7 4c5e 5c31
000000d0: a58a 9436 0807 7ab0 4f4b 81ad d7a3 76b2
000000e0: c29c c0b3 908e 1532 2c32 11b6 5297 09ae
000000f0: c8f4 8bb6 102d 35b3 0e34 45b9 501e d738
00000100: 7f3f 21b2 62b5 5b2f 403d eeb4 ea0f 9c34
00000110: 78d7 03b3 7c6e fd35 897d 0630 6720 b037
00000120: e926 0933 ba7d 7435 465a e431
-9.005151e-09 1.8479461e-06 -0.041289695 -5.8188493e-10 1.1711822e-08 -1.1165458e-06 -6.485684e-06 -8.769825e-07
-8.4602405e-08 1.3411838e-09 -3.906938e-09 -1.5222454e-05 -8.944641e-09 9.2251207e-10 -8.1284e-06 -2.5329364e-13
1.1029132e-08 -6.4263254e-06 -5.475442e-09 6.998484e-08 -3.185726e-08 -5.1026174e-08 -4.2469847e-12 -1.7229862e-11
-5.967477e-11 7.622876e-09 -6.495683e-09 -1.7115617e-06 -8.065614e-07 -6.44992e-13 5.0079e-09 -6.872033e-08
-3.7632543e-07 -7.672917e-06 -5.5625867e-07 0.0009872608 0.0004059563 -1.4304095e-08 9.099714e-08 -7.529974e-12
1.6946049e-07 -2.7757682e-11 -1.3001693e-08 -2.9524716e-07 -2.1763526e-07 -1.349816e-06 0.00034667176 1.3225977e-07
9.587235e-11 -1.6074736e-08 -1.1632597e-05 3.2067815e-09 4.426884e-06 -9.095946e-10 -1.4699046e-11 -1.43563375e-08
-8.969211e-08 8.705356e-09 -2.1635888e-06 -3.1284593e-11 -4.171019e-06 -4.218333e-08 -0.00018806776 0.00010257645
-9.385871e-09 1.9982374e-10 -4.437552e-07 2.9068843e-07 -3.0696782e-08 1.8882124e-06 4.892731e-10 2.0995923e-05
3.1933187e-08 9.108004e-07 6.6459362e-09
