model_weights_10.pth (torch, 180585 bytes, 43 tensors)

layer1.weight f4 [75, 68]
0	0xb73fe7d7	-1.1438467e-05
1	0x380910da	3.267904e-05
2	0xb7a30545	-1.9433568e-05
3	0x31f7ac73	7.2082513e-09
4	0xb7a8bf3b	-2.011621e-05
5	0x35ec2ef6	1.7597038e-06
6	0x35a0070d	1.1922981e-06
7	0xb7df6037	-2.6628475e-05
8	0xb70d2a48	-8.414099e-06
9	0xb8170021	-3.6001325e-05
10	0xb81512a2	-3.554172e-05
11	0x3808192b	3.2448366e-05
12	0xb7129e27	-8.739101e-06
13	0x376da5c0	1.41648925e-05
14	0xb7c768ed	-2.3771508e-05
15	0xb87b2da1	-5.988556e-05
16	0x3712fc62	8.761041e-06
17	0xb62d3230	-2.5808222e-06
18	0x381ceb45	3.741241e-05
19	0x37a25847	1.9353012e-05
20	0xb7d1266a	-2.493263e-05
21	0x3826ec0c	3.979732e-05
22	0x38691274	5.5568715e-05
23	0xb821def7	-3.8593043e-05
24	0xb877d07f	-5.9083566e-05
25	0xb5392ad3	-6.898019e-07
26	0x3856b33a	5.1188494e-05
27	0x357d0ea7	9.4271167e-07
28	0xb698b2f2	-4.550785e-06
29	0xb7727096	-1.44505375e-05
30	0xb73a6f87	-1.1112431e-05
31	0x382696fc	3.97181e-05
32	0x38361302	4.3409884e-05
33	0x37fb77e5	2.9977362e-05
34	0xb84cf2ad	-4.88634e-05
35	0x3834edfa	4.3136977e-05
36	0x38185adb	3.632424e-05
37	0xb59af155	-1.1544131e-06
38	0x3794812f	1.770313e-05
39	0x3829c03c	4.0471772e-05
40	0x370edd56	8.515393e-06
41	0x382320c8	3.889276e-05
42	0xb7930934	-1.7528051e-05
43	0x3832b18c	4.260386e-05
44	0x37a84ee5	2.0063899e-05
45	0xb7f3f159	-2.9080244e-05
46	0xb804bcde	-3.164715e-05
47	0xb702ab12	-7.788434e-06
48	0x37f50285	2.920745e-05
49	0xb6b4be93	-5.386604e-06
50	0xb80d5143	-3.36927e-05
51	0xb64a306a	-3.0128526e-06
52	0xb88378af	-6.269046e-05
53	0x387c9834	6.0223232e-05
54	0x3799977c	1.8309562e-05
55	0xb835a061	-4.3303127e-05
56	0xb6b783d6	-5.4691727e-06
57	0x3679ae93	3.7205507e-06
58	0xb723cdb4	-9.763451e-06
59	0x37281d6e	1.00204325e-05
60	0xb832f8c2	-4.267018e-05
61	0x38836106	6.264639e-05
62	0xb79afeeb	-1.8476936e-05
63	0xb85c0f46	-5.2466312e-05
64	0x37c1c68c	2.3099848e-05
65	0x3881d56f	6.1909544e-05
66	0x3713fb50	8.820396e-06
67	0x37f9349b	2.970761e-05
68	0xb7405f41	-1.146627e-05
69	0x38eeb2d6	0.00011382035
70	0xb97c1daa	-0.00024043643
71	0x36718459	3.5988835e-06
72	0xb9aa0ddf	-0.00032435262
73	0x38014b4c	3.0826122e-05
74	0x384f7a45	4.946652e-05
75	0xb8017ec8	-3.087407e-05
76	0x37de42b0	2.6495516e-05
77	0xb81b2b1d	-3.6995032e-05
78	0x38601981	5.3429514e-05
79	0x3807ebff	3.2406297e-05
80	0xb6c0c796	-5.7452808e-06
81	0xb86cbf70	-5.6445075e-05
82	0xb589a607	-1.0255616e-06
83	0x37d3a264	2.522878e-05
84	0xb7ea097e	-2.7899394e-05
85	0x372b2d84	1.0202992e-05
86	0x37165731	8.960998e-06
87	0xb805c863	-3.1896296e-05
88	0x380d524b	3.369366e-05
89	0xb618882a	-2.2729023e-06
90	0x38741fed	5.8203867e-05
91	0xb7aa1365	-2.027461e-05
92	0xb81730fa	-3.604682e-05
93	0xb87332a2	-5.798287e-05
94	0x372bed23	1.0247607e-05
95	0xb8806e11	-6.124017e-05
96	0x3805de5b	3.1916756e-05
97	0xb8406514	-4.5870504e-05
98	0xb7d798a8	-2.5701083e-05
99	0x33c844c5	9.325735e-08
100	0xb86cab7f	-5.6426503e-05
101	0x37ad4a4a	2.06578e-05
102	0x37514460	1.2473291e-05
103	0xb7ba2eca	-2.2194716e-05
104	0x37fb71c5	2.997451e-05
105	0xb69b4d8a	-4.6283867e-06
106	0x371a3997	9.192524e-06
107	0xb80cdd8d	-3.3584936e-05
108	0xb6767d85	-3.6729919e-06
109	0xb81e5084	-3.774512e-05
110	0x38392542	4.4142136e-05
111	0xb8008ad0	-3.0646857e-05
112	0xb5ae8a45	-1.3004252e-06
113	0xb84cb498	-4.880558e-05
114	0x3819a82c	3.6634665e-05
115	0x37371391	1.0912206e-05
116	0xb82dc352	-4.142832e-05
117	0x385a9a47	5.2118932e-05
118	0x3731650e	1.0573551e-05
119	0xb84d136c	-4.8893897e-05
120	0x38443613	4.6780402e-05
121	0x385e6ab7	5.302831e-05
122	0xb7a343de	-1.9462717e-05
123	0xb7feb8ff	-3.0365305e-05
124	0xb8382c61	-4.391035e-05
125	0x38327ab6	4.255279e-05
126	0x385d4bd9	5.2761145e-05
127	0xb87e69ef	-6.0656977e-05
128	0xb8565c47	-5.1107516e-05
129	0xb8480a08	-4.7693058e-05
130	0xb80c27e7	-3.3415763e-05
131	0xb861f3cf	-5.3871245e-05
132	0xb7d610aa	-2.5518548e-05
133	0xb8189c63	-3.638527e-05
134	0x37c2cdad	2.3222377e-05
135	0xb84fcbfb	-4.9542617e-05
136	0xb936b572	-0.00017424466
137	0x39fdb7e9	0.00048392944
138	0xbaaa9cb4	-0.0013016672
139	0xbb76f866	-0.0037684678
140	0x3b99f245	0.00469807
141	0xb84a547d	-4.823924e-05
142	0x38370dbc	4.364339e-05
143	0x37373f36	1.0922367e-05
144	0x3870b08a	5.7384874e-05
145	0xb813f31c	-3.5273944e-05
146	0xb9298ff6	-0.00016170726
147	0x379e1c3d	1.8848217e-05
148	0xb841a4f3	-4.6168407e-05
149	0x38ce89a2	9.8484816e-05
150	0xb785df62	-1.5958856e-05
151	0x35e2b588	1.6891145e-06
152	0x3897d894	7.240582e-05
153	0x3789085e	1.6335569e-05
154	0xb8913e3b	-6.92573e-05
155	0x379da617	1.87932e-05
156	0x38123d5b	3.4866254e-05
157	0xb8851296	-6.345396e-05
158	0x37ce1216	2.4565536e-05
159	0x36e65926	6.8649124e-06
160	0xb88852f6	-6.500438e-05
161	0x38121f76	3.4838413e-05
162	0x37b232f9	2.124299e-05
163	0xb822f66d	-3.885331e-05
164	0x37c43c9c	2.3393244e-05
165	0x383e91c7	4.5435296e-05
166	0xb87f7058	-6.0901366e-05
167	0xb82e434b	-4.1547504e-05
168	0xb838db56	-4.407329e-05
169	0xb865e836	-5.4814118e-05
170	0x362d44a1	2.5818956e-06
171	0xb7d98ffd	-2.5935466e-05
172	0x37c3f1a7	2.335834e-05
173	0x37a75d74	1.9951469e-05
174	0x3881804e	6.175098e-05
175	0xb7a437c3	-1.957629e-05
176	0xb79ed684	-1.893496e-05
177	0xb8812acb	-6.15917e-05
178	0xb834d7ec	-4.3116437e-05
179	0x387ec04d	6.0737413e-05
180	0x36325a55	2.6576647e-06
181	0x381a64fc	3.681051e-05
182	0xb8825254	-6.214218e-05
183	0xb7ac00cf	-2.0504374e-05
184	0xb744475a	-1.1699123e-05
185	0x3848964a	4.7823683e-05
186	0x363b1538	2.7877522e-06
187	0xb85f8308	-5.3289376e-05
188	0xb854bba3	-5.071949e-05
189	0xb8444d67	-4.6802128e-05
190	0x36783a30	3.698875e-06
191	0xb7cb04ce	-2.4201723e-05
192	0xb6abecc7	-5.1237616e-06
193	0xb7ade8a9	-2.0731548e-05
194	0xb84d52f7	-4.8953076e-05
195	0xb77a56da	-1.4921383e-05
196	0xb8069333	-3.208518e-05
197	0xb881acd4	-6.183391e-05
198	0xb8a2be1b	-7.760172e-05
199	0xb69dc572	-4.7019503e-06
200	0xb82c839e	-4.1130574e-05
201	0x37ee8f3e	2.8438513e-05
202	0x38004652	3.058307e-05
203	0xb8ac0885	-8.203186e-05
204	0xb865a06c	-5.474726e-05
205	0xb53a9141	-6.950177e-07
206	0xb809603d	-3.2752974e-05
207	0x37063c3d	8.001048e-06
208	0x37a37d3c	1.9489431e-05
209	0xb759d631	-1.2984078e-05
210	0xb7349540	-1.0763586e-05
211	0xb7828622	-1.5559668e-05
212	0x37dd86a6	2.6407954e-05
213	0xb875842c	-5.8535647e-05
214	0xb7f4de47	-2.9190573e-05
215	0x384d158a	4.889587e-05
216	0x381333d6	3.5095807e-05
217	0xb77adfff	-1.4953314e-05
218	0xb7ed760e	-2.8307575e-05
219	0x38802080	6.109569e-05
220	0xb7cd55d2	-2.4477868e-05
221	0x36c4bacf	5.8630026e-06
222	0xb847aaeb	-4.7604477e-05
223	0xb8225247	-3.8700437e-05
224	0x36ee1971	7.0959145e-06
225	0x3771fbba	1.4423329e-05
226	0x375b7e56	1.3082832e-05
227	0xb882a763	-6.230061e-05
228	0xb852e17b	-5.0277897e-05
229	0xb7b42573	-2.147511e-05
230	0x371d1e21	9.364944e-06
231	0x380b60ea	3.323044e-05
232	0xb87097d0	-5.7361845e-05
233	0x380442f0	3.1533593e-05
234	0x38396a65	4.4206525e-05
235	0x385966cb	5.1832565e-05
236	0x384c0608	4.8643007e-05
237	0xb87710eb	-5.8905145e-05
238	0x38186a4f	3.633863e-05
239	0x379137f5	1.7311404e-05
240	0xb8587e92	-5.161629e-05
241	0xb841619f	-4.6105702e-05
242	0x3745f1b9	1.17983955e-05
243	0xb86cc709	-5.645215e-05
244	0x383f00a2	4.5538538e-05
245	0xb86b2d7f	-5.6070738e-05
246	0xb88218b4	-6.2034844e-05
247	0x38177517	3.6110254e-05
248	0x3846ca21	4.7395126e-05
249	0xb82a6c66	-4.0632112e-05
250	0x38416eda	4.6118024e-05
251	0x370ff7c4	8.581152e-06
252	0xb7ca4fcf	-2.411744e-05
253	0xb8245fb9	-3.9189796e-05
254	0x378f3d85	1.7075576e-05
255	0x386c82d6	5.6388635e-05

layer1.bias f4 [75]
0	0x38825d4f	6.216263e-05
1	0xb6abc773	-5.119416e-06
2	0x3765f7f9	1.3707199e-05
3	0xb5d584e6	-1.5908415e-06
4	0xb716e62d	-8.994289e-06
5	0xb91f1566	-0.00015171393
6	0x37d7300c	2.565237e-05
7	0xb83249ae	-4.2507127e-05
8	0xb8344442	-4.2978914e-05
9	0x38765698	5.8731617e-05
10	0xb717a2af	-9.038179e-06
11	0x3829ff21	4.0530347e-05
12	0xb72f6130	-1.0453441e-05
13	0xb81ea1de	-3.7820886e-05
14	0xb7832627	-1.5634183e-05
15	0xb82f8d10	-4.1854626e-05
16	0xb879d2e5	-5.9562637e-05
17	0xb8618dbd	-5.3776184e-05
18	0xb83c332c	-4.487035e-05
19	0x38345a53	4.2999465e-05
20	0x37daf678	2.6102396e-05
21	0xb85e31a1	-5.2975145e-05
22	0x38358ed6	4.328679e-05
23	0xb8244133	-3.916137e-05
24	0xb790c380	-1.7257174e-05
25	0x37bce23e	2.2516699e-05
26	0xb7e9bd05	-2.7863784e-05
27	0x383646f2	4.3458254e-05
28	0x38086b03	3.252459e-05
29	0x3845c4b6	4.715166e-05
30	0xb8208809	-3.8273665e-05
31	0x381ada96	3.6920035e-05
32	0xb77b625f	-1.498367e-05
33	0xb6601b33	-3.3394433e-06
34	0xb85ea5c8	-5.308332e-05
35	0x37a7b8f3	1.9994075e-05
36	0x3859304f	5.1781823e-05
37	0x37ee1116	2.8379767e-05
38	0x380fd7b8	3.429476e-05
39	0x3810f525	3.4560584e-05
40	0xb821b4cf	-3.8553782e-05
41	0xb874c430	-5.8356847e-05
42	0xb68260ee	-3.885586e-06
43	0xb79c548b	-1.8636018e-05
44	0x37eada0c	2.799651e-05
45	0xb72b53bb	-1.0211889e-05
46	0x38334a17	4.2745927e-05
47	0xb88cd7f5	-6.715945e-05
48	0xb8664f11	-5.490991e-05
49	0xb7f66ae5	-2.9375262e-05
50	0x36d37576	6.3019643e-06
51	0x3834e721	4.31306e-05
52	0x387a76b6	5.9715203e-05
53	0xb80d91dd	-3.3752865e-05
54	0xb61e1e29	-2.356139e-06
55	0xb7bd1fe1	-2.25454e-05
56	0x387ca476	6.0234648e-05
57	0x382ab7c8	4.0702318e-05
58	0xb868ae41	-5.5475397e-05
59	0x382c7122	4.111336e-05
60	0xb83b759f	-4.4693817e-05
61	0xb84a8c74	-4.829136e-05
62	0x3914caa9	0.00014189877
63	0xb740998a	-1.147984e-05
64	0xb86ba405	-5.618112e-05
65	0xb87d93c1	-6.0457507e-05
66	0x3816a674	3.591781e-05
67	0x3910c325	0.00013805607
68	0xb7bca75e	-2.2489283e-05
69	0x37aa56d5	2.0306014e-05
70	0xb799c31c	-1.8329876e-05
71	0xb8879764	-6.4655e-05
72	0xb7b0b5ba	-2.1065458e-05
73	0xb83f27b9	-4.5574943e-05
74	0x385701a4	5.1261522e-05

layer2.weight f4 [75, 75]
0	0xba679261	-0.0008833763
1	0xba8dc9a3	-0.0010817539
2	0xbb8dd260	-0.004328057
3	0x3964c66c	0.00021817692
4	0xba687a0e	-0.0008868285
5	0x3bdcc9c7	0.006737921
6	0x3893dc74	7.050569e-05
7	0xb962f434	-0.00021644012
8	0xbb685e26	-0.0035456507
9	0xb8fee1d7	-0.0001215373
10	0xba927429	-0.0011173534
11	0xba8dfd78	-0.0010832986
12	0xba5b0905	-0.0008355531
13	0xba1366e0	-0.00056229346
14	0xbb61331d	-0.0034362741
15	0xbb400878	-0.0029301923
16	0x3c2ff2d2	0.010739045
17	0x3a4bdd8e	0.00077768497
18	0xbaec2390	-0.001801597
19	0x3bbabcbb	0.005698768
20	0xbb17f1e1	-0.0023184943
21	0x3913b394	0.0001408591
22	0x3a611ea3	0.0008587634
23	0xb9568f77	-0.00020462075
24	0xba5aab17	-0.00083415344
25	0x3bf56272	0.0074885422
26	0x3912344e	0.0001394313
27	0xbb3e917d	-0.0029078417
28	0xbd433b08	-0.04766372
29	0xba8f734a	-0.0010944393
30	0xbb27e454	-0.0025618272
31	0xbab88da9	-0.0014080304
32	0x397f8dcb	0.00024371517
33	0xb8903a4b	-6.877313e-05
34	0xba099751	-0.0005248683
35	0x3a006712	0.0004898171
36	0x3c14b028	0.009075202
37	0xb8fb8810	-0.00011993956
38	0xba3c685b	-0.0007187181
39	0xbada2bdd	-0.0016645152
40	0xba7e0e32	-0.00096914463
41	0xbae58dc2	-0.0017513561
42	0xbd917cab	-0.07103857
43	0x3ac1420b	0.0014744414
44	0xbcf74c5d	-0.03018778
45	0xba40918b	-0.00073459063
46	0x38554a3a	5.0852286e-05
47	0x39f4af84	0.00046670076
48	0x3d03b23e	0.032152407
49	0x3cf12a87	0.029439224
50	0xba43179a	-0.00074421766
51	0xbce87c7c	-0.028379671
52	0x3b0c6b69	0.0021426326
53	0xb9d120b4	-0.00039887952
54	0x38ed81ab	0.00011325193
55	0x3a1b7c73	0.0005931325
56	0xbd40b37b	-0.047046166
57	0x3a12df49	0.000560273
58	0x3a45bf6a	0.00075434765
59	0xbad958ea	-0.0016582285
60	0xba56b868	-0.0008190931
61	0x3c203976	0.009779325
62	0x3bf08b04	0.0073407907
63	0xba81e2c3	-0.0009909499
64	0xb8ca88ec	-9.657614e-05
65	0xbb2e0d89	-0.002655836
66	0x3846fdf4	4.744339e-05
67	0x3d41e6fe	0.047339432
68	0xbb9623aa	-0.004581888
69	0x3c2bec31	0.010493324
70	0x3965ed98	0.00021927652
71	0x3d2d2cf9	0.042279217
72	0xbbd07b01	-0.0063623195
73	0xba4a241f	-0.0007711071
74	0xbd3948dd	-0.045235503
75	0x397aa3e4	0.00023902912
76	0x39fa8d9f	0.00047789232
77	0xbb00031e	-0.0019533108
78	0xb9f8198b	-0.00047321277
79	0x39bd1d68	0.00036070799
80	0xbc1370cf	-0.008999064
81	0x383bce2b	4.4776283e-05
82	0xb8fb7243	-0.000119898956
83	0x3ba13111	0.0049191792
84	0x3a5ddf0a	0.00084637164
85	0x3af7b0e9	0.0018897328
86	0x3a1f72ff	0.00060825044
87	0xb9d6ad65	-0.0004094645
88	0x3840abc1	4.5936325e-05
89	0xbaad62a9	-0.0013228256
90	0x3abf27a8	0.0014583962
91	0xbbfefac5	-0.007781359
92	0xba473535	-0.0007599176
93	0x39893e99	0.00026177315
94	0xbb449813	-0.002999787
95	0x3a202e67	0.000611043
96	0x380903c7	3.2666863e-05
97	0x34dca7f1	4.1100387e-07
98	0xb97ad538	-0.00023921288
99	0x39fed9cc	0.00048608927
100	0x3c34b7db	0.011030163
101	0xb815f39e	-3.5751254e-05
102	0x3a93fd77	0.0011290748
103	0xbd20f520	-0.03929627
104	0x3a344c6b	0.0006877842
105	0xb900d658	-0.0001228688
106	0x39d0a8ca	0.0003979861
107	0xb9be61bc	-0.00036312442
108	0x390d4d22	0.00013475542
109	0x39e114a8	0.00042930734
110	0xb9297975	-0.00016162342
111	0xbc16ca29	-0.009203472
112	0x380bef15	3.3362845e-05
113	0x399d1f97	0.0002996891
114	0x39ae1b0f	0.00033208026
115	0x39ab1bc8	0.0003263636
116	0x3a0548e9	0.0005084412
117	0xbd79fa90	-0.06102997
118	0x3af494c4	0.0018660058
119	0x3c10b447	0.008832044
120	0x38d5ff33	0.00010204166
121	0x3813a9f2	3.5205805e-05
122	0xbb9b137d	-0.004732548
123	0x3cdff5ca	0.027338881
124	0x3bbb447f	0.0057149525
125	0xb5f773b9	-1.8436614e-06
126	0xbb0448cc	-0.0020184992
127	0xbb142d04	-0.002260984
128	0x38844cad	6.3085325e-05
129	0x3944567c	0.00018724235
130	0xba3f3a72	-0.0007294781
131	0xbd6fea2a	-0.058572926
132	0xb9135ecf	-0.00014054331
133	0xb889dfbe	-6.574344e-05
134	0x3a8a8eab	0.0010571083
135	0x39e5abf4	0.000438064
136	0x3aa19986	0.0012329079
137	0xbd756fe4	-0.05992116
138	0x3a0273ee	0.00049763813
139	0x3759aff8	1.2975179e-05
140	0x39b40b09	0.00034340497
141	0xb786d35c	-1.6072467e-05
142	0x3c920d1d	0.017828519
143	0x3bb33058	0.0054684095
144	0x3c8b0b12	0.016973052
145	0xb9a2b2e7	-0.0003103234
146	0x3d56631c	0.05234061
147	0x3bc0b02e	0.0058803773
148	0x39d1ca06	0.00040014106
149	0xbce1f08d	-0.027580524
150	0x3a52b304	0.00080375397
151	0x3a860ec9	0.0010227795
152	0x39cd21b8	0.0003912577
153	0x38736332	5.8028098e-05
154	0x3a3572a2	0.00069216837
155	0xb933c9d1	-0.00017145953
156	0xb89ab40d	-7.376829e-05
157	0x39877405	0.00025835648
158	0x3c12b65a	0.008954609
159	0xb986b4eb	-0.00025693266
160	0x39f31c2a	0.00046369556
161	0x3a701fb5	0.0009159998
162	0x3ad6d32f	0.0016389842
163	0x39f747a4	0.00047164888
164	0x3b06110c	0.0020456938
165	0x3b126213	0.0022336289
166	0xbb9b73d2	-0.0047440315
167	0xba2a77c9	-0.0006502835
168	0x3ae9a009	0.0017824183
169	0xbb834b14	-0.0040067527
170	0x3b0fd6ee	0.0021948176
171	0xb91a6526	-0.00014724265
172	0xba80d59e	-0.0009829288
173	0x392b8275	0.0001635643
174	0x3a397cd0	0.00070757885
175	0xbba1cec6	-0.0049379794
176	0xb876a81a	-5.8807527e-05
177	0x3b58fd18	0.003310984
178	0x3b0d184b	0.0021529372
179	0x3a5769ed	0.00082173833
180	0x3b454c26	0.0030105202
181	0x3a9f748f	0.0012165474
182	0xb87e244f	-6.0592134e-05
183	0x374b6401	1.2123027e-05
184	0x3a323e87	0.00067994784
185	0xba0b677a	-0.00053178484
186	0xbbb1a3f3	-0.0054211556
187	0x391b4cd2	0.0001481057
188	0x3a185d56	0.0005812248
189	0x3abb3b61	0.0014284664
190	0x3a5b8aed	0.00083748886
191	0x3ab7c8ae	0.0014021599
192	0xbc67c806	-0.01414681
193	0xba5639ed	-0.0008172084
194	0x3c1596a9	0.009130158
195	0x3a33033d	0.00068287906
196	0xb83aab27	-4.4505254e-05
197	0x3b445e96	0.0029963604
198	0x3c196045	0.009361331
199	0xbc8fee01	-0.017569544
200	0x3a22be33	0.00062081515
201	0xbbbb6335	-0.0057186135
202	0xba5a18d2	-0.00083197386
203	0x3984fbf1	0.00025364713
204	0xb8c76c4a	-9.50923e-05
205	0xb9a9e945	-0.0003240799
206	0x3b887bcc	0.0041651484
207	0xb9dd05bc	-0.00042156677
208	0xba2ea2dd	-0.0006661842
209	0x3adb09e7	0.0016711325
210	0x3a4dccbc	0.0007850637
211	0x3afcd5e0	0.0019289814
212	0xbcd74ebc	-0.02628266
213	0x3a160257	0.00057223946
214	0x38a7fd93	8.0104124e-05
215	0x3b290216	0.0025788597
216	0xb8e0b295	-0.00010714416
217	0xbc47ff14	-0.012206811
218	0x3ad83020	0.0016493835
219	0xbaf13e9f	-0.0018405503
220	0xb8c33709	-9.308576e-05
221	0x3c5b017f	0.013367056
222	0x3c011f73	0.007881033
223	0x3a3447ed	0.0006877173
224	0xbb27d30b	-0.002560797
225	0x39272a10	0.0001594203
226	0x390587d7	0.00012734473
227	0xb7c96c65	-2.4011542e-05
228	0x39583cc0	0.00020621996
229	0x3829d11f	4.04875e-05
230	0x3b4ec757	0.0031551921
231	0x385f0e7c	5.3180833e-05
232	0x38a778d4	7.9856865e-05
233	0xbae33ca3	-0.0017336797
234	0xb96c3567	-0.00022526608
235	0xba17e158	-0.00057937717
236	0xb83de724	-4.5276378e-05
237	0x3a0500f2	0.0005073688
238	0x388e6acc	6.79098e-05
239	0x3a8d64be	0.001078747
240	0xb9aea089	-0.00033307474
241	0x3ab4a7f1	0.0013782961
242	0x38cbf73b	9.7258446e-05
243	0x399ea886	0.00030261668
244	0xb98448a7	-0.00025231132
245	0x39b8fd83	0.00035284096
246	0xb7f6dd9b	-2.9428678e-05
247	0xb9218aab	-0.00015405814
248	0x382376ed	3.8972987e-05
249	0xb853d911	-5.050848e-05
250	0x3a4971c5	0.00076844945
251	0x3856ddc9	5.122813e-05
252	0x394d61cb	0.00019586754
253	0xbac90976	-0.0015337903
254	0x39216eec	0.00015395478
255	0x3a2cc339	0.000659037

layer2.bias f4 [75]
0	0xbbe8d831	-0.00710585
1	0xbb378c88	-0.0028007347
2	0x389c52a3	7.454052e-05
3	0x3a1e733b	0.00060443924
4	0xbce0d631	-0.027445884
5	0xbd207749	-0.03917626
6	0x3b8c6b20	0.004285231
7	0xb9ce3445	-0.00039330326
8	0xbc9509e9	-0.018193202
9	0xbbfb94ac	-0.007677635
10	0xba2f6193	-0.000669026
11	0xbac04915	-0.0014670218
12	0xbb2c41af	-0.0026284268
13	0xba60b3f2	-0.0008571736
14	0xbb31e675	-0.002714542
15	0xba5b9f51	-0.0008377927
16	0x3c9f31fd	0.019433016
17	0xbc986cbb	-0.018606534
18	0xbb05ded3	-0.0020427003
19	0xbae0b922	-0.0017145018
20	0xba9c1d98	-0.0011910675
21	0xb927edc6	-0.00016014939
22	0xba9076d1	-0.0011021738
23	0xbcd11851	-0.02552429
24	0xbd9a5465	-0.07535628
25	0xb5d93fd6	-1.6186339e-06
26	0xbcb5becb	-0.022185704
27	0xbd164f46	-0.036696695
28	0xba1c39ea	-0.00059595576
29	0xb9f4d855	-0.00046700487
30	0x3c5c68b9	0.013452702
31	0xb97ed6e7	-0.00024303385
32	0xb8320270	-4.2440777e-05
33	0xbb0be3a2	-0.0021345397
34	0xbc035ff5	-0.008018483
35	0xbc0025c1	-0.007821501
36	0xba8df5b3	-0.001083067
37	0xbc604cef	-0.013690217
38	0xbc6fe4d1	-0.014641956
39	0xba80311a	-0.0009780258
40	0xbc978e41	-0.01850045
41	0xbd1485dd	-0.036260474
42	0xbb69d14c	-0.003567773
43	0xbac1870c	-0.0014764979
44	0xbbdabb32	-0.0066751475
45	0xbc84b489	-0.016199367
46	0xbb9a96b1	-0.004717671
47	0x3a97f0dc	0.0011592167
48	0xbc9bd267	-0.019021226
49	0xbb0f6581	-0.002188057
50	0xba20b0f2	-0.00061298825
51	0xbd3357e1	-0.04378498
52	0xba222248	-0.0006184918
53	0xbaa0f7f6	-0.0012280929
54	0xba19422a	-0.0005846346
55	0xbb4162fa	-0.0029508458
56	0x397d943f	0.00024183186
57	0x3b6e9780	0.003640622
58	0xbc1ed4d9	-0.0096943015
59	0xbb201a1e	-0.002442963
60	0xbb3976f3	-0.002829966
61	0xbc133b97	-0.008986375
62	0xbaba0500	-0.0014192164
63	0xb9cd63b1	-0.00039174923
64	0xbb7091de	-0.0036708037
65	0xbb67d6f7	-0.0035375932
66	0xba30c3fb	-0.00067430706
67	0xba574d1f	-0.0008213091
68	0xbadcee86	-0.0016855753
69	0xba32a691	-0.00068149815
70	0xba8f6a48	-0.0010941708
71	0xba73baba	-0.0009297539
72	0xb9aebb26	-0.00033327303
73	0xbb90fcd0	-0.004424669
74	0xbdc92b2b	-0.09822687

layer3.weight f4 [75, 75]
0	0xbcbaaa85	-0.022786388
1	0x3c8ede7f	0.017440079
2	0x3c5eee62	0.01360664
3	0xba4ae7df	-0.000774024
4	0x3c15522b	0.009113829
5	0xbc1a4b8b	-0.009417425
6	0xbb764985	-0.0037580442
7	0xbb94812f	-0.0045320014
8	0xbc29f8ed	-0.01037429
9	0xbc3c0fb2	-0.011478351
10	0xb9b530d9	-0.00034559405
11	0x3b2cd235	0.002637041
12	0xbb99c61d	-0.0046928064
13	0xbbe66fe6	-0.0070323823
14	0xba884e3c	-0.0010399292
15	0x3a607364	0.00085621164
16	0x3b8d7b1c	0.0043176543
17	0xbc08c7a1	-0.0083483765
18	0x3b3d2baf	0.0028865149
19	0x3c94d9e1	0.018170299
20	0xbac2d9e1	-0.0014865958
21	0xb9f7bf7a	-0.00047254172
22	0xbcd6d550	-0.026224762
23	0xbc12b2be	-0.008953748
24	0x3bbef90b	0.005828028
25	0x3997731f	0.00028886736
26	0x3b4bd1a6	0.0031100302
27	0x3c18c637	0.009324602
28	0x39ebc599	0.00044969915
29	0x3d4337be	0.04766058
30	0xbb8d4935	-0.0043117055
31	0x3b02c499	0.0019953607
32	0xba3c9e11	-0.00071951846
33	0x3cd0704c	0.025444172
34	0xbc29a817	-0.010355017
35	0xba26696f	-0.0006348108
36	0xbb2e6df8	-0.002661584
37	0xbb4272c0	-0.0029670447
38	0xbb5b7f8a	-0.0033492767
39	0x3a3d5ccb	0.0007223605
40	0x3be5e562	0.00701587
41	0x3c4cd433	0.012501764
42	0xbc885098	-0.016639993
43	0x3c1831ba	0.0092891995
44	0xbbd3dc79	-0.0064654914
45	0x3b33a176	0.002740947
46	0x3b05874b	0.002037483
47	0xbb90b60e	-0.004416234
48	0xbbeb1c5e	-0.0071750125
49	0x3c6f4c8e	0.014605654
50	0xbb97993d	-0.0046264217
51	0xbc8c3ed2	-0.017119799
52	0x3c0acd27	0.008471764
53	0x3bb297c6	0.0054502217
54	0x3a1e5ede	0.0006041358
55	0x3ac4c068	0.0015010955
56	0x3b5f17d3	0.00340413
57	0xbbd5fe81	-0.0065305834
58	0x394d60e8	0.00019586424
59	0xbc18e1f6	-0.009331217
60	0x3a443a29	0.0007485473
61	0x3b764d1d	0.0037582584
62	0x3b63b25b	0.003474376
63	0xbb634ca3	-0.003468313
64	0x3c3f0709	0.011659392
65	0x39e73721	0.00044100828
66	0x3c62334f	0.013806178
67	0xb97f6bbc	-0.00024358829
68	0x3bb5cd7a	0.0055481764
69	0x3ac640ac	0.0015125475
70	0xbb6b7808	-0.0035929698
71	0x3a27ab72	0.0006396092
72	0xbb34418c	-0.002750489
73	0x3d0e4ff3	0.034744214
74	0xbc3beeea	-0.011470536
75	0xba2e0cce	-0.0006639481
76	0x398cb2de	0.00026836147
77	0x398c4120	0.00026751403
78	0x3886ceab	6.428113e-05
79	0xb80284e1	-3.111817e-05
80	0xb90c988b	-0.00013408267
81	0x39802424	0.0002444099
82	0xb8c11d62	-9.20843e-05
83	0xb90b9b5a	-0.00013313946
84	0xb91fa1fe	-0.00015223768
85	0x39995cb7	0.00029251512
86	0x380fee08	3.431554e-05
87	0xb835718c	-4.325951e-05
88	0xb9788b9b	-0.0002370313
89	0x391242df	0.00013948556
90	0xb7e8140a	-2.7665887e-05
91	0xb8df06ea	-0.000106347565
92	0x37dbe258	2.6212234e-05
93	0x393004c1	0.00016786439
94	0x393b38f5	0.00017854928
95	0xb8ff2fb3	-0.00012168232
96	0x38cf3995	9.881255e-05
97	0xb9e3ba5d	-0.00043435665
98	0x375a9fa2	1.303098e-05
99	0x399d5fc4	0.00030016724
100	0xb9202ff2	-0.0001527665
101	0x38381e7c	4.389741e-05
102	0x38d03428	9.927928e-05
103	0xb89f81d1	-7.605891e-05
104	0xb99c83ef	-0.00029852937
105	0xb8300943	-4.1970296e-05
106	0xb7cbb395	-2.428311e-05
107	0xb7c595d6	-2.3554003e-05
108	0x39b17a4a	0.00033851183
109	0xb9c57530	-0.0003766208
110	0x3972e811	0.0002316537
111	0xb984cedf	-0.00025331133
112	0xb953fa92	-0.00020215873
113	0x38ef5f77	0.0001141419
114	0x35482424	7.45584e-07
115	0x38821a64	6.203799e-05
116	0x39d4b128	0.00040567783
117	0xb9769048	-0.00023514137
118	0xb75a899b	-1.3025851e-05
119	0xb8a1f028	-7.721811e-05
120	0x39f7bc00	0.00047251582
121	0x382c0b07	4.1018266e-05
122	0xb795a28b	-1.7837874e-05
123	0xb92cd88d	-0.0001648387
124	0xb8883713	-6.495244e-05
125	0xb8960502	-7.15349e-05
126	0xb9aae9f8	-0.00032599247
127	0x39a26bb0	0.0003097928
128	0x397b1a06	0.0002394692
129	0xb8aa5695	-8.122359e-05
130	0x38c0f5d2	9.201061e-05
131	0x384ea3ae	4.9266666e-05
132	0x386c6a69	5.6365887e-05
133	0xb737a29e	-1.0945512e-05
134	0xb889f193	-6.577666e-05
135	0xb9166810	-0.00014343881
136	0x39145c3e	0.00014148743
137	0xb78ebb1a	-1.7014845e-05
138	0xb994d7f0	-0.00028389646
139	0xb6fbb1bc	-7.501074e-06
140	0xb8b1d5d9	-8.47985e-05
141	0x38e1dbea	0.00010769798
142	0x38fa0bb7	0.00011923111
143	0xb8b1596b	-8.456673e-05
144	0xb88727dc	-6.444726e-05
145	0xb92f4718	-0.00016715785
146	0x37d2fffc	2.5153153e-05
147	0x396f0e85	0.00022798225
148	0x3977e2de	0.0002364027
149	0xb9805c5a	-0.0002448287
150	0x37ab2b8d	2.0405068e-05
151	0xb9be1ebc	-0.00036262523
152	0xba7f93c2	-0.00097494957
153	0x39c2aba1	0.00037130437
154	0xbb1d9d71	-0.0024050141
155	0xba8cb318	-0.0010734526
156	0xbb47dc8c	-0.0030496446
157	0x3631ec5d	2.6512637e-06
158	0xbba30747	-0.0049752328
159	0xb6ddab8a	-6.606283e-06
160	0xb964ab49	-0.00021807583
161	0x39ad77bb	0.00033086337
162	0xb9b6cc0b	-0.0003486577
163	0x39e790c6	0.00044167618
164	0x39820e1a	0.0002480604
165	0x39b0ed14	0.00033745973
166	0x39a6d790	0.00031822594
167	0x3a627727	0.0008638971
168	0xb913cc64	-0.00014095154
169	0x38116a7b	3.466986e-05
170	0x3849962f	4.8062004e-05
171	0xba087f74	-0.000520698
172	0x3adaa7e4	0.0016682115
173	0xbb1f2597	-0.002428388
174	0x3b7cac57	0.003855487
175	0xb8c51f2e	-9.3995e-05
176	0xbba5b244	-0.0050566513
177	0x3b82b505	0.0039888644
178	0x3a4e0a0a	0.00078597723
179	0xbbfb2d67	-0.0076653245
180	0xbb0c831f	-0.002144046
181	0x39d1e14f	0.00040031454
182	0xb8e2d2f7	-0.00010815815
183	0xb9e9304d	-0.0004447721
184	0x39dbf765	0.00041955258
185	0x3a20a057	0.0006127408
186	0x3a29cc43	0.0006477276
187	0x3b3c6e19	0.0028752147
188	0x3ca1e1d6	0.019761007
189	0xb9e19623	-0.00043027205
190	0xbbb88b57	-0.005631845
191	0xb93e2f6c	-0.00018137478
192	0xba2a7748	-0.00065027596
193	0xb8a93038	-8.0675294e-05
194	0x3b0aa7b5	0.002115709
195	0x3bddc687	0.006768051
196	0xb99144ab	-0.00027707717
197	0xba2e17dc	-0.00066411286
198	0x3b1281d3	0.0022355213
199	0xbb2e7652	-0.0026620817
200	0xba3223a5	-0.00067954726
201	0xbb86d0eb	-0.0041142604
202	0xba8c7cc7	-0.0010718339
203	0xba0df188	-0.0005414714
204	0x38e27fab	0.000108003
205	0xb82a1e09	-4.055913e-05
206	0xb9f4616a	-0.00046611886
207	0xb9956858	-0.00028497237
208	0xb97133fe	-0.0002300292
209	0x396380fb	0.00021696456
210	0x39b6df68	0.00034880196
211	0xb9c343af	-0.00037243727
212	0xba1e4ce4	-0.0006038679
213	0x3af59c6f	0.0018738637
214	0x3c2f873b	0.010713394
215	0x39870109	0.00025749978
216	0xbb6d6152	-0.0036221338
217	0x3981286e	0.0002463492
218	0x38ba4e3b	8.883743e-05
219	0x38ee780f	0.00011371087
220	0x38c2cf3f	9.2892435e-05
221	0x3983e78b	0.0002515878
222	0x38d7149f	0.0001025584
223	0x3ae31cfb	0.0017327362
224	0xbc80e589	-0.01573445
225	0xb937ef5b	-0.00017541407
226	0x39198599	0.00014640986
227	0x394e8702	0.00019695985
228	0xb91af13e	-0.00014776454
229	0xba88f1fd	-0.0010448095
230	0x39e030dc	0.00042761012
231	0x3a054e0c	0.0005085177
232	0xb9da4a6f	-0.00041635658
233	0x384aa16f	4.83109e-05
234	0xba3c15f9	-0.0007174905
235	0xb8dc9944	-0.000105189654
236	0x393caa6e	0.00017992567
237	0xb9977317	-0.00028886713
238	0xb91fbd76	-0.00015234001
239	0xb963ae92	-0.0002171344
240	0xb95f5299	-0.00021297707
241	0x3a24f07f	0.000629194
242	0xb82b2b1b	-4.0809722e-05
243	0x39716455	0.00023020928
244	0xb97067c1	-0.00022926835
245	0xb99a4cb7	-0.00029430326
246	0x38015194	3.0831972e-05
247	0xb9aca71c	-0.00032930903
248	0xb8f1e3cf	-0.00011534208
249	0xb92ed344	-0.00016672636
250	0x38ccf9ad	9.773984e-05
251	0x3a3134e4	0.00067598955
252	0x387d2c36	6.0361075e-05
253	0xb9220efa	-0.00015455103
254	0xba2004f6	-0.0006104255
255	0x39a8e3e0	0.00032213237

layer3.bias f4 [75]
0	0xba9dcb5c	-0.0012038755
1	0x380dddb1	3.3823486e-05
2	0xb8a17f00	-7.700734e-05
3	0xb69cf533	-4.6777072e-06
4	0xb9a5c347	-0.00031616745
5	0x3c552df7	0.013011447
6	0xb97a6f0f	-0.0002388323
7	0x39974c71	0.00028857918
8	0x394f2b8c	0.00019757281
9	0xb933b9c6	-0.00017139976
10	0xb95f0a0c	-0.0002127068
11	0xb9b13752	-0.00033801288
12	0xb8a12b30	-7.6851225e-05
13	0xbbde07cc	-0.006775832
14	0x39fb3abd	0.00047918214
15	0x3c183adf	0.00929138
16	0xb97ed680	-0.00024303235
17	0xbb39a66a	-0.002832795
18	0x3dbcf96c	0.09227261
19	0xbaad5ee4	-0.0013227132
20	0x385fd71d	5.3367683e-05
21	0xbab919f1	-0.0014122111
22	0x3a0b198c	0.0005306236
23	0xbad35338	-0.0016122824
24	0xba8bc589	-0.0010663728
25	0x3b2368ab	0.0024934213
26	0x3a2c8ecf	0.00065825594
27	0xba03d2fd	-0.0005028693
28	0xb96c94cf	-0.0002256215
29	0x3a9420aa	0.0011301239
30	0x3a5f4a23	0.0008517822
31	0x39c2f695	0.0003718628
32	0x3cc0fcbb	0.023558011
33	0xbb219182	-0.002465338
34	0x392310df	0.00015551176
35	0xb9d0e104	-0.000398405
36	0xb89ca9c2	-7.4702795e-05
37	0xb92f7c16	-0.00016735526
38	0x3a09bae7	0.0005253986
39	0x379ba3dc	1.8553743e-05
40	0xb99c98a1	-0.00029868356
41	0xbab2fdfe	-0.0013656018
42	0x3d087e92	0.03332383
43	0x397e8ee2	0.00024276556
44	0x39339d0d	0.00017129276
45	0xb82b4af7	-4.0839393e-05
46	0xb98626c8	-0.00025587366
47	0x392521aa	0.00015748167
48	0xbb1a6cb2	-0.0023563323
49	0xb9b7e394	-0.0003507404
50	0x38055aa1	3.1794076e-05
51	0x3aee2ab1	0.0018170682
52	0x3ac32d56	0.001489083
53	0xb97200f8	-0.0002307928
54	0x388136db	6.161417e-05
55	0x38f1c755	0.00011528904
56	0xba06afaf	-0.0005137873
57	0xba95c6a6	-0.0011427
58	0xbd0ae6be	-0.03391146
59	0xbaa63819	-0.0012681513
60	0x3794f23c	1.7755774e-05
61	0xba0e0e26	-0.00054189784
62	0xb76ea711	-1.4224804e-05
63	0xba7b0ac7	-0.0009576496
64	0x381fc1fb	3.8089212e-05
65	0x39197d12	0.0001463781
66	0xbb0d3386	-0.0021545603
67	0xb9ec09b1	-0.00045020648
68	0xb91f9b67	-0.00015221314
69	0xbba64e34	-0.0050752405
70	0xbad6ac74	-0.0016378299
71	0xbd0d8538	-0.034550875
72	0x3b73d2ba	0.003720446
73	0xbbf07495	-0.0073381164
74	0xbaec5d34	-0.0018033148

layer4.weight f4 [75, 75]
0	0x3d9f908d	0.07791243
1	0x3a14ac6c	0.0005671445
2	0xbbbd6057	-0.005779307
3	0x3b94bcd1	0.00453911
4	0xba946cb6	-0.0011323902
5	0xbd96bb39	-0.07359929
6	0xbc88d4db	-0.01670306
7	0x3b0448ab	0.0020184915
8	0xbb951995	-0.0045501688
9	0x3ae15fa6	0.0017194643
10	0x3bc6d0f2	0.0060673887
11	0xbc020273	-0.007935154
12	0xbb07d8c1	-0.002072856
13	0xbd9227d9	-0.071365066
14	0x3bd30ac9	0.0064404947
15	0xbcc41710	-0.023936778
16	0xbb1f0f72	-0.002427068
17	0xbc4d799c	-0.012541201
18	0x3e38fb71	0.18064667
19	0x3d551be2	0.052028544
20	0xbb89aee1	-0.0042017554
21	0x3c4dacde	0.012553422
22	0x3be366e4	0.0069397558
23	0xbb00e6a2	-0.0019668718
24	0xbd2ca6c9	-0.042151246
25	0x3ce4fe60	0.027953327
26	0x3bb3cb1c	0.005486859
27	0x3ca2af95	0.019859115
28	0xbc58a23a	-0.013222272
29	0xbca45fea	-0.020065267
30	0xb828a7fe	-4.0210776e-05
31	0xbc22bd03	-0.009932759
32	0xbd96ccaf	-0.07363259
33	0x3ca15cdf	0.019697605
34	0xbc553072	-0.013012039
35	0x3bd39670	0.0064571425
36	0xbb1f6e34	-0.002432716
37	0x3c32cca5	0.010913049
38	0x3b8134b0	0.0039430484
39	0xbbc3095e	-0.0059520444
40	0x39872d24	0.0002578284
41	0xbbd8a8a6	-0.0066119013
42	0x3b99b53a	0.0046907933
43	0xbcc5cfd5	-0.024146954
44	0xbc0298aa	-0.007970968
45	0xbb94d9ae	-0.004542551
46	0xbb5a24a1	-0.0033285993
47	0x3c5476bb	0.012967761
48	0x3cb38347	0.021913184
49	0x3b8d1198	0.004305076
50	0x3b8fe739	0.0043915776
51	0xb74afe05	-1.2099282e-05
52	0xbc849b33	-0.016187286
53	0x3a8ca651	0.0010730718
54	0x3accd283	0.0015626702
55	0xbb080af7	-0.0020758489
56	0x3af26173	0.0018492177
57	0x3b83060b	0.003998523
58	0x3d21d966	0.039513968
59	0xbc9c30ce	-0.01906624
60	0xb9f36dfe	-0.00046430522
61	0x39948c09	0.00028333094
62	0xba9eccb5	-0.0012115451
63	0x3d45179f	0.04811823
64	0x3ab92f79	0.0014128528
65	0xbac237f9	-0.0014817707
66	0xbc2bf9e0	-0.010496587
67	0x3b860151	0.0040895124
68	0xbc1f8d9c	-0.009738352
69	0x3c1c6008	0.00954438
70	0x3cd8c96e	0.026463237
71	0xbb72c6b5	-0.0037044708
72	0xbabf0318	-0.0014573066
73	0x3d908e0f	0.070583455
74	0x3c07e969	0.008295395
75	0xbbb6e359	-0.005581301
76	0xba92748d	-0.0011173651
77	0x3aaea13a	0.0013323196
78	0xbb23923a	-0.0024958984
79	0x3b24638d	0.002508375
80	0xbbfb760b	-0.007673984
81	0xba78665c	-0.0009475702
82	0x3afd1da2	0.00193112
83	0x3b28acf5	0.0025737856
84	0x3a4d0e4b	0.0007822259
85	0x3aa51fa6	0.0012597933
86	0xbb2ae35e	-0.0026075463
87	0xbb5cfa68	-0.003371859
88	0x3c31c8d5	0.010851105
89	0xbb2b3670	-0.0026124977
90	0x3c835cfe	0.016035553
91	0x3b009382	0.0019619172
92	0xbc050ae1	-0.0081202695
93	0xbbe4d75b	-0.00698368
94	0xbcb5c61b	-0.02218919
95	0x3af7f3b3	0.0018917233
96	0xbbdae051	-0.0066795726
97	0xbb1ea17e	-0.0024205144
98	0x39aae80d	0.00032597818
99	0xbc842dc2	-0.0161351
100	0x3c58d09c	0.01323333
101	0xba4562a8	-0.00075296545
102	0xbc344052	-0.011001663
103	0xbb8a689b	-0.0042238957
104	0xbccb0f78	-0.02478765
105	0xba714972	-0.00092043646
106	0xbacbe5a8	-0.0015556114
107	0x3b07693e	0.0020662094
108	0xbc0cf452	-0.008603172
109	0xbae30b34	-0.0017322064
110	0xbb9374df	-0.004500016
111	0xbb725cc3	-0.003698156
112	0xbb66ab1e	-0.0035197209
113	0xbb583005	-0.0032987606
114	0x3b49efb5	0.0030813043
115	0xbac7b218	-0.0015235571
116	0x39b6b210	0.00034846412
117	0xbce1ed58	-0.027578995
118	0xb9d8b09c	-0.00041330315
119	0x3be45db2	0.006969177
120	0xb9681d1c	-0.00022136088
121	0xb80b1593	-3.3160275e-05
122	0xbbe3709d	-0.006940915
123	0xbc426836	-0.011865666
124	0xbb635f3e	-0.003469422
125	0xbb74f312	-0.0037376327
126	0xba280afa	-0.0006410327
127	0x3c05dc48	0.008170195
128	0x39c5b56d	0.0003770994
129	0xba9aebd9	-0.0011819556
130	0x3a8a1da7	0.0010537402
131	0xbae6b0c4	-0.0017600288
132	0xbb054748	-0.0020336676
133	0xbcc4c69d	-0.024020487
134	0x3bd3baac	0.006461462
135	0x3af5c179	0.0018749676
136	0xba6fce22	-0.00091478426
137	0xba87c39e	-0.0010357981
138	0xbc8c2c3f	-0.017110942
139	0x3ac724b4	0.0015193434
140	0xbb07edca	-0.0020741099
141	0xbb82370a	-0.0039738463
142	0xba7c35d3	-0.00096210575
143	0x3b148997	0.0022665018
144	0x39280c97	0.00016026419
145	0xbbb4407b	-0.0055008507
146	0x3b38683c	0.00281383
147	0xbc09fa61	-0.008421511
148	0xba632a91	-0.00086657057
149	0xbbae5f4c	-0.005321419
150	0x3db6660f	0.08906185
151	0x3b07b5b9	0.002070768
152	0xbbf140a5	-0.0073624426
153	0x3bc88b9a	0.0061201574
154	0xba38ea1b	-0.00070539274
155	0xbd1254c0	-0.035725355
156	0xbc5bec2c	-0.013423007
157	0x3c1d083e	0.009584485
158	0xbc10bf0b	-0.008834611
159	0x3b1ffd98	0.0024412628
160	0x3bdd906e	0.006761602
161	0xba6ddbd1	-0.0009073588
162	0xbad126ad	-0.0015956961
163	0xbdd73876	-0.10508816
164	0x3c089519	0.008336329
165	0xbd05524a	-0.03254918
166	0xbb6b1581	-0.0035870972
167	0x3a764b93	0.0009395417
168	0x3ded2733	0.11579742
169	0x3da40fdb	0.08010837
170	0xbb5682dd	-0.003273181
171	0x3c78c6a5	0.015184079
172	0x3bcd9b9c	0.0062746536
173	0xbab6851d	-0.0013925169
174	0xbcca59d8	-0.024701044
175	0x3c918b6c	0.017766677
176	0x3c025a4b	0.007956098
177	0x3d2076ce	0.0391758
178	0xbc21a3b2	-0.009865688
179	0xbc0a13c5	-0.008427565
180	0x3904696b	0.00012627772
181	0xbb2804ad	-0.0025637553
182	0xbdab0d12	-0.08352102
183	0x3d2b98cd	0.04189377
184	0xbc8f12f5	-0.017465094
185	0x3c6d83bd	0.014496741
186	0xba91579f	-0.0011088735
187	0x3c3f7fa1	0.011688144
188	0x3c0af026	0.008480107
189	0xbbe58dd0	-0.0070054308
190	0x3b0b80fe	0.0021286602
191	0xbbb3ef03	-0.005491139
192	0x3cc13d4d	0.0235888
193	0xbce1dbe5	-0.027570674
194	0xbc5d98a9	-0.013525167
195	0xbb7bed45	-0.0038440984
196	0xbba76bc1	-0.005109281
197	0x3cb7b1d6	0.022423666
198	0x3d4695c0	0.048482656
199	0x3c15163a	0.0090995375
200	0x3c120811	0.008913056
201	0x3a308631	0.0006733863
202	0xbce5d2af	-0.028054563
203	0x3a72c574	0.000926099
204	0x3b21ae12	0.0024670404
205	0xbb8c0ba2	-0.0042738477
206	0x3b603b14	0.00342149
207	0x3c00e51e	0.007867126
208	0x3d8a4529	0.067514725
209	0xbd075907	-0.033043887
210	0x3bb43d2c	0.0055004563
211	0xbad0bb91	-0.001592504
212	0xb98a0bf1	-0.00026330308
213	0x3d8e3969	0.06944544
214	0xbb3b8488	-0.002861293
215	0x3a0fbd2c	0.0005483206
216	0xbc9836f2	-0.018580887
217	0x3b9ad4d8	0.00472508
218	0xbc7d27ab	-0.015451352
219	0x3bfe6698	0.007763695
220	0x3d1dbdf5	0.038511235
221	0x3b5b4d88	0.003346296
222	0x3b689117	0.003548687
223	0x3d85b33d	0.065283276
224	0x3c9dd687	0.019267334
225	0xbca32330	-0.01991424
226	0xb9d50609	-0.00040631022
227	0x3a7bf463	0.00096113066
228	0xbace0898	-0.0015719114
229	0xbad313cf	-0.0016103926
230	0x3d519e99	0.05117664
231	0x3bff64da	0.007794005
232	0xbaee9c77	-0.0018204589
233	0x3b2b4177	0.002613155
234	0xba8dcbba	-0.0010818162
235	0xba7c749b	-0.00096304127
236	0x3aedef1f	0.0018152929
237	0xbb4a6e14	-0.0030888366
238	0x3c8f6cbc	0.017507903
239	0x39952895	0.0002844973
240	0xb9ff7683	-0.00048725688
241	0x3995f730	0.00028603664
242	0x3c637377	0.013882509
243	0xbe328fb4	-0.17437631
244	0xbce5eb1e	-0.028066214
245	0x3b7bc636	0.0038417703
246	0x39bf0030	0.000364305
247	0xbb3920e4	-0.0028248364
248	0xbb57da98	-0.0032936689
249	0x3c2c2b3a	0.010508353
250	0x3ca77ea5	0.020446131
251	0x3a922e5a	0.001115273
252	0xbc0c87ce	-0.0085773
253	0x3bd18f05	0.006395223
254	0xbd058192	-0.03259427
255	0xbb4e97d8	-0.0031523611

layer4.bias f4 [75]
0	0xba2519ea	-0.0006298112
1	0xba1dafdd	-0.00060152804
2	0xb9e78222	-0.0004415671
3	0x3b1945d3	0.0023387566
4	0xb7047b3a	-7.896504e-06
5	0x398a22ef	0.0002634744
6	0xba826a11	-0.0009949823
7	0xba86152d	-0.00102297
8	0x3a9a1692	0.0011755994
9	0xb7714849	-1.438155e-05
10	0xba022b76	-0.00049655826
11	0xba5c4032	-0.00084019
12	0xbac1ce91	-0.0014786293
13	0x39e8a2a4	0.00044371665
14	0x37eeb31d	2.8455217e-05
15	0xbc2bdaee	-0.010489209
16	0xba8f1470	-0.0010916125
17	0xbb2d5920	-0.0026450828
18	0xbb87cfed	-0.0041446597
19	0x395f5c91	0.00021301421
20	0xbb95d242	-0.004572184
21	0x3ac14a5d	0.0014746893
22	0x3a32ed80	0.00068255514
23	0x3b83ce15	0.0040223696
24	0x3c027cfa	0.007964367
25	0xbade9fd7	-0.0016984892
26	0x3d8f7882	0.07005407
27	0x39939315	0.0002814761
28	0x3a036919	0.0005012914
29	0x3717446c	9.016232e-06
30	0x39ebb03f	0.00044954006
31	0x38ea5637	0.00011174048
32	0xb94aff84	-0.00019359408
33	0x3ad91712	0.0016562662
34	0x3adac63f	0.0016691162
35	0xbb046402	-0.002020121
36	0xbaa59a62	-0.0012634511
37	0x39716727	0.00023021978
38	0xbb34151a	-0.0027478398
39	0x3aacb355	0.0013176004
40	0xb9ac5bd3	-0.0003287481
41	0xbaf74101	-0.0018863977
42	0xb942ff70	-0.0001859644
43	0x3ad0a0ca	0.001591706
44	0xb7cedab5	-2.4658957e-05
45	0x398a30f1	0.00026357875
46	0x3a4835ea	0.00076374284
47	0xba89d78e	-0.0010516511
48	0xbb9e639c	-0.0048336517
49	0xb8c12c3f	-9.2111986e-05
50	0xba86a742	-0.0010273235
51	0x3a019523	0.00049431826
52	0xba6a9473	-0.0008948512
53	0xbaa1a36b	-0.0012332028
54	0x38a88cb7	8.0370744e-05
55	0xbac4f3f1	-0.0015026313
56	0x397d8e3a	0.00024180944
57	0xba3abb5d	-0.0007123256
58	0xb9868104	-0.00025654596
59	0xbf23e098	-0.6401458
60	0xbb1ba405	-0.0023748886
61	0xba84d5cc	-0.0010134517
62	0x37b492c6	2.1526019e-05
63	0x3b72a5ef	0.0037025174
64	0xb9020400	-0.00012399256
65	0x3a365b44	0.00069563487
66	0x392aafc1	0.00016277937
67	0x3a0ed2f4	0.00054483046
68	0xb9c3063b	-0.0003719794
69	0x3d01b690	0.031668246
70	0x3ad80335	0.0016480448
71	0xbaced803	-0.0015780929
72	0x3b16af8c	0.0022992818
73	0x3cc60a74	0.024174906
74	0x399ec081	0.00030279535

layer5.weight f4 [75, 75]
0	0x3da62093	0.08111682
1	0x3aa144ab	0.001230379
2	0x3c957992	0.018246446
3	0x3d843b29	0.064565964
4	0xbcaaf0ef	-0.02086684
5	0xbc88c27a	-0.016694296
6	0x3c8cd7fe	0.017192837
7	0x3c3adfbe	0.011405883
8	0xbb19e7ec	-0.0023484183
9	0xbe1a334a	-0.15058628
10	0x3bf9cba0	0.007623151
11	0x3c763c25	0.015028988
12	0x3c046042	0.00807959
13	0xbc358f20	-0.011081487
14	0xbcbdfe69	-0.023192601
15	0x3b4ee76e	0.0031571048
16	0xbb365e4d	-0.0027827204
17	0xbac4c3af	-0.0015011932
18	0xba0f0f3a	-0.0005457286
19	0x3a5db7fe	0.0008457898
20	0xbc0b81c6	-0.008514827
21	0x3c9637bf	0.018337129
22	0xbb25a50b	-0.0025275375
23	0x3b6878e3	0.0035472445
24	0xbbb800ae	-0.0056153154
25	0x3c06591b	0.008199955
26	0xbd186c00	-0.03721237
27	0x3b877cdd	0.004134758
28	0xbb7194c1	-0.0036862346
29	0xb86fe0a8	-5.7191268e-05
30	0x3cfff5ef	0.0312452
31	0xb9f1cc84	-0.00046119478
32	0xbe0bffcd	-0.13671799
33	0xbc6d6ead	-0.014491719
34	0xbd4ee489	-0.050510917
35	0x3c9816da	0.018565584
36	0xbbfbc62e	-0.007683537
37	0x3bb631b7	0.0055601257
38	0xb8c0e780	-9.198394e-05
39	0xbc3d7811	-0.011564271
40	0x3971d227	0.00023061839
41	0x3d424773	0.04743142
42	0x3b98b2f3	0.0046600043
43	0x3d426e9a	0.04746876
44	0x3904e344	0.00012673164
45	0xba712dc7	-0.0009200242
46	0xbd0bf3d0	-0.034168065
47	0x3931683f	0.0001691887
48	0x3a88fb73	0.0010450914
49	0x39a075d9	0.00030605381
50	0x3c5f4342	0.013626875
51	0xbe9d3b8b	-0.3070949
52	0x3bd9f57d	0.006651579
53	0x3b170956	0.0023046336
54	0xbe14287d	-0.1446857
55	0x3be7cb6d	0.007073811
56	0xb7797ace	-1.4870149e-05
57	0xba33b663	-0.0006855486
58	0xba13864c	-0.0005627617
59	0x3c47e23b	0.012199934
60	0x3b9b8fed	0.004747382
61	0xbdd0df55	-0.10198847
62	0xbb3abbcd	-0.0028493286
63	0xbce66467	-0.028124047
64	0x3b0d6a5e	0.0021578292
65	0x3d34505a	0.04402194
66	0xbd0951d9	-0.03352532
67	0xbba82d70	-0.0051323697
68	0xbb9e6b0f	-0.0048345397
69	0xbe02e805	-0.12783821
70	0x3b9d8af0	0.0048078224
71	0xbafe6fc4	-0.0019411971
72	0xbde12e08	-0.10995108
73	0xbb3a0324	-0.002838322
74	0x3c013858	0.007886969
75	0xbdd84765	-0.105604924
76	0xbdfa8bc7	-0.12233692
77	0x3be39d69	0.006946255
78	0x3e741dcc	0.23839492
79	0xbce27d35	-0.027647594
80	0x3c561731	0.013067053
81	0xbc8ec3aa	-0.017427284
82	0x3e3e1344	0.18562037
83	0xbe1924ef	-0.14955495
84	0xbd419720	-0.047263265
85	0xbc80a1b1	-0.0157021
86	0xbcf2a5ec	-0.029620133
87	0xbd4c2785	-0.049842376
88	0xbc3d1513	-0.011540669
89	0xbbcd87d1	-0.006272294
90	0xbdf54d50	-0.11977637
91	0xbb206bef	-0.0024478396
92	0xbc9c671e	-0.019092139
93	0x3d7474c6	0.059681676
94	0x3eaae9df	0.33381554
95	0xbbccb5db	-0.006247265
96	0x3e2b5a26	0.16733608
97	0x3e862405	0.26199356
98	0xbd394216	-0.04522904
99	0xbdbd4287	-0.09241205
100	0xbdf5e53b	-0.12006613
101	0x3c0836ca	0.008313844
102	0xbc459335	-0.012059023
103	0x3d629f27	0.05532756
104	0x3b3c1b3b	0.0028702754
105	0x3d34f23b	0.04417632
106	0xba6e8aa0	-0.0009099636
107	0xbd8a1104	-0.06741527
108	0xbc591dad	-0.013251704
109	0xbf1992cb	-0.59989613
110	0xbe0016d7	-0.12508713
111	0x3b351f16	0.0027636937
112	0xbe0b1fa8	-0.13586295
113	0xbe01cd3b	-0.12675945
114	0xbca09686	-0.019603025
115	0x3c1bd5f2	0.009511458
116	0xbc86e5b2	-0.01646695
117	0x3d036d38	0.03208658
118	0xbe71cfa8	-0.23614371
119	0x3c7a9a6a	0.015295604
120	0xbbb865bb	-0.0056273616
121	0xbd086943	-0.03330351
122	0xbca7cacc	-0.020482443
123	0xbc2ba424	-0.010476146
124	0x3b5f2d27	0.0034054013
125	0x3e3fb902	0.18722919
126	0xbdd12687	-0.10212427
127	0xbe017c75	-0.12645133
128	0xbc78db6e	-0.015189035
129	0xbd0a38ef	-0.033745702
130	0x3ec34ef4	0.38146174
131	0x3ca93049	0.020652907
132	0x3bc78ce2	0.0060897926
133	0x3cc85e46	0.024459016
134	0xbe346f02	-0.17620471
135	0x3c0ddd69	0.008658745
136	0xbd80fc93	-0.06298175
137	0xbac1c859	-0.001478444
138	0x3d96599d	0.07341311
139	0x3d138c8c	0.036022708
140	0xbe934508	-0.28763604
141	0x3e0d0178	0.13770092
142	0x3ba623c5	0.005070182
143	0x3c511a02	0.012762548
144	0xbc6fcdde	-0.014636485
145	0x3dacabc2	0.08431198
146	0xbd773793	-0.060355734
147	0xbe8b2983	-0.27180108
148	0x3bbb76fe	0.005720972
149	0x3d13dccc	0.03609924
150	0xbb3799e1	-0.0028015303
151	0xbccf9438	-0.02533923
152	0xbbbb9e87	-0.005725685
153	0x3de94533	0.11390152
154	0x3d72dbe2	0.059291728
155	0xbc052f1f	-0.00812891
156	0x3d178f83	0.037002098
157	0xbabc80bf	-0.0014381631
158	0xbcfbb731	-0.030727
159	0xbd03445c	-0.032047614
160	0x3d021cdf	0.031765815
161	0x398e656e	0.00027159922
162	0x3d89e900	0.06733894
163	0xbcf6fda2	-0.030150238
164	0xbbf11282	-0.0073569426
165	0xbc4e6a58	-0.0125985965
166	0xbcc1c59b	-0.023653796
167	0xbb35b15e	-0.0027724127
168	0x3bac7f59	0.0052642045
169	0x3d1af213	0.037828516
170	0xbdcfae4b	-0.101406656
171	0x3d0c5fba	0.03427098
172	0x3d51aa68	0.051187903
173	0xbc8a1030	-0.016853422
174	0xbdcbb424	-0.099464685
175	0x3c70e099	0.014701986
176	0x3d40bd71	0.047055665
177	0xbc50307f	-0.012706875
178	0xbc57f623	-0.013181242
179	0xbb60a5bd	-0.0034278475
180	0xbd341ed8	-0.043974727
181	0xbb146650	-0.002264399
182	0xbdd8e584	-0.10590652
183	0x3c5c3f85	0.013442879
184	0xbd04d0f0	-0.03242582
185	0x3e0f5d78	0.14000499
186	0xbd2f6447	-0.04282024
187	0x3bcceb00	0.0062536
188	0xbd32f5dd	-0.043691505
189	0x3cca5224	0.02469737
190	0xb8dc066d	-0.000104916144
191	0x3d28c9be	0.04120802
192	0x3cacf035	0.021110633
193	0x3cad978c	0.021190427
194	0x3bb8fc49	0.005645309
195	0x3ad6e8a9	0.0016396242
196	0x3c2b707f	0.010463833
197	0xbbefec2c	-0.007321855
198	0x3bbaf2a7	0.005705196
199	0x3936840c	0.00017406064
200	0x3d3b4916	0.045723997
201	0xbe1657db	-0.14681952
202	0x3d9c4764	0.07630804
203	0xbb05061d	-0.0020297833
204	0xbdc1e2e3	-0.09467103
205	0x3d177617	0.036977854
206	0x3a696f1c	0.0008904801
207	0xbd257101	-0.040390972
208	0xb7a7ae32	-1.9989067e-05
209	0x3dd472a1	0.10373426
210	0x3c7e8a89	0.015535959
211	0x3cba1307	0.022714151
212	0xbad40705	-0.0016176408
213	0xbdb48f9c	-0.08816454
214	0x3c897077	0.01677726
215	0xbcce1e98	-0.025161073
216	0x3c951f3d	0.018203372
217	0xbcbbba57	-0.022916002
218	0xbca55ce8	-0.020185903
219	0xbcddad50	-0.02706018
220	0x3d01b9ad	0.031671215
221	0x3d347ccd	0.04406433
222	0x3e9dcb73	0.30819282
223	0x3c12c8ce	0.008959008
224	0xbcc130eb	-0.023582896
225	0x3df95e54	0.12176195
226	0x3cb78bcb	0.022405526
227	0x3d53023a	0.051515795
228	0xbbf20891	-0.007386275
229	0x3ccdb832	0.025112245
230	0xbc90bc6c	-0.017667972
231	0x3cf4aaa1	0.029866518
232	0xbe748d52	-0.23882034
233	0x3dc9b551	0.098490365
234	0x3e2ff81f	0.17184494
235	0xbcdfa2ef	-0.027299372
236	0xbc2c4540	-0.010514557
237	0x3c0107f6	0.007875433
238	0xbc285238	-0.010273509
239	0x3d9a2421	0.07526422
240	0x3d0695dd	0.032857765
241	0x3d7657ee	0.06014245
242	0xbac7cfdb	-0.0015244441
243	0x3d261c08	0.040554076
244	0xbf30d03d	-0.69067746
245	0xbe017e1e	-0.12645766
246	0xbddd65ce	-0.10810433
247	0xbccb0b9b	-0.024785807
248	0xbd7a8a27	-0.06116691
249	0xbe136eb6	-0.14397702
250	0xbedcc86a	-0.43121654
251	0x3e030480	0.12794685
252	0xbb4e2095	-0.0031452526
253	0x3d798db1	0.060926143
254	0x3c18b853	0.00932129
255	0x3cd197e2	0.025585119

layer5.bias f4 [75]
0	0x3a171683	0.00057635474
1	0xbc5d82bf	-0.013519942
2	0x3c22fa4b	0.00994737
3	0x3c94b11c	0.018150859
4	0xbc22a20d	-0.009926331
5	0x3afd9230	0.0019345935
6	0x3c5bdaa5	0.013418828
7	0xba68321a	-0.00088575634
8	0x3a9acd96	0.0011810537
9	0x3cad3728	0.021144465
10	0xb92f558b	-0.00016721168
11	0xbb05f634	-0.0020440938
12	0x3c157104	0.009121183
13	0xb915ddd7	-0.00014292389
14	0x3a2e4590	0.0006647939
15	0xb9101983	-0.00013742414
16	0xbbd629f2	-0.006535762
17	0xb930549f	-0.00016816192
18	0x39ae3900	0.00033230335
19	0x3864ab64	5.4519056e-05
20	0xbb7f6a6d	-0.0038973347
21	0xbabe2fe0	-0.0014510117
22	0xbc8a820c	-0.016907714
23	0xbbf8c1c9	-0.0075914604
24	0xbb51f7b8	-0.003203852
25	0xbb9a486a	-0.0047083395
26	0x398ab9d0	0.00026459852
27	0x3c4539bf	0.0120376935
28	0xbc936c04	-0.017995842
29	0x3cefa63c	0.029254071
30	0x3b3378b1	0.002738517
31	0x3b103d00	0.0022009015
32	0xbce6087d	-0.02808022
33	0xbaa3b670	-0.0012490284
34	0x3ac0e5b0	0.001471689
35	0x38a0aad5	7.6612145e-05
36	0xba3b6350	-0.00071482826
37	0x3a69b38c	0.0008914999
38	0xbaa322fa	-0.0012446337
39	0x3b50d5ba	0.0031865672
40	0xbd337372	-0.04381127
41	0xbbc66a1a	-0.0060551288
42	0x3beffea6	0.0073240576
43	0x3a92f6bd	0.001121245
44	0xba864e5e	-0.0010246744
45	0xb9e6b134	-0.00044001045
46	0x3d1ffe9e	0.03906118
47	0xb9232c75	-0.00015561453
48	0xbc30773a	-0.010770613
49	0x3a1a60dc	0.0005889067
50	0x3c1f3a76	0.009718528
51	0x3c135cc6	0.008994287
52	0x3b83672c	0.004010102
53	0xba64587d	-0.00087106955
54	0xbc1adce8	-0.009452082
55	0x3c2ae5dd	0.01043078
56	0x3b9ca554	0.004780451
57	0x3afcb9d6	0.0019281458
58	0x3932fd80	0.00017069839
59	0x3ea3be31	0.31981042
60	0x3cac761b	0.02105241
61	0x3b83eb58	0.004025858
62	0x3bf212d0	0.0073874965
63	0x381a16aa	3.673757e-05
64	0x3cde2911	0.027119191
65	0x3aa196bc	0.0012328248
66	0x39319482	0.00016935359
67	0xb9ad8388	-0.0003309513
68	0xbac05e71	-0.0014676583
69	0xbac30cd9	-0.0014881148
70	0x3799b34b	1.8322511e-05
71	0x3ac4136b	0.00149594
72	0x390e83f9	0.00013591339
73	0x3b0e5507	0.002171816
74	0xbae53770	-0.0017487835
