model_weights_11.pth (torch, 180585 bytes, 43 tensors)

layer1.weight f4 [75, 68]
1.1845664 -7.349687 -2.0463355 17.534403 12.057467 0.060170244 0.03063717 0.03326919
0.02250647 -0.043443333 0.05658754 -0.03803583 0.0005550875 0.14344849 0.020660803 0.15651533
0.001024762 -0.013874032 -0.055304717 0.011712179 -0.005221951 -0.00036656673 0.04853175 0.02536195
0.008147567 -0.033041105 -0.03034483 -0.033293877 0.059596773 0.11977092 -0.049977146 -0.0025365043
-0.02722431 0.019606307 0.06268695 0.03088281 0.042840663 -0.01777034 -0.023079721 0.005086325
0.013703686 0.01318244 -0.011034203 -0.03692529 -0.052793384 -0.020997915 -0.0071916706 -0.04722114
0.035976827 0.011531147 -0.049345765 -0.0075865723 0.00470477 -0.053820964 -0.0373992 0.025254017
0.022813644 0.019635802 -0.070564315 0.060196586 -0.050678942 0.039347023 1.035007 0.012224263
-0.01226783 -0.034575082 -0.007915884 -0.058210995 5.166034 -37.30354 -36.72811 -122.89436
71.91294 0.09717544 -0.013269963 0.053212587 0.0295294 -0.025543673 0.201443 0.13922416
0.027424939 -0.42376143 0.1962834 -0.11975053 -0.0005994557 0.2552179 0.19111009 -0.42651275
0.2011311 0.03273326 0.2380217 0.03089192 0.0282424 0.1749823 -0.030600619 0.15679398
0.13927695 -0.059725884 0.23658684 0.32862464 0.3040506 0.001972214 0.10844794 0.02855568
0.0010978658 0.08683731 -0.005880454 0.0989119 0.23978446 0.021729318 -0.19580029 -0.027090114
-0.2945007 -0.020871628 0.17248914 0.016395407 0.04925999 0.0030636624 0.0037358177 0.13897802
-0.022185488 0.124580026 0.04103939 0.197487 0.29267 -0.08961462 0.23282474 0.11717479
0.22065908 0.31581998 8.233164 -0.007896318 0.17074095 0.21816057 0.14204374 0.17035142
-0.009898683 0.03317113 -0.0057802037 0.03221711 0.025822718 0.037967835 -0.0372929 0.01719451
-0.029287035 0.019661665 0.002544316 0.039115474 0.009218835 -0.014934695 -0.02847898 -0.0038107417
0.008426564 0.021559412 -0.020210968 0.010629962 0.041892044 -0.02495008 0.020825768 -0.01258743
0.029107332 -0.038448915 0.02893708 -0.032590415 -0.011770533 -0.0024437343 -0.03810942 -0.031040994
-0.0057250257 -0.007892644 -0.011583402 0.041388996 -0.015207573 0.038638663 -0.0010991526 0.0019856978
0.030104281 0.027813854 -0.018785957 0.014904128 0.017480912 -0.03529313 0.013350536 0.03058826
-0.021213226 -0.011002296 -0.026161566 -0.031477682 -0.0066012284 0.01196577 -0.0274978 0.005278317
0.036247868 0.018206393 0.012302075 0.028219225 -0.02349469 -0.03476992 -0.035830278 -0.033805307
-0.003067061 -0.038918298 -0.036495935 0.027267639 -0.03817034 0.036728375 -0.03338209 -0.035351705
-0.008695933 0.023265775 0.034669094 -0.03341146 -0.04023262 0.037422422 -0.032727774 -0.02097261
-0.0077226805 -0.004679724 0.037286438 0.039117258 -0.02225319 0.0321415 -0.009300093 -0.02943733
-0.040805597 -0.019369371 0.023795893 -0.01925008 -0.040982828 0.012773059 -0.020215793 0.04186602
-0.03801889 0.030507512 0.032627262 -0.025236966 -0.018985407 0.0074379956 0.0073184986 0.0014938294
-0.022678996 0.009654682 0.02784042 0.041939043 0.008962349 0.033223942 0.008350729 0.019349933
-0.0028903473 0.027848924 -0.018025411 -0.025507834 -0.040598705 0.034926206 -0.007878603 0.007498886
00000000: df9f 973f a330 ebc0 29f7 02c0 7546 8c41
00000010: 63eb 4041 1375 763d cdfa fa3c 4645 083d
00000020: 7d5f b83c a3f1 31bd 56c8 673d 75cb 1bbd
00000030: 4b83 113a 29e4 123e d840 a93c 8e45 203e
00000040: 4f51 863a e84f 63bc 3387 62bd 70e4 3f3c
00000050: e61c abbb c12f c0b9 3ac9 463d ddc3 cf3c
00000060: 5f7d 053c 1c56 07bd b995 f8bc 295f 08bd
00000070: bf1b 743d 754a f53d d6b4 4cbd 7b3b 26bb
00000080: 8405 dfbc 689d a03c 0462 803d f2fd fc3c
00000090: b179 2f3d 1b93 91bc af11 bdbc 30ab a63b
000000a0: 6d85 603c 29fb 573c cdc8 34bc f93e 17bd
000000b0: e03d 58bd d203 acbc 1ba8 ebbb f46a 41bd
000000c0: 705c 133d 23ed 3c3c c91e 4abd c898 f8bb
000000d0: 792a 9a3b 5f73 5cbd e72f 19bd 83e1 ce3c
000000e0: aee3 ba3c 43db a03c 0684 90bd b290 763d
000000f0: b994 4fbd 582a 213d 1c7b 843f 4648 483c
00000100: 02ff 48bc 9a9e 0dbd a0b1 01bc a76e 6ebd
00000110: 2750 a540 d336 15c2 96e9 12c2 eac9 f5c2
00000120: 6dd3 8f42 eb03 c73d 426a 59bc 71f5 593d
00000130: a4e7 f13c f740 d1bc 1347 4e3e c790 0e3e
00000140: 44aa e03c 42f7 d8be 84fe 483e c43f f5bd
00000150: cb24 1dba ecab 823e 5db2 433e e15f dabe
00000160: 50f5 4d3e 5013 063d f6bb 733e 0d11 fd3c
00000170: 9b5c e73c 8f2e 333e 26ae fabc 9a8e 203e
00000180: 9e9e 0e3e 21a3 74bd d243 723e 7d41 a83e
00000190: 85ac 9b3e 4340 013b f419 de3d 9aed e93c
000001a0: 43e6 8f3a c2d7 b13d d3b0 c0bb 5292 ca3d
000001b0: 0f8a 753e af01 b23c df7f 48be 16ec ddbc
000001c0: ccc8 96be fafa aabc fea0 303e a94f 863c
000001d0: d8c4 493d bac7 483b 9fd4 743b 4150 0e3e
000001e0: 57be b5bc d023 ff3d eb18 283d 083a 4a3e
000001f0: d8d8 953e df87 b7bd 9c69 6e3e 56f9 ef3d
00000200: 74f4 613e 28b3 a13e 0abb 0341 8f5f 01bc
00000210: b7d6 2e3e 7c65 5f3e ea73 113e 9a70 2e3e
00000220: 162e 22bc 73de 073d dd67 bdbb 17f6 033d
00000230: 2a8a d33c 2984 1b3d 71c0 18bd 80db 8c3c
00000240: 5deb efbc 8011 a13c 8abe 263b 8c37 203d
00000250: 990a 173c a7b0 74bc c04c e9bc a3bd 79bb
00000260: 920f 0a3c 5d9d b03c 7991 a5bc 4b29 2e3c
00000270: fe96 2b3d 1c64 ccbc cd9a aa3c 823b 4ebc
00000280: 8072 ee3c 9c7c 1dbd 750d ed3c 877d 05bd
00000290: 32d9 40bc 0f27 20bb a018 1cbd af49 febc
000002a0: ff98 bbbb 2650 01bc 4fc8 3dbc 8287 293d
000002b0: 2f29 79bc 9343 1e3d 7111 90ba 7b22 023b
000002c0: 419d f63c e1d9 e33c 02e5 99bc 7230 743c
000002d0: 2134 8f3c 878f 10bd 35bc 5a3c 3b94 fa3c
000002e0: 5cc7 adbc f942 34bc c850 d6bc beee 00bd
000002f0: 1e4f d8bb 140c 443c 1143 e1bc bbf5 ac3b
00000300: a578 143d 9325 953c a48e 493c 012c e73c
00000310: f077 c0bc e76a 0ebd c5c2 12bd 6f77 0abd
00000320: bf00 49bb cb68 1fbd c37c 15bd 6260 df3c
00000330: 8158 1cbd 7e70 163d a9bb 08bd f3cc 10bd
00000340: 6379 0ebc de97 be3c 2e01 0e3d 75da 08bd
00000350: f6ca 24bd 4148 193d 8f0d 06bd c0ce abbc
00000360: 8a0e fdbb 5f58 99bb aab9 183d 6b39 203d
00000370: 524c b6bc cea6 033d 6b5f 18bc 8e26 f1bc
00000380: c523 27bd 84ac 9ebc 9bef c23c 58b2 9dbc
00000390: 9cdd 27bd 1846 513c 979b a5bc b47b 2b3d
000003a0: b2b9 1bbd e4ea f93c 2aa4 053d c1bd cebc
000003b0: 4987 9bbc 6eba f33b 04d0 ef3b 99cc c33a
000003c0: 4dc9 b9bc ac2e 1e3c 9811 e43c 46c8 2b3d
000003d0: d1d6 123c d415 083d 7fd1 083c c083 9e3c
000003e0: fb6b 3dbb 6d23 e43c 07aa 93bc cef5 d0bc
000003f0: d44a 26bd c80e 0f3d 4215 01bc 37b9 f53b

layer1.bias f4 [75]
-0.03465545 0.023533937 0.029155448 0.019004637 -0.03662442 -0.0025923336 -0.027667752 -0.036571685
-0.032898862 -0.019258548 0.010536848 0.04097626 -0.03458293 0.014816602 0.010214928 0.024997506
0.0131305 0.031099487 0.014570372 0.028424636 0.026492937 0.003774486 -0.0039187092 0.00070041633
0.022985581 0.032640602 0.026617035 0.013333732 0.04156434 0.013854912 0.02389394 -0.03568882
0.03208204 0.028331626 -0.031234657 -0.0007887394 -0.012100702 0.0068413843 -0.007783081 0.023362676
0.013811623 -0.026307868 0.009757132 0.03752615 -0.0034883819 0.030224578 -0.006105826 -0.015796527
-0.025367714 -0.03514255 0.0153111955 0.007841793 0.006137807 -0.011449062 0.03374082 -0.03047626
0.0016438614 0.026576733 0.028218437 0.030153435 -0.028579088 0.0071071484 0.010352281 0.02410391
-0.037051287 -0.037351467 -0.021113839 0.036351293 -0.021320377 0.023110652 -0.03231597 -0.0062483354
-0.041343726 -0.010913008 -0.04128506
00000000: e0f2 0dbd 3eca c03c 68d7 ee3c 9daf 9b3c
00000010: 7d03 16bd 24e4 29bb 7ba7 e2bc 31cc 15bd
00000020: f5c0 06bd 1ac4 9dbc bea2 2c3c b9d6 273d
00000030: d5a6 0dbd 55c1 723c 835c 273c 92c7 cc3c
00000040: 4f21 573c 5ac4 fe3c 92b8 6e3c c8da e83c
00000050: b707 d93c 5e5d 773b 8468 80bb 259c 373a
00000060: 424c bc3c 27b2 053d f80b da3c ba75 5a3c
00000070: 5f3f 2a3d b6ff 623c 39bd c33c 712e 12bd
00000080: 7568 033d ba17 e83c d3df ffbc 68c3 4eba
00000090: 0642 46bc b12d e03b 3709 ffbb 1563 bf3c
000000a0: 254a 623c 9983 d7bc 61dc 1f3c 05b5 193d
000000b0: 569d 64bb 8999 f73c 6113 c8bb b867 81bc
000000c0: f4cf cfbc a2f1 0fbd cfdb 7a3c dd7a 003c
000000d0: a81f c93b d994 3bbc d033 0a3d 5aa9 f9bc
000000e0: d676 d73a 73b7 d93c 5a2a e73c 5604 f73c
000000f0: b11e eabc 15e3 e83b 9d9c 293c 9075 c53c
00000100: 17c3 17bd dafd 18bd eef6 acbc 18e5 143d
00000110: 12a8 aebc 8d52 bd3c c05d 04bd d6be ccbb
00000120: 0a58 29bd 79cc 32bc 861a 29bd

layer2.weight f4 [75, 75]
5.713428 2.2219326 0.026453605 0.050262105 0.111576274 -0.08159074 0.8885162 0.1679778
-0.016963026 0.04732126 0.040605597 -0.4540219 -0.05942585 0.005652304 0.20754054 0.2533904
2.7681391 0.011130643 0.026908152 -0.33975112 0.019914066 1.1609113 5.4273787 0.15927625
-0.04512523 -0.0017935929 0.037716247 0.18609266 -1.9612397 0.023826288 3.3379297 0.06275006
0.09227645 -0.4710247 0.023779085 0.35882753 -0.010798223 0.20859456 0.00790043 0.00082949124
0.013874958 0.51434 0.027258588 -0.03747346 23.033766 0.06537519 -0.3621066 1.8411319
0.057196803 -0.05050445 0.005497948 -0.0043949876 0.8400838 0.5850575 -0.034171414 0.032629117
-0.0052291327 -0.4034701 -0.119640686 -0.012564697 -0.042717688 1.572287 0.8746122 -0.5583267
0.25145453 3.1894524 0.06817033 -0.05376911 0.22117995 -0.054069743 0.58892286 0.10740408
-0.05947712 -0.033508543 0.398662 0.23030329 -0.78655374 -0.054063864 -0.01610285 -0.014882817
-0.028714722 0.32693845 0.2652031 0.032224964 0.026937151 -0.46237737 -0.20106176 -0.0053663664
-0.061713018 -0.2945458 0.1468141 -0.040982403 -0.004306762 -0.008185916 -0.56294584 -0.06150945
0.23553103 -1.9252357 0.23634909 0.059158124 0.13426547 0.03608004 0.09570747 0.5229681
0.03558608 -0.67754835 -0.007078551 0.01146412 -0.89652437 0.003190377 0.077945754 0.00300939
0.12789181 0.008213862 0.050449535 -0.06497271 0.12124304 -0.018812232 0.039413497 0.005972715
0.056194928 -0.15707454 0.053099938 -0.0005729847 -0.032949455 0.044840597 -0.005746746 -0.18001153
0.044174545 0.11052094 -0.012465776 0.023051655 -0.20474643 -0.08997769 0.022936156 0.08135167
0.13522817 0.35983643 -0.8232835 0.21004677 0.119910724 -0.03504654 -0.03613985 0.1033635
0.041909717 0.5051336 0.2410619 -0.048816595 0.035547256 0.1668276 0.0017376209 0.55683357
-0.007169929 0.016826147 0.05596722 0.008861228 0.4057034 0.13554895 0.0016041577 0.02640872
-0.26610705 -0.37758476 -0.002544238 -0.0026563953 -0.21110672 0.17285538 1.1486952 0.032441497
-0.011156299 -0.51891756 0.008180432 0.3798375 1.430898 0.1516504 -0.036120806 0.061042942
0.048047524 0.056812268 -0.8397311 0.012712115 0.87316036 -0.0026461922 0.0014455591 -0.37224394
0.07759794 0.1946598 -0.01578675 0.13112397 0.025955819 -0.0034400602 -0.048324376 0.27222735
-0.05085104 0.0023844482 1.1087931 0.11357071 0.6147184 0.21668664 0.04451952 -0.022117816
0.038314387 -0.034621153 -0.03082387 0.8069837 0.052381076 0.03734241 0.030696081 -0.19655362
-0.04094666 0.05214242 -0.01432145 0.1697486 0.35556296 -0.33106118 0.23838411 0.39066383
0.03005402 -0.025690872 0.14680006 0.010926595 0.4235888 0.14223981 -0.040911753 -0.0019653852
0.20056093 -89.45647 -41.5038 -2.4593148 -3.5408158 -4.9711804 2.6842215 -10.286225
-7.1547294 2.562531 3.3562841 -17.695738 -0.068320855 1.3855103 -5.084904 -13.891358
0.5672609 -27.885946 0.6688964 -4.0777893 -39.24945 -3.7734427 -4.4165726 147.8207
6.9817524 4.7117457 8.451327 0.18582065 -7.175253 100.45703 -1.0801342 -28.909603
00000000: 67d4 b640 2534 0e40 3bb5 d83c a3df 4d3d
00000010: 1a82 e43d 0c19 a7bd cc75 633f 5f02 2c3e
00000020: 0bf6 8abc f0d3 413d 0e52 263d 8f75 e8be
00000030: 8568 73bd f636 b93b 8285 543e 63bc 813e
00000040: 3129 3140 4d5d 363c 7c6e dc3c dcf3 adbe
00000050: d322 a33c be98 943f 16ad ad40 5019 233e
00000060: 3cd5 38bd fe16 ebba 5a7c 1a3d 138f 3e3e
00000070: e709 fbbf 592f c33c a4a0 5540 1a83 803d
00000080: 6ffb bc3d 262a f1be 5bcc c23c 3eb8 b73e
00000090: 08eb 30bc d099 553e ce70 013c 3772 593a
000000a0: cb53 633c c9ab 033f 674d df3c c57d 19bd
000000b0: 2745 b841 6de3 853d 0966 b9be 36aa eb3f
000000c0: 3247 6a3d c1dd 4ebd 2128 b43b d403 90bb
000000d0: bb0f 573f 54c6 153f 53f7 0bbd 1ca6 053d
000000e0: 2559 abbb a293 cebe 2d06 f5bd 29dc 4dbc
000000f0: bef8 2ebd b340 c93f 96e6 5f3f 80ee 0ebf
00000100: a6be 803e fd1f 4c40 e39c 8b3d 003d 5cbd
00000110: ff7c 623e 3c78 5dbd a6c3 163f acf6 db3d
00000120: 489e 73bd 4140 09bd 6d1d cc3e a0d4 6b3e
00000130: 965b 49bf 1272 5dbd 20ea 83bc 0fd7 73bc
00000140: 233b ebbc 7a64 a73e b3c8 873e 53fe 033d
00000150: 4dab dc3c babc ecbe 22e3 4dbe 58d8 afbb
00000160: cac6 7cbd b5ce 96be 6f56 163e 2add 27bd
00000170: bd1f 8dbb 381e 06bc 381d 10bf 55f1 7bbd
00000180: 0c2f 713e 206e f6bf 7f05 723e ca4f 723d
00000190: e37c 093e aac8 133d 4702 c43d 3de1 053f
000001a0: b6c2 113d cf73 2dbf 31f3 e7bb 01d4 3b3c
000001b0: 9f82 65bf a515 513b 06a2 9f3d 3039 453b
000001c0: 12f6 023e 6f93 063c 2ca4 4e3d 6a10 85bd
000001d0: 454e f83d 1c1c 9abc 0c70 213d c4b6 c33b
000001e0: a72c 663d 26d8 20be 527f 593d 5a34 16ba
000001f0: 02f6 06bd c6aa 373d 334f bcbb f154 38be
00000200: 5ef0 343d cd58 e23d 413d 4cbc d3d6 bc3c
00000210: 0ca9 51be 3946 b8bd 9be4 bb3c b49b a63d
00000220: 4179 0a3e 7b3c b83e b5c2 52bf 8016 573e
00000230: c193 f53d f68c 0fbd 6107 14bd 3eb0 d33d
00000240: 86a9 2b3d 7050 013f eed8 763e e9f3 47bd
00000250: 009a 113d dbd4 2a3e e2c0 e33a a58c 0e3f
00000260: b9f1 eabb fdd6 893c e23d 653d af2e 113c
00000270: 5bb8 cf3e 58cd 0a3e 9a42 d23a 1a57 d83c
00000280: 2f3f 88be ca52 c1be 3bbd 26bb eb16 2ebb
00000290: 5c2c 58be 0001 313e 7208 933f 60e1 043d
000002a0: e9c8 36bc c8d7 04bf 3807 063c 107a c23e
000002b0: aa27 b73f 3e4a 1b3e 69f3 13bd 2a08 7a3d
000002c0: 7bcd 443d fbb3 683d 9ef8 56bf 7a46 503c
000002d0: 7087 5f3f bd6b 2dbb ea78 bd3a c296 bebe
000002e0: abeb 9e3d e654 473e 3753 81bc 5d45 063e
000002f0: 4ca1 d43c a272 61bb c8ef 45bd 6261 8b3e
00000300: 2e49 50bd 6744 1c3b efec 8d3f c397 e83d
00000310: 2f5e 1d3f 1ae3 5d3e 1a5a 363d 6c30 b5bc
00000320: 8cef 1c3d e9ce 0dbd 5782 fcbc 7c96 4e3f
00000330: 8a8d 563d 5bf4 183d 5976 fb3c 5a45 49be
00000340: afb7 27bd 4a93 553d 84a4 6abc 94d2 2d3e
00000350: 590c b63e da80 a9be f71a 743e 1705 c83e
00000360: d933 f63c aa75 d2bc c152 163e 7605 333c
00000370: a2e0 d83e 50a7 113e 1593 27bd b1cd 00bb
00000380: d85f 4d3e b6e9 b2c2 e403 26c2 6a65 1dc0
00000390: ba9c 62c0 e913 9fc0 49ca 2b40 6194 24c1
000003a0: 8bf3 e4c0 8200 2440 5ccd 5640 df90 8dc1
000003b0: ceeb 8bbd 6758 b13f 89b7 a2c0 0143 5ec1
000003c0: 0338 113f 6b16 dfc1 cb3c 2b3f 407d 82c0
000003d0: 70ff 1cc2 1680 71c0 9054 8dc0 19d2 1343
000003e0: 846a df40 9fc6 9640 a338 0741 c547 3e3e
000003f0: ac9b e5c0 00ea c842 d641 8abf de46 e7c1

layer2.bias f4 [75]
-0.023680875 0.0050973906 -0.065238856 -10.128274 -0.40260136 -0.032399554 -0.3452235 -0.26069626
-0.22233374 0.16137134 0.0153975645 -0.16292521 -0.62721336 -0.07079796 -0.29369372 -0.21202402
-0.37760788 -0.5298237 49.875076 0.010964566 0.37903094 -0.40338832 0.015668709 -0.021174913
0.7415653 -0.38776055 0.0668222 -0.06006843 -0.1350716 -0.0228033 -0.30976018 -0.32871544
-0.176999 -0.0843916 -0.11065052 0.027262501 -0.078511566 -0.077782676 0.039896674 -0.02716128
-0.36546144 0.039301585 0.4790132 -0.13217577 0.51779383 0.06251847 -0.022424396 0.008088888
-0.037051044 -0.18917058 0.3934562 -0.21472996 0.11450373 -0.025129417 -0.1930683 -0.1465246
-0.7117111 0.19995163 0.41894212 -0.23481938 0.040375773 0.0065875812 -0.1364932 0.13715862
-0.20209165 -0.12895654 0.010333864 -0.32985392 -0.017840896 -0.42344406 -0.2287308 1.0868626
-0.17565012 -0.17024863 -0.06363992
00000000: 65fe c1bc 0308 a73b f39b 85bd 690d 22c1
00000010: c421 cebe 65b5 04bd 22c1 b0be fb79 85be
00000020: 75ab 63be 873e 253e 1146 7c3c ded5 26be
00000030: 0e91 20bf 85fe 90bd 065f 96be d31c 59be
00000040: d255 c1be 87a2 07bf 1480 4742 b9a4 333c
00000050: 5810 c23e ea88 cebe aa5b 803c 0377 adbc
00000060: 39d7 3d3f 8d88 c6be 14da 883d 500a 76bd
00000070: 3650 0abe fccd babc e398 9ebe 644d a8be
00000080: 3a3f 35be 81d5 acbd bd9c e2bd 9c55 df3c
00000090: acca a0bd 864c 9fbd b26a 233d 5581 debc
000000a0: c31d bbbe b3fa 203d 3841 f53e 1659 07be
000000b0: 238e 043f af09 803d 5eb3 b7bc 4187 043c
000000c0: d6c2 17bd efb5 41be 1773 c93e 2ce2 5bbe
000000d0: ee80 ea3d 35dc cdbc b2b3 45be 8b0a 16be
000000e0: b332 36bf 1fc0 4c3e 957f d63e 7e74 70be
000000f0: 1161 253d a3dc d73b e0c4 0bbe 4f73 0c3e
00000100: 1df1 4ebe 2f0d 04be 5e4f 293c 9de2 a8be
00000110: 1227 92bc a9cd d8be 6838 6abe 501e 8b3f
00000120: a0dd 33be a855 2ebe a555 82bd

layer3.weight f4 [75, 75]
0.01660756 0.067528866 0.017619979 0.26952857 -0.25639212 0.17085613 -0.28074047 -0.3129405
-0.1355314 -0.048682023 -0.16142705 -0.09709567 0.09559542 -0.52106404 -0.14160347 0.67266214
0.17127346 -0.11373831 -0.19454885 -0.15995309 -0.4780902 0.24527638 -0.7303013 0.5612682
0.6123046 0.20381773 -0.01674226 -0.097012326 0.052626636 0.028604906 0.047252323 -0.1317961
-0.0030556116 -0.20651972 -0.08385853 -0.1993016 -0.0690324 -0.083081834 -0.014054181 0.067023136
-0.048990432 0.042671893 -0.10937955 0.0850559 0.3411014 -0.069106795 -0.07580258 0.0663678
-0.11758834 0.1986005 0.22881676 -0.09271684 0.027239125 0.12938176 0.29373646 -0.090736955
-0.5133614 0.27004778 -0.006850432 -0.07650364 -0.020996088 0.009096096 0.086592376 0.049989905
-0.050680853 0.022596871 0.23677216 -0.6107778 -0.0684343 0.17918491 0.12207269 0.07887572
0.08054211 0.11059692 0.19411054 -0.73322725 -0.5124042 -0.014097094 1.9794124 0.13786303
0.011467618 -1.0820512 -0.87399185 -0.3923478 -0.16964124 0.14799349 -0.34866717 1.1580056
-0.8051107 -0.72480065 -0.15952139 1.0624855 -1.5869514 -0.04561451 0.318556 -0.20144324
0.25737008 2.1428344 -3.315881 0.32961217 0.38323197 -0.2249707 0.84999233 -0.37490118
-0.8676658 -3.4402242 0.20940433 -0.2037156 -0.2550508 -0.05450696 -0.30632856 0.032856666
3.2899382 0.6584427 0.60296744 -0.68851316 -0.016570179 -1.6414893 1.0688249 1.1376017
3.0027647 0.24721529 0.40027782 0.3772756 0.47534558 0.4409685 2.4081714 -2.4550655
0.0036284598 -1.4435257 0.47519884 -2.1213682 2.4756122 -0.8720663 -0.14248042 -0.3909901
0.35893768 -0.5213721 -0.4852206 -0.1945529 0.7871483 -0.051437035 -2.311718 0.57739747
3.3312547 0.41571715 5.233732 0.2557242 0.64676803 0.304814 0.3441388 0.355229
0.5846396 1.0371411 -0.098229766 -0.039437614 -0.8652893 -0.08809971 0.6035622 0.9064952
-0.09469852 0.042377222 -0.54115885 -1.1831481 -0.62578386 0.6527114 0.20307897 0.6390487
-0.048554033 -0.06371809 -0.3086294 -0.08986776 -0.5372159 -1.0563221 1.3465136 -0.0642973
-0.6270094 -0.09917729 0.21598503 1.0010484 -1.0910774 0.027172323 -0.8363735 0.1629006
0.19560681 -2.2640104e-06 0.096841015 -0.0247708 -0.057431404 -0.10699458 -0.7660481 -0.16957815
-0.35216728 -0.8706785 1.8337417 -0.5385639 -0.17221265 -0.19001049 -0.044451483 0.78297246
1.2916799 -0.8255688 -0.26711887 -0.15750116 -0.44585434 0.113813035 -0.6626118 0.18708272
0.5201548 0.004207645 0.086134635 0.032278556 -0.20781146 -0.34196365 0.1824079 0.09929097
-0.11061196 -0.5856937 -0.11939893 0.50387317 0.013256322 0.3419977 0.10884382 -0.5392659
0.24074046 -0.20186763 -0.19550774 0.22113293 -0.031246463 0.1110148 0.14448963 -0.0047787363
0.08980057 0.08421157 -0.075512916 -0.03453241 0.08313806 0.55627716 -0.16313952 0.05513274
0.012672004 0.31269753 0.16400483 -0.8983633 0.30061573 0.47777727 -0.077399746 -0.18413274
-0.02309792 1.8394992 0.07923038 -0.0135144405 0.12562323 0.28539366 -0.009777731 -0.22469656
00000000: 940c 883c 934c 8a3d c657 903c a6ff 893e
00000010: d445 83be e9f4 2e3e 37bd 8fbe bd39 a0be
00000020: bec8 0abe cd66 47bd 224d 25be 18da c6bd
00000030: 88c7 c33d 7464 05bf 8000 11be 9633 2c3f
00000040: 4f62 2f3e a2ef e8bd d037 47be beca 23be
00000050: 3dc8 f4be bb29 7b3e 07f5 3abf 46af 0f3f
00000060: ffbf 1c3f 98b5 503e 1027 89bc 66ae c6bd
00000070: 078f 573d d654 ea3c a78b 413d 8ff5 06be
00000080: a840 48bb e879 53be 05be abbd b815 4cbe
00000090: dc60 8dbd cf26 aabd 8243 66bc 6d43 893d
000000a0: 31aa 48bd b9c8 2e3d 6302 e0bd ca31 ae3d
000000b0: d8a4 ae3e dd87 8dbd 623e 9bbd d7eb 873d
000000c0: 28d2 f0bd ee5d 4b3e f14e 6a3e 54e2 bdbd
000000d0: 9624 df3c a77c 043e a064 963e 4cd4 b9bd
000000e0: a76b 03bf b443 8a3e 9779 e0bb f1ad 9cbd
000000f0: fdff abbc cb07 153c 5857 b13d 37c2 4c3d
00000100: ba96 4fbd 131d b93c 6774 723e ef5b 1cbf
00000110: 4827 8cbd 407c 373e 3f01 fa3d 9889 a13d
00000120: 43f3 a43d a380 e23d eac4 463e c8b4 3bbf
00000130: ec2c 03bf 7ff7 66bc 635d fd3f f72b 0d3e
00000140: ade2 3b3c a780 8abf eebd 5fbf d0e1 c8be
00000150: 6fb6 2dbe 9b8b 173e 8184 b2be 8739 943f
00000160: bc1b 4ebf 898c 39bf 9359 23be 86ff 873f
00000170: 3921 cbbf 48d6 3abd c619 a33e 2347 4ebe
00000180: 03c6 833e 3324 0940 6537 54c0 edc2 a83e
00000190: fb36 c43e b85e 66be 1999 593f 0cf3 bfbe
000001a0: 591f 5ebf a22c 5cc0 176e 563e d29a 50be
000001b0: 0596 82be b142 5fbd 19d7 9cbe b694 063d
000001c0: 598e 5240 b38f 283f 135c 1a3f 6642 30bf
000001d0: 2fbe 87bc 521c d2bf 41cf 883f ef9c 913f
000001e0: 4c2d 4040 0126 7d3e 37f1 cc3e 442a c13e
000001f0: 7f60 f33e a0c6 e13e 7b1f 1a40 cb1f 1dc0
00000200: 74cb 6d3b 73c5 b8bf 434d f33e 7fc4 07c0
00000210: 6e70 1e40 bd3f 5fbf 63e6 11be db2f c8be
00000220: aec6 b73e a478 05bf d66e f8be e038 47be
00000230: 8d82 493f a4af 52bd 30f3 13c0 52d0 133f
00000240: 4733 5540 e1d8 d43e bc7a a740 48ee 823e
00000250: 9792 253f 9510 9c3e f632 b03e 93e0 b53e
00000260: f1aa 153f 0ac1 843f b02c c9bd 5689 21bd
00000270: 9983 5dbf 9f6d b4bd 0d83 1a3f 1210 683f
00000280: 4cf1 c1bd bd93 2d3d 6389 0abf 6671 97bf
00000290: 5f33 20bf 1818 273f eff3 4f3e b298 233f
000002a0: 98e0 46bd a17e 82bd ac04 9ebe 970c b8bd
000002b0: fb86 09bf 9035 87bf 8f5a ac3f 4eae 83bd
000002c0: b083 20bf 771d cbbd 2e2b 5d3e 5b22 803f
000002d0: 6da8 8bbf 7e98 de3c 931c 56bf 6acf 263e
000002e0: 274d 483e 67ef 17b6 9554 c63d 22ec cabc
000002f0: 313d 6bbd f91f dbbd ba1b 44bf e5a5 2dbe
00000300: 454f b4be c9e4 5ebf 0cb8 ea3f 53df 09bf
00000310: 8358 30be 1c92 42be c212 36bd e270 483f
00000320: c455 a53f 7a58 53bf cec3 88be fc47 21be
00000330: 0547 e4be cf16 e93d eda0 29bf 9d92 3f3e
00000340: dd28 053f 49e0 893b 5b67 b03d 8536 043d
00000350: 87cc 54be dc15 afbe 23c9 3a3e 1059 cb3d
00000360: 8688 e2bd 06f0 15bf 6d87 f4bd d5fd 003f
00000370: 0b31 593c 531a af3e 82e9 de3d 540d 0abf
00000380: ab84 763e 63b6 4ebe 2e33 48be ac70 623e
00000390: 95f8 ffbc ba5b e33d 17f5 133e f296 9cbb
000003a0: 5ce9 b73d 1e77 ac3d 84a6 9abd db71 0dbd
000003b0: 4a44 aa3d 2e68 0e3f 0c0e 27be ded2 613d
000003c0: 3d9e 4f3c e419 a03e e2f0 273e 23fb 65bf
000003d0: 4eea 993e 399f f43e c283 9ebd 4b8d 3cbe
000003e0: d937 bdbc b674 eb3f 8a43 a23d ac6b 5dbc
000003f0: 60a3 003e 1e1f 923e c732 20bc db16 66be

layer3.bias f4 [75]
-0.081256285 0.029011011 -0.00054593786 0.02355851 0.210855 0.12723598 -0.13204418 0.028697167
0.027491024 -0.069667116 -0.101457715 -0.27875838 -0.03737123 -0.037844077 -0.005590072 -0.060127996
0.057907555 -0.058270454 -0.050977804 -0.11640436 -0.028987035 -0.15891084 -0.04566226 -0.018190894
-0.028107475 0.050983436 -0.09274956 0.120420344 0.030773913 -0.021363646 0.028045593 -0.17025934
-0.10051514 0.16991594 0.049529888 0.1512 -4.799199 0.08106736 0.2197224 0.040422425
0.093902245 0.017835796 0.056283273 0.06431773 -0.032698356 0.06870472 -0.02654656 0.025464268
-0.14665398 -0.0069544776 0.08063498 -0.14872539 0.0011695665 -0.13031942 -0.6395184 0.006223555
0.38379836 -0.00493513 0.01621226 -0.073972374 -0.14031512 0.036722634 -0.00750345 0.050887845
0.05133934 -0.15088223 -0.018758655 0.2640218 -0.124607556 -0.021988884 -0.16555016 0.15171203
0.0055518304 -0.08222067 -0.052153572
00000000: b269 a6bd 80a8 ed3c 451d 0fba c7fd c03c
00000010: 60ea 573e 264a 023e 9736 07be 5216 eb3c
00000020: db34 e13c a2ad 8ebd 10c9 cfbd 6bb9 8ebe
00000030: 9312 19bd 6402 1bbd ec2c b7bb c648 76bd
00000040: 7930 6d3d 00ad 6ebd 1ace 50bd 6965 eebd
00000050: 3876 edbc 86b9 22be 5a08 3bbd 1205 95bc
00000060: a641 e6bc 02d4 503d 7bf3 bdbd f19e f63d
00000070: 9319 fc3c d002 afbc dfbf e53c 7758 2ebe
00000080: e2da cdbd 72fe 2d3e dadf 4a3d 2cd4 1a3e
00000090: 0a93 99c0 a506 a63d e9fe 603e fc91 253d
000000a0: d24f c03d 601c 923c 4a89 663d 04b9 833d
000000b0: b6ee 05bd 0fb5 8c3d 2c78 d9bc 719a d03c
000000c0: 762c 16be 63e2 e3bb f423 a53d 784b 18be
000000d0: 244c 993a 7472 05be 7ab7 23bf f7ee cb3b
000000e0: 3881 c43e dfb6 a1bb 93cf 843c d47e 97bd
000000f0: c4ae 0fbe 796a 163d 80df f5bb c66f 503d
00000100: 3349 523d df80 1abe c0ab 99bc de2d 873e
00000110: 3f32 ffbd 0822 b4bc fb85 29be 665a 1b3e
00000120: 21ec b53b 5063 a8bd fc9e 55bd

layer4.weight f4 [75, 75]
0.296564 9.948246 1.8477107 -0.4569066 1.8357177 -0.6942283 -0.46739876 1.7739816
0.9848556 3.102044 1.0747926 -5.561433 3.2110863 1.0592183 2.6386614 0.54256827
-0.0016881567 0.5428635 -6.2513046 0.87223107 18.20251 0.5311323 0.030042898 0.6777736
-0.6235492 4.5219812 0.42089286 -5.370499 -1.9094857 7.360735 0.14714552 5.4452744
-1.1962115 0.8064431 1.2748195 6.326707 3.3594978 -0.11698122 7.9436393 0.58442575
-0.283983 -0.68121225 -9.889398 0.14613037 7.563952 1.709885 2.6770794 1.4638829
8.67133 -0.1529664 0.011341027 -1.1807559 -0.9748512 2.428695 0.82643974 -0.24225518
-4.9742928 0.40561748 -0.24551566 0.73001814 0.41166714 0.18971013 -1.8036417 -4.881673
2.4852467 -4.1397085 -1.2937915 0.06566704 -2.3058996 0.28613898 -2.284699 3.0485554
1.1834055 -0.05108474 0.23809737 0.0816276 -0.28771126 -0.377363 0.0142850485 -0.09777874
0.1827139 0.121650934 0.28511 0.15561599 0.07287461 -0.06788338 1.263738 0.027134333
0.05140066 -0.035168197 0.2588245 0.0047207386 0.057369307 0.19283614 0.01361506 -0.59186804
0.013493986 0.026858952 -0.19677769 0.2618717 0.07882248 0.070755504 0.026253903 0.2608042
-0.49138105 0.10058588 0.3281999 0.04355046 -0.20675272 0.3921906 0.33975744 0.30231798
-0.25689167 -0.5452311 0.0033357395 -0.0012961772 0.05932202 0.19168405 -0.1258158 0.114294626
-0.0038852138 0.050057016 0.013209813 -1.0809461 0.020775957 0.09960703 -0.22766888 0.006246097
0.12113372 0.010631693 0.0029847042 -0.58421016 0.12446663 -0.019398473 0.14350772 -0.016001012
-0.03807184 0.17215809 0.043318104 -0.18451732 0.20913424 -0.121111706 -0.121289976 0.14797704
0.061948325 0.20415361 -0.0657611 0.097784355 0.012428727 -0.08616444 -0.2337792 -0.3387199
-0.10564115 -0.0812394 -0.011143374 -0.24630345 0.07878671 -0.08781506 -0.048660845 -0.015345265
0.12787916 -0.82553875 -0.25110564 -0.031799506 -0.1375571 -0.04747472 0.025648478 -0.10434236
-0.55206865 -0.087434456 0.19035687 -0.14495642 -0.12449267 -0.22461243 -0.013190425 0.30864686
-0.10159737 0.1872475 0.15086332 0.13883224 -0.0920341 -0.029077264 -0.123038895 0.025674528
-0.24320525 0.7693531 -0.12622324 0.06679938 -0.76251936 0.08722182 -0.12271503 0.062376376
0.55881876 0.033062387 0.05110581 -0.19003761 0.3160698 -0.055573676 0.6352751 -0.1882112
-0.27472016 0.0044177044 -0.052716497 -0.14896224 -0.31055418 -0.24237296 1.7441164 -0.53115016
-0.14642459 -0.059968907 0.13759774 -0.19444056 0.16760515 0.054625925 0.081473835 0.064395696
0.018541537 0.15773037 -0.024092657 -0.21918233 -0.06204428 -0.21996967 -0.16935852 -0.09442202
-0.02984341 -0.088768594 -0.18897286 0.08691283 -0.075649545 0.038102135 -0.11401387 0.052222047
-0.077194415 0.025177868 -0.016146118 0.10442314 -1.3078384 0.103608094 0.046730127 0.036034066
-0.27266425 0.09839075 0.12545298 -0.44701332 0.005617029 0.9405711 0.03271096 0.023279702
-0.09138562 0.063082255 -0.31617963 0.2346271 0.08379229 0.015795326 0.26675642 0.11966316
00000000: 3dd7 973e 042c 1f41 c981 ec3f a9ef e9be
00000010: ccf8 ea3f f2b8 31bf e44e efbe d411 e33f
00000020: 7f1f 7c3f e487 4640 ce92 893f 42f7 b1c0
00000030: 7082 4d40 7794 873f d4df 2840 c1e5 0a3f
00000040: 2445 ddba 1af9 0a3f b00a c8c0 894a 5f3f
00000050: be9e 9141 49f8 073f 861c f63c 9282 2d3f
00000060: eca0 1fbf 12b4 9040 457f d73e 21db abc0
00000070: 076a f4bf 248b eb40 51ad 163e b03f ae40
00000080: 751d 99bf 0e73 4e3f 492d a33f 6274 ca40
00000090: 0302 5740 da93 efbd 4b32 fe40 ed9c 153f
000000a0: 3866 91be ed63 2ebf f93a 1ec1 33a3 153e
000000b0: e50b f240 83dd da3f 4555 2b40 8460 bb3f
000000c0: c5bd 0a41 39a3 1cbe b7cf 393c 0223 97bf
000000d0: d98f 79bf bd6f 1b40 8e91 533f be11 78be
000000e0: 682d 9fc0 18ad cf3e 7568 7bbe 78e2 3a3f
000000f0: 09c6 d23e 5f43 423e bbdd e6bf aa36 9cc0
00000100: 480e 1f40 7e78 84c0 f69a a5bf 717c 863d
00000110: dc93 13c0 cf80 923e 8238 12c0 881b 4340
00000120: d579 973f 3b3e 51bd cccf 733e 5f2c a73d
00000130: e44e 93be b935 c1be d60b 6a3c 3840 c8bd
00000140: 5a19 3b3e 2024 f93d f0f9 913e cc59 1f3e
00000150: 493f 953d 7106 8bbd 2bc2 a13f d248 de3c
00000160: 8089 523d 870c 10bd a584 843e 6db0 9a3b
00000170: 14fc 6a3d d676 453e b311 5f3c aa84 17bf
00000180: e115 5d3c 4e07 dc3c 1780 49be 0c14 863e
00000190: ae6d a13d 43e8 903d 6d12 d73c 2188 853e
000001a0: 4c96 fbbe f8ff cd3d d109 a83e f861 323d
000001b0: fcb6 53be 35cd c83e b0f4 ad3e 6cc9 9a3e
000001c0: 4e87 83be 4494 0bbf 6c9c 5a3b 7de4 a9ba
000001d0: a5fb 723d d348 443e dbd5 00be 4d13 ea3d
000001e0: 129f 7ebb 9608 4d3d f96d 583c 715c 8abf
000001f0: 5732 aa3c c5fe cb3d 0822 69be 0fac cc3b
00000200: f514 f83d 8d30 2e3c 079b 433b cc8e 15bf
00000210: 5ce8 fe3d 8ce9 9ebc b0f3 123e 8e14 83bc
00000220: 38f1 1bbd 364a 303e 536e 313d 1cf2 3cbe
00000230: 4927 563e 6a09 f8bd e166 f8bd 4b87 173e
00000240: 87bd 7d3d a50d 513e c1ad 86bd 2a43 c83d
00000250: dca1 4b3c fb76 b0bd d163 6fbe b26c adbe
00000260: 635a d8bd d860 a6bd b392 36bc f936 7cbe
00000270: ed5a a13d 62d8 b3bd 9850 47bd b56a 7bbc
00000280: c1f2 023e 8256 53bf eb90 80be 3340 02bd
00000290: c5db 0cbe da74 42bd c21c d23c 72b1 d5bd
000002a0: 5f54 0dbf d610 b3bd e9ec 423e 756f 14be
000002b0: 03f6 febd cd00 66be a71c 58bc f606 9e3e
000002c0: 4812 d0bd cfbd 3f3e ea7b 1a3e 0a2a 0e3e
000002d0: 607c bcbd 7133 eebc d1fb fbbd 6353 d23c
000002e0: cc0a 79be 53f4 443f aa40 01be 1dce 883d
000002f0: 7834 43bf 5ba1 b23d 0552 fbbd 5f7e 7f3d
00000300: bf0e 0f3f 6d6c 073d 5354 513d 3899 42be
00000310: e7d3 a13e 39a1 63bd 64a1 223f 70ba 40be
00000320: 1fa8 8cbe 64c2 903b 41ed 57bd 8f89 18be
00000330: f500 9fbe 9e30 78be 353f df3f 75f9 07bf
00000340: 54f0 15be f5a1 75bd 6ce6 0c3e 6d1b 47be
00000350: afa0 2b3e 6fbf 5f3d c1db a63d e4e1 833d
00000360: 6ce4 973c 1284 213e f75d c5bc 5571 60be
00000370: 2522 7ebd bb3f 61be 526c 2dbe 5560 c1bd
00000380: 2b7a f4bc 4fcc b5bd 1a82 41be 5bff b13d
00000390: 26ee 9abd fc10 1c3d 1b80 e9bd c9e6 553d
000003a0: 1b18 9ebd d141 ce3c dd44 84bc cddb d53d
000003b0: 4067 a7bf 7b30 d43d 1768 3f3d 7598 133d
000003c0: a69a 8bbe 1781 c93d bf76 003e eede e4be
000003d0: 0e0f b83b 45c9 703f edfb 053d 13b5 be3c
000003e0: 6228 bbbd 4531 813d 4ce2 a1be 1642 703e
000003f0: 4b9b ab3d 3365 813c 4c94 883e f511 f53d

layer4.bias f4 [75]
0.7813251 0.04940387 0.0024615775 -0.037030198 -0.050354455 0.21696849 -0.30007952 0.29561707
-0.18673022 0.25699958 -0.37231666 0.023522325 -0.33073995 -0.31517744 -0.3454392 -0.05329966
2.947208 -0.1536415 0.137233 0.00071361585 -0.17878851 -0.34885347 -0.100196026 -0.22884832
-0.07686068 0.083820894 0.029680206 0.10164837 -0.63252157 -0.19599545 0.08484825 -0.18191376
-0.06400554 -0.06769184 0.035690784 -0.08669094 -0.14580624 0.1527266 -0.03978777 -0.0460756
-0.12504704 0.3267416 -0.18226571 -0.0031816608 0.11782231 0.05853104 -0.81831944 0.012142776
-0.3891599 -0.052866314 1.101873 -0.04535236 0.019819524 -0.12901473 -0.034871187 0.008808261
-0.13632709 -0.071247965 0.0060652723 0.128968 -0.003541026 -0.029003613 -0.041742146 -0.07515062
0.16190052 -0.010534392 -0.08183434 0.097692356 -0.15764512 0.061672553 -0.011367281 0.122715
0.12760675 1.5735973 -2.3461175
00000000: ec04 483f b65b 4a3d 6b52 213b faac 17bd
00000010: 7940 4ebd fd2c 5e3e 06a4 99be 1f5b 973e
00000020: 3536 3fbe 7395 833e 4aa0 bebe e4b1 c03c
00000030: bf56 a9be f05e a1be 68dd b0be bf50 5abd
00000040: 0e9f 3c40 3354 1dbe cf86 0c3e f311 3b3a
00000050: 5614 37be ec9c b2be 9333 cdbd 3757 6abe
00000060: 2269 9dbd 4aaa ab3d e723 f33c 052d d03d
00000070: efec 21bf 08b3 48be ebc4 ad3d 9a47 3abe
00000080: 5615 83bd 05a2 8abd 8030 123d 058b b1bd
00000090: 3b4e 15be 5d64 1c3e 80f8 22bd c5b9 3cbd
000000a0: 550c 00be ad4a a73e dda3 3abe 6983 50bb
000000b0: d34c f13d 3ebe 6f3d 627d 51bf 7ef2 463c
000000c0: f73f c7be 598a 58bd 2d0a 8d3f 65c3 39bd
000000d0: 8e5c a23c 701c 04be 17d5 0ebd 8650 103c
000000e0: 5499 0bbe 74ea 91bd 31bf c63b 3010 043e
000000f0: 8f10 68bb fc98 edbc d0f9 2abd 91e8 99bd
00000100: 40c9 253e 7198 2cbc c398 a7bd ee12 c83d
00000110: b96d 21be 5c9c 7c3d d53d 3abc 0052 fb3d
00000120: 58ab 023e a36b c93f ca26 16c0

layer5.weight f4 [75, 75]
-0.22683069 0.10096472 -0.019317761 -0.064726874 0.0012210058 -0.12652804 0.11410474 0.01440862
-0.025675653 -0.11741176 0.069958225 -0.03630108 0.10732617 -0.01590361 0.078845724 -0.04334352
0.048843943 0.031119075 0.0669199 0.12707855 -0.21931879 -0.07578313 -0.19628534 0.02417338
0.01934059 0.10137444 -0.10805683 0.015359234 0.02339378 -0.410802 -0.1290275 0.08788455
-0.030234817 0.11987896 -0.08058564 -0.09516015 -0.05383506 -0.08098084 -0.011441092 0.024506437
0.10150618 -0.021353852 -0.23107018 0.022420263 0.08067595 -0.27392757 0.21779574 0.08815411
-0.030170321 -0.17793247 0.06114992 0.0261443 -0.2178501 -0.12655954 -0.0382543 -0.15423429
0.30503315 0.13692111 -0.041851282 -0.0036825533 0.022067517 -0.1492187 -0.28788322 -0.07900665
0.017646747 -0.00044294627 -0.06039792 -0.069007285 -0.16320288 0.018659716 0.030240389 -0.15754168
-0.07435549 -0.026813071 0.015926663 -0.22386405 0.2646672 0.071838275 0.042396426 0.22202954
0.055578273 0.120242365 0.04685636 -0.07846691 -0.06586374 -0.09418714 0.0037578403 -0.1508116
-0.085978195 0.3180798 0.033187192 0.32854158 0.110950865 -0.01953352 0.18663639 0.0420585
-0.010074097 -0.11210361 0.28396723 0.324818 0.079404615 0.10683495 0.25582537 -0.080700055
-0.3419225 0.03034714 0.16534577 0.016617317 -0.051709067 -0.13405974 0.15258418 -0.094429225
-0.18512344 -0.10009692 0.015649583 0.17377625 0.049990285 -0.06840921 0.048829433 0.13434494
-0.10647538 0.92862177 0.5053606 -0.073914126 -0.07204803 0.17513327 0.03477881 0.026452454
-0.019794613 -0.025651425 0.10741601 0.044259664 0.0005323948 0.13231914 -0.13658828 -0.116660364
0.034954846 0.115951 0.13116674 -0.07815879 0.085074805 0.3667375 -0.03946108 -0.29725417
0.0077075767 -0.11490224 0.016226895 -0.4742494 -0.0068053785 0.29765087 -0.04261668 0.02935728
-0.025797123 0.027581243 -0.005613261 0.045995418 0.07740027 0.018382445 0.24575764 0.14131021
0.009293378 -0.103046626 0.21235889 0.04369463 0.13667394 -0.19782142 0.008544935 -0.07454499
0.08311973 0.032086097 -0.10370779 -0.08925463 0.008864658 0.10639961 -0.012741687 0.028897133
0.1257971 -0.1119242 0.081206076 0.13200706 0.019790435 -0.032670494 -0.0128384875 -0.035239358
-0.014211882 0.010580644 0.0010334505 -0.21234852 0.08952122 0.059855647 -0.093448706 0.03007553
0.097011 -0.036336396 -0.0046804645 0.32025746 -0.38406444 0.0017525109 0.010079624 0.016523633
0.13243745 0.034428414 0.06217292 -0.011117803 -0.011448548 0.042571586 -0.13661739 -0.084059596
0.17025012 -0.038479846 -0.049649283 0.023214355 0.008976935 0.0004433908 -0.01411676 -0.07562801
-0.03649124 0.07508626 0.031674795 -0.093624115 0.08177079 -0.031392034 -0.26381794 0.01920578
-0.22361015 -0.14614117 -0.0084639285 -0.0123888515 -0.07924421 -0.009474196 0.32066023 0.18866302
0.017335718 0.18111607 0.021507539 -0.08241531 -0.0080106445 0.22915757 -0.048485838 0.19277819
-0.42223892 0.08184343 -0.008837588 0.08221558 0.2223349 -0.14391828 0.14104864 0.010965171
0.21063565 0.044215675 0.1305648 0.0724183 -0.11891619 0.091272734 0.22822088 0.02254364
00000000: 4e46 68be 97c6 ce3d 4840 9ebc 868f 84bd
00000010: 280a a03a 9190 01be bfaf e93d 2212 6c3c
00000020: bf55 d2bc 9475 f0bd 4246 8f3d 71b0 14bd
00000030: d3cd db3d 4a48 82bc de79 a13d fa88 31bd
00000040: 9610 483d 6eed fe3c 4d0d 893d e120 023e
00000050: 1b95 60be 3034 9bbd 06ff 48be 4107 c63c
00000060: 2870 9e3c 679d cf3d e64c ddbd 4ca5 7b3c
00000070: 50a4 bf3c a454 d2be c91f 04be d1fc b33d
00000080: 02af f7bc 1a83 f53d 160a a5bd 53e3 c2bd
00000090: 2782 5cbd 48d9 a5bd 6b73 3bbc b9c1 c83c
000000a0: 79e2 cf3d 46ee aebc a99d 6cbe b3aa b73c
000000b0: 6f39 a53d 3c40 8cbe d905 5f3e 248a b43d
000000c0: c027 f7bc ee33 36be 5778 7a3d 922c d63c
000000d0: 1914 5fbe d398 01be 8ab0 1cbd 98ef 1dbe
000000e0: 4e2d 9c3e 0c35 0c3e 406c 2bbd fe56 71bb
000000f0: f0c6 b43c c9cc 18be 6e65 93be 3dce a1bd
00000100: e98f 903c 3e3b e8b9 cf63 77bd b153 8dbd
00000110: a81e 27be 43dc 983c b1ba f73c 9b52 21be
00000120: b147 98bd 16a7 dbbc a278 823c 9e3c 65be
00000130: 7682 873e f21f 933d e0a7 2d3d b65b 633e
00000140: 0ba6 633d a141 f63d 74ec 3f3d 42b3 a0bd
00000150: 92e3 86bd 30e5 c0bd 1946 763b 5b6e 1abe
00000160: 5615 b0bd 5bdb a23e 4bef 073d 9a36 a83e
00000170: 353a e33d c304 a0bc 9c1d 3f3e 8945 2c3d
00000180: d30d 25bc 9496 e5bd 2764 913e 8b4e a63e
00000190: e39e a23d 48cc da3d 8bfb 823e 1246 a5bd
000001a0: 7710 afbe 919a f83c 6750 293e 0a21 883c
000001b0: e3cc 53bd f546 09be 073f 1c3e 1c64 c1bd
000001c0: 0091 3dbe 9dff ccbd 8e33 803c 67f2 313e
000001d0: 9dc2 4c3d 211a 8cbd 5f01 483d b891 093e
000001e0: c40f dabd 28ba 6d3f 505f 013f 4a60 97bd
000001f0: eb8d 93bd 2356 333e 3a74 0e3d d1b2 d83c
00000200: 5028 a2bc f022 d2bc edfc db3d 9f49 353d
00000210: 6990 0b3a ab7e 073e ccdd 0bbe a1eb eebd
00000220: d02c 0f3d b877 ed3d 9350 063e b711 a0bd
00000230: b33b ae3d 05c5 bb3e f1a1 21bd b331 98be
00000240: d78f fc3b de51 ebbd 44ee 843c d1d0 f2be
00000250: a7ff debb b265 983e d48e 2ebd ae7e f03c
00000260: 7d54 d3bc 0ff2 e13c 72ef b7bb b165 3c3d
00000270: 0884 9e3d c896 963c e4a7 7b3e a0b3 103e
00000280: 4143 183c 1c0a d3bd 9c74 593e 24f9 323d
00000290: 41f4 0b3e b391 4abe 0e00 0c3c 0bab 98bd
000002a0: ad3a aa3d b66c 033d c064 d4bd 22cb b6bd
000002b0: 123d 113c 0ae8 d93d 82c2 50bc aeb9 ec3c
000002c0: f4d0 003e 8438 e5bd 5f4f a63d dc2c 073e
000002d0: 8d1f a23c 7fd1 05bd 8558 52bc 2557 10bd
000002e0: f4d8 68bc 705a 2d3c d874 873a e471 59be
000002f0: e756 b73d 322b 753d 0962 bfbd f560 f63c
00000300: b4ad c63d 79d5 14bd 955e 99bb c9f8 a33e
00000310: 18a4 c4be 82b4 e53a 0225 253c 925c 873c
00000320: af9d 073e cf04 0d3d 08a9 7e3d 7227 36bc
00000330: b192 3bbc 8b5f 2e3d 6ee5 0bbe 7027 acbd
00000340: 0c56 2e3e 0b9d 1dbd 0c5d 4bbd 082c be3c
00000350: ff13 133c e876 e839 fc49 67bc dce2 9abd
00000360: d777 15bd d3c6 993d 6ebd 013d 00be bfbd
00000370: 7277 a73d ef94 00bd 2513 87be 7155 9d3c
00000380: 0ffa 64be 08a6 15be 4aac 0abc 9cfa 4abc
00000390: ca4a a2bd a839 1bbc 942d a43e e130 413e
000003a0: a303 8e3c 7e76 393e 9430 b03c 5cc9 a8bd
000003b0: 143f 03bc 48a8 6a3e 1699 46bd a567 453e
000003c0: b32f d8be 879d a73d 88cb 10bc a460 a83d
000003d0: c3ab 633e 505f 13be 0e6f 103e 43a7 333c
000003e0: dfb0 573e 7f1b 353d c7b2 053e 0c50 943d
000003f0: 558a f3bd 33ed ba3d bcb2 693e 71ad b83c

layer5.bias f4 [75]
0.064206086 -0.064603046 -0.021701265 -0.011452729 -0.10842864 -0.09572479 -0.29388168 -0.14043395
0.043247484 -0.1506755 -0.114468165 -0.04036219 -0.1400865 -0.02448399 0.06328959 0.14134096
0.04516839 0.053409208 0.06733942 -0.016830046 0.07678968 -0.084737435 -0.09011805 0.045647703
-0.09724365 -0.260966 0.052916147 -0.18739153 0.042998135 -0.057788815 0.015518496 -0.043932807
0.055358306 0.013322516 0.054540668 -0.053141426 0.026062233 0.11387045 -0.004989953 0.030274346
0.06398875 0.21368223 0.07692857 0.100976944 -0.022896042 0.051100567 0.18281102 0.07911247
-0.009594719 -0.033021715 0.19552211 -0.1865358 0.07215795 -0.17847423 0.046798047 0.12662137
0.008793798 0.031223103 0.05966058 -0.0018707392 -0.11979838 0.12313907 -0.121642485 -0.08391077
-0.058453996 0.05334408 0.16300714 0.15846588 -0.11302653 -0.050448228 0.0651585 -0.0058162794
0.04363932 0.01965398 -0.11300899
00000000: 7b7e 833d 9a4e 84bd dac6 b1bc 3aa4 3bbc
00000010: d60f debd 5c0b c4bd a977 96be ebcd 0fbe
00000020: 4624 313d ae4a 1abe 496e eabd d352 25bd
00000030: d672 0fbe a692 c8bc f99d 813d afbb 103e
00000040: 7d02 393d 9dc3 5a3d 40e9 893d 2adf 89bc
00000050: e843 9d3d d28a adbd d08f b8bd 16f9 3a3d
00000060: ae27 c7bd 569d 85be 9abe 583d 91e3 3fbe
00000070: d01e 303d f7b3 6cbd 4a41 7e3c e3f2 33bd
00000080: 64bf 623d af46 5a3c 0966 5f3d d3aa 59bd
00000090: 7780 d53c e934 e93d c282 a3bb e801 f83c
000000a0: 890c 833d 84cf 5a3e ba8c 9d3d 00cd ce3d
000000b0: 7b90 bbbc d44e 513d d032 3b3e b805 a23d
000000c0: 2b33 1dbc c741 07bd f336 483e 3e03 3fbe
000000d0: 8cc7 933d f3c1 36be 4faf 3f3d 08a9 013e
000000e0: dd13 103c 98c7 ff3c a75e 743d 9733 f5ba
000000f0: da58 f5bd 5630 fc3d b21f f9bd 69d9 abbd
00000100: 756d 6fbd 527f 5a3d 58eb 263e e144 223e
00000110: 747a e7bd cda2 4ebd d271 853d 7d96 bebb
00000120: 25bf 323d 6201 a13c 4271 e7bd

layer6.weight f4 [75, 75]
0.002556595 0.39376175 -0.0053697573 -0.09916468 -0.08631902 -0.28898633 0.97957665 0.23304066
-0.048809208 0.104197025 0.3393185 0.28574428 0.27732912 -0.04735331 0.06929547 -0.016533671
0.14229296 0.09641687 -0.1710727 0.7264704 0.007002489 0.09048173 -0.034870625 0.018398903
0.06839826 -0.055383246 0.09698077 0.6950557 -0.1748241 0.055884093 -0.14538883 -0.1120945
-0.0109512815 0.3098038 -0.19757046 0.34594178 -0.41642118 -0.2735386 0.19730555 0.11058893
0.16370822 0.8078017 -0.18014292 0.07766066 0.22304799 0.10450625 -0.04220184 -0.73638153
0.063187115 -0.16966447 0.10177976 -0.3655095 0.3738006 -0.040710438 0.15110506 -0.021727627
0.13599665 0.05117083 -0.1823851 0.09240543 -0.35376155 -0.009408526 -0.514851 -0.02220615
0.15815857 0.5797786 1.1819676 1.1911608 0.41367793 0.056761213 0.07292224 0.100605406
-0.07973712 0.27227348 0.011466202 -0.15016642 -0.10088382 0.021899993 -0.2051217 0.3268386
0.09280903 0.67573017 0.6047826 0.13558185 -0.33930644 0.6912599 -0.05102131 0.63309216
-0.15274821 -0.12393173 0.271217 -0.18935104 0.41644803 0.18671407 0.85478866 0.015625294
0.08154594 -0.04124472 -0.19931518 -0.14541318 0.2856754 0.137869 1.484179 -1.1758446
-0.13610725 -0.505402 0.23592436 0.16828041 -0.24714889 -0.5423541 -0.1619451 -0.46256775
-0.3884737 -0.46335414 -0.028538806 0.048413213 2.1317635 -0.8157194 0.040122356 0.05252125
-0.35982782 -0.24832666 -0.7320716 -0.5561036 -1.3844109 0.09464089 -1.2674304 -0.41532695
-0.16371624 -0.121350154 -0.42350268 0.7438867 -0.046884477 -0.5501064 -0.035583593 0.38392225
0.053388108 -0.045597844 -0.059117217 0.34691143 0.3486567 1.5669183 1.7093164 2.676075
-0.6459376 -0.07249614 -0.08134333 -0.22044535 0.16054007 -0.09520642 0.18297625 0.2443479
-0.046354625 0.10452309 0.20649453 0.15266106 0.83556706 0.2041717 -0.055602774 0.28569922
0.22099738 0.13658755 0.2125572 -0.09195804 -0.2322142 -0.087337814 0.07692725 -0.107734635
0.14684106 0.60458857 0.062070593 -0.13616848 0.029779708 0.11804418 0.16159262 -0.26218578
-0.067648634 0.67087615 -0.014903539 0.1956868 -0.106560744 -0.16499458 -0.0050626737 0.24057388
-0.033166517 0.49489897 -0.07928043 -0.058985047 -0.11581883 0.048995532 0.05370613 1.002004
0.086566694 -0.04535455 -0.018245256 0.09042163 -0.05641356 -0.6321922 0.37491077 -0.19834703
0.85903645 0.17912127 0.30016893 -0.087130554 0.014814159 -0.15125394 0.07910033 -0.02384863
0.08180635 0.14909543 -0.08090758 -0.19708893 0.09826124 0.06081198 0.1304053 0.4709388
1.6340091 1.6523207 1.6580588 0.3284533 0.034858685 0.29943088 -0.010324019 0.18157299
0.15746585 -0.15735069 -0.27283877 -0.06757775 -0.2561075 0.12123965 0.16914581 0.18285923
0.5972898 -0.07034597 -0.12038518 0.44918928 -0.14463025 0.49275202 0.015915839 0.058410406
-0.02420493 -0.18094847 0.5768366 0.38116956 0.18957701 -0.08655353 -0.09787706 -0.23379134
-0.21700633 -0.13634847 0.08271689 -0.026569251 -0.5120906 -0.013891114 -0.15401752 -0.36074337
00000000: 8c8c 273b 249b c93e caf4 afbb da16 cbbd
00000010: 07c8 b0bd 04f6 93be 89c5 7a3f 36a2 6e3e
00000020: 2aec 47bd 4065 d53d 28bb ad3e 134d 923e
00000030: 15fe 8d3e 8bf5 41bd c9ea 8d3d 9f71 87bc
00000040: 3fb5 113e 3576 c53d af2d 2fbe f7f9 393f
00000050: 2375 e53b 7c4e b93d 80d4 0ebd 4cb9 963c
00000060: 6314 8c3d 8bd9 62bd db9d c63d 2cef 313f
00000070: 1705 33be b8e6 643d cfe0 14be cd91 e5bd
00000080: 016d 33bc 9b9e 9e3e e94f 4abe 481f b13e
00000090: 2835 d5be 400d 8cbe 770a 4a3e 737c e23d
000000a0: 21a3 273e 18cc 4e3f 6377 38be 8d0c 9f3d
000000b0: b166 643e 5f07 d63d d6db 2cbd 8083 3cbf
000000c0: 3f68 813d 86bc 2dbe e871 d03d 1024 bbbe
000000d0: cb62 bf3e fdbf 26bd 49bb 1a3e 23fe b1bc
000000e0: b542 0b3e 8198 513d 29c3 3abe 0f3f bd3d
000000f0: 3c20 b5be 3826 1abc 46cd 03bf ace9 b5bc
00000100: 52f4 213e 5f6c 143f b74a 973f f577 983f
00000110: 98cd d33e 727e 683d 4158 953d 350a ce3d
00000120: 374d a3bd 6e67 8b3e bddc 3b3c 3ac5 19be
00000130: 2d9c cebd 9d67 b33c 6c0b 52be 6457 a73e
00000140: a912 be3d a7fc 2c3f 08d3 1a3f f8d5 0a3e
00000150: 93b9 adbe 69f6 303f b9fb 50bd 5412 223f
00000160: 076a 1cbe ebcf fdbd f4dc 8a3e 3de5 41be
00000170: ad38 d53e f931 3f3e 6ed3 5a3f 9e00 803c
00000180: 8f01 a73d 39f0 28bd 4719 4cbe 31e7 14be
00000190: 0c44 923e 882d 0d3e 94f9 bd3f 1382 96bf
000001a0: b35f 0bbe 0762 01bf 2896 713e b351 2c3e
000001b0: 9914 7dbe b8d7 0abf f0d4 25be aed5 ecbe
000001c0: 06e6 c6be c13c edbe 37ca e9bc ef4c 463d
000001d0: d06e 0840 fdd2 50bf 5757 243d 8620 573d
000001e0: 5a3b b8be 5849 7ebe 0b69 3bbf ce5c 0ebf
000001f0: 6034 b1bf 15d3 c13d 293b a2bf bca5 d4be
00000200: 3ba5 27be 6e86 f8bd 58d5 d8be 5c6f 3e3f
00000210: f009 40bd c6d3 0cbf 1ac0 11bd 7591 c43e
00000220: 7dad 5a3d cec4 3abd e524 72bd 609e b13e
00000230: 2283 b23e c790 c83f e1ca da3f d044 2b40
00000240: 2b5c 25bf db78 94bd 5597 a6bd 6dbc 61be
00000250: 9e64 243e 95fb c2bd 205e 3b3e 5636 7a3e
00000260: 59de 3dbd 3410 d63d 4d73 533e 2e53 1c3e
00000270: b9e7 553f 6312 513e bcbf 63bd 2b47 923e
00000280: 234d 623e 9bdd 0b3e 98a8 593e 7f54 bcbd
00000290: 8fc9 6dbe 2bde b2bd 098c 9d3d faa3 dcbd
000002a0: 815d 163e 51c6 1a3f bc3d 7e3d c06f 0bbe
000002b0: 93f4 f33c 26c1 f13d 8978 253e 373d 86be
000002c0: 5e8b 8abd 8abe 2b3f f92d 74bc 1f62 483e
000002d0: 853c dabd 57f4 28be c9e4 a5bb 0059 763e
000002e0: 9dd9 07bd 6663 fd3e c75d a2bd 4e9a 71bd
000002f0: 6c32 edbd 8aaf 483d f5fa 5b3d ab41 803f
00000300: e149 b13d b1c5 39bd 1377 95bc fa2e b93d
00000310: e811 67bd 59d7 21bf 4ef4 bf3e 7c1b 4bbe
00000320: d0e9 5b3f 916b 373e beaf 993e 8171 b2bd
00000330: 16b7 723c 50e2 1abe 5bff a13d 345e c3bc
00000340: 168a a73d 79ac 183e e0b2 a5bd aed1 49be
00000350: 303d c93d fc15 793d f888 053e e41e f13e
00000360: 3627 d13f 3f7f d33f 453b d43f 082b a83e
00000370: fbc7 0e3d 014f 993e 1326 29bc 45ee 393e
00000380: ba3e 213e 8a20 21be 86b1 8bbe 3466 8abd
00000390: 8620 83be 7e4c f83d 8f34 2d3e 733f 3b3e
000003a0: fce7 183f 8c11 90bd 818c f6bd 23fc e53e
000003b0: f419 14be fe49 fc3e ef61 823c c03f 6f3d
000003c0: 6b49 c6bc 8e4a 39be 90ab 133f a828 c33e
000003d0: 7a20 423e fa42 b1bd c573 c8bd ff66 6fbe
000003e0: e836 5ebe ef9e 0bbe 7967 a93d c2a7 d9bc
000003f0: 5f18 03bf 8e97 63bc c5b6 1dbe 5bb3 b8be

layer6.bias f4 [75]
0.07201267 0.44108883 -0.12865083 0.24138498 -0.022376299 0.11223995 0.03599851 0.16867308
0.10836204 0.010930935 0.06937539 0.1753618 -0.033168353 0.047384597 0.10769106 0.05610683
-0.007825068 0.02452119 -0.019158423 0.0128962295 0.4585588 0.04682696 -0.024409259 -0.0048373123
0.06457663 0.034701496 -0.016314793 0.10256134 0.15309978 -0.045495313 0.11490421 0.111307606
0.05836888 0.08192783 -0.08082426 0.08526693 -0.10685672 0.032394473 0.084531985 0.06926065
0.02519748 -0.025627166 0.14808263 0.028659383 0.14435734 0.053376112 0.13418132 -0.014242872
0.101979785 0.0658718 -0.011727308 0.010907542 0.006281734 0.3327234 0.01784333 0.058712997
0.09047736 -0.026171217 0.19033898 0.28963155 -0.035838977 -0.06769054 0.0823549 -0.030817179
0.14284253 0.05630945 0.0935804 -0.04783521 0.10587712 0.40168914 -0.0756322 -0.14325598
0.0069522015 -0.11352289 0.07392476
00000000: 617b 933d 65d6 e13e 0bbd 03be a02d 773e
00000010: 804e b7bc 0fde e53d 2c73 133d a3b8 2c3e
00000020: ebec dd3d aa17 333c af14 8e3d 0b92 333e
00000030: 8adb 07bd 5a16 423d 218d dc3d 46d0 653d
00000040: b734 00bc aae0 c83c 20f2 9cbc b54a 533c
00000050: 38c8 ea3e a0cd 3f3d edf5 c7bc 5182 9ebb
00000060: c140 843d 2823 0e3d 9aa6 85bc ae0b d23d
00000070: 30c6 1c3e 4b59 3abd e652 eb3d 3ef5 e33d
00000080: 3514 6f3d c7c9 a73d 3187 a5bd 6ea0 ae3d
00000090: b2d7 dabd 11b0 043d 1b1f ad3d 87d8 8d3d
000000a0: f26a ce3c 10f0 d1bc f9a2 173e 15c7 ea3c
000000b0: 69d2 133e e9a0 5a3d d466 093e ef5a 69bc
000000c0: c7da d03d cbe7 863d e523 40bc 8cb5 323c
000000d0: 01d7 cd3b b95a aa3e 2d2c 923c 0a7d 703d
000000e0: 324c b93d 0565 d6bc 39e8 423e 964a 943e
000000f0: e4cb 12bd 56a1 8abd b0a9 a83d 4f74 fcbc
00000100: 5045 123e bda4 663d 15a7 bf3d daee 43bd
00000110: 1ad6 d83d 33aa cd3e 0ee5 9abd b2b1 12be
00000120: 4bcf e33b b07e e8bd dd65 973d
