model_weights.pth (torch, 50087 bytes, 15 tensors)

layer1.weight f4 [75, 68]
00000000: c807 c0c0 dc5e d2bd 5e85 12be 26b5 60be
00000010: 557f 5abb b681 da3d 8b50 d7bd 064a 86bd
00000020: 0870 f03d 4fc5 763d 7287 11bd 6801 a5bd
00000030: d7cc 41bd b687 aa3d 08fc 15bb 7981 593d
00000040: 76e6 bf3d f6b8 343d 4e5b c8bd 0977 953d
00000050: 91bd 40bc 446c a5bd e36c 43bd e485 92bd
00000060: ec7a 013b 37c3 883c 769d 5d3c 4f19 df3d
00000070: 48d8 a1bd 3937 da3c 5141 37bc 7595 9a3d
00000080: 8a62 97bd 6ffe b33d c0aa 983c 7ef0 8bbb
00000090: a0ae 3fbd 9063 8a3d dc65 c6bc ca23 e6bd
000000a0: 7ea0 c0bd 99cb 6b3d f2d4 aabd 67cb 3f3c
000000b0: d767 4a3d e941 eebd b685 43bd e662 90bc
000000c0: 61d5 c63c a7ff 7cbc 6d56 15bd 646e f63d
000000d0: 2a7f c93d c1ca dd3c dc35 573d 2ae0 673d
000000e0: 2f03 a1bc 113a 773d f55b 3bbd 8695 603d
000000f0: f09c bc3d 2bed e33d 5312 b9bd 214a 77bc
00000100: 2d3d 333d e0ca f2bc ef2b cdbd 7420 acbd
00000110: 34ce a9bd fa2f ac3d fc88 d4bb 637c 9fbc
00000120: ecda c43d b31c 673d 643e 0e3d 91c2 d8bd
00000130: 7891 033d cc76 053d f80d 133d 424e 173d
00000140: 12bb 43bd 5f6d a13d 68e3 d83d dc8a a43d
00000150: bd83 443d e4e2 a83d 79a8 95bd 533d dc3d
00000160: 9f7d b43d 4ab9 e43d 30b9 d3bd 2521 9cbd
00000170: 24a2 943c d89d b3ba e01d 7e3b 1c6e 793d
00000180: c5a1 693b 3930 0c3d 1183 d63d d006 c1bb
00000190: 6bd2 ab3d 8d07 7d3d 3829 3a3d bc11 f5bd
000001a0: 630a c2bc 8793 ad3c e70a d53d 5abe 563d
000001b0: 6549 5dbd f3f5 193d 5dc5 7d3d 6171 ecbd
000001c0: 588f d0bd 709d f43d e458 c7bc 98b3 163d
000001d0: d78e 7d3c 6b58 263d 86a0 e3bd ac75 d7bd
000001e0: b0d2 4b3c 915b aa3d 2eb5 89bd 0599 4dbc
000001f0: 939a 533d 0ab8 d6bd f83e e23d 6ec0 8bba
00000200: 66a1 b3bd 05ac e8bc 027a a3ba 398e 67bd
00000210: 3056 90bd 2548 f3bd 3b7c b93d 93c6 753d
00000220: 2a2e 0741 8ada c3bd 41f4 323e 90d4 a3bc
00000230: 964e 9fbd 5099 9a3d fe1c 88bc 31b1 debd
00000240: f93e c9bd 7018 383d 3397 2cbb a960 a43d
00000250: 3657 85bd f2e6 ef3d 1c23 523d 4ae2 d83d
00000260: ae34 8bbd 36dc 933d 77e9 2cbd 96c1 e2bd
00000270: 2875 05ba 230b 14bc 31fc 95bd e0c2 6b3d
00000280: c55a 76bd f865 aa3d 3b34 f6bd afcf cbbd
00000290: 004c 623c 302a c7bc 1b02 f1bd b7d6 59bc
000002a0: 5ba8 f83d 84d3 963d eb70 98bb 16b9 74bd
000002b0: 517f b63d cf17 abbd 7092 a93d 12c9 f0bd
000002c0: c134 c23d 2315 cb3d 1a09 a83d 6fb3 07bd
000002d0: 20ab c9bd 7c7a de3c 7d96 b3bd a85e 1ebc
000002e0: a93d 03bc a625 4bbb c89d 41bc 1ea0 67bd
000002f0: ec98 903c d9df bdbd a553 1fbd bb7a 9ebc
00000300: 3cbb 63bd 78cd 12bd 10e5 893d e54c 883c
00000310: a66f 85ba 006a dabd bef0 8bbd 4542 72bd
00000320: fb30 5bbd ea5e 263d 3cbd d8bb 71a4 8fbd
00000330: 390b f8bd 8142 57bd 3e55 983c 35df bb3d
00000340: cb53 f0bd 545a 4cbd a441 ab3d 028f 57bd
00000350: c421 d4bd 0e50 f4bc 68b2 b9bd 1011 d3bd
00000360: 7714 f03c 2584 97bd cb7a 55bc 399b f93c
00000370: 155b be3d 9636 7dbd f093 8c3d 90ff ccbd
00000380: 9d54 d03a 82bb b13d 6263 99bd f428 91bd
00000390: 9906 f63d a385 da3d a951 363d 9ca6 47bd
000003a0: cbae 19bd 7acf c0bd daf7 823d 2bf0 81bd
000003b0: f343 173d e0da 91bd 76b8 2f3d d7ed d53d
000003c0: 1cf8 7ebd cd83 df3d c820 1f3d c47a ca3d
000003d0: 57bc f4bd eabe a63d b99e f13d c806 c2bc
000003e0: 572b 0d3d a136 23bd 8c11 b6bd 6cb1 453d
000003f0: f5f8 cbbd 3f09 16bd de66 113d 5951 a83d
-6.00095 -0.10271999 -0.14308688 -0.21944103 -0.0033340056 0.10669272 -0.10513409 -0.065570876
0.11740118 0.060246762 -0.03552956 -0.08056909 -0.04731449 0.08326666 -0.0022885818 0.05310199
0.09370129 0.044121705 -0.0978304 0.07298095 -0.011763946 -0.08077291 -0.047711264 -0.07154444
0.0019757105 0.016694648 0.013526311 0.10893499 -0.079025805 0.02663766 -0.011185006 0.07548038
-0.07391842 0.08788764 0.018636107 -0.0042706123 -0.046797395 0.06757271 -0.024218492 -0.11237295
-0.094056115 0.057567213 -0.08341397 0.01170621 0.049415436 -0.11633665 -0.04773494 -0.017625283
0.024271669 -0.015441812 -0.036459375 0.12032774 0.09838708 0.02707422 0.0525416 0.056610264
-0.019654838 0.06035811 -0.045741994 0.054830097 0.09209621 0.111292206 -0.09036698 -0.015093357
0.043759514 -0.029637754 -0.10018145 -0.084046274 -0.08291283 0.08407588 -0.0064860564 -0.019468492
0.096120685 0.056423854 0.03472747 -0.105839856 0.03212115 0.032583997 0.035901994 0.036939867
-0.047785826 0.07882189 0.10590249 0.08034298 0.047977198 0.08246401 -0.07307524 0.10753884
0.08813023 0.111681536 -0.10338056 -0.07623509 0.01814372 -0.0013703657 0.003877513 0.060896024
0.00356494 0.034225676 0.10474218 -0.0058907047 0.083897434 0.06177478 0.045449466 -0.11966273
-0.023686593 0.02118851 0.1040247 0.052427627 -0.054025073 0.03758807 0.0619558 -0.11545063
-0.10183591 0.11944091 -0.024334379 0.036792368 0.01547595 0.040611666 -0.11114602 -0.10520491
0.0124403685 0.08318246 -0.067240104 -0.01254869 0.051661085 -0.104843214 0.110471666 -0.0010662207
-0.08771019 -0.028402338 -0.0012472274 -0.05653212 -0.07047689 -0.11878995 0.09056898 0.06000383
8.4487705 -0.095631674 0.17475988 -0.019998819 -0.07778661 0.07548773 -0.016615387 -0.1087364
-0.09826464 0.04494518 -0.002633524 0.08026249 -0.06510775 0.11713971 0.051303014 0.10590036
-0.06797157 0.07219736 -0.042214837 -0.1107208 -0.0005091005 -0.009035858 -0.07323492 0.057558894
-0.06014516 0.0832023 -0.12021681 -0.09951722 0.013812065 -0.024312109 -0.1176798 -0.013295821
0.12141486 0.07364562 -0.0046521327 -0.059746824 0.089110024 -0.083541505 0.08279884 -0.11757101
0.09482718 0.09916141 0.08204861 -0.033130106 -0.09847093 0.027158014 -0.08768938 -0.0096661225
-0.008010306 -0.0030997782 -0.011817403 -0.056549184 0.017651044 -0.09271211 -0.03889813 -0.019345632
-0.055598482 -0.03584048 0.06733143 0.016638229 -0.0010180369 -0.10664749 -0.06833027 -0.05914523
-0.05351351 0.04061786 -0.0066143554 -0.070137866 -0.121115156 -0.052553657 0.018595334 0.09173433
-0.11734732 -0.04989083 0.08362129 -0.052626617 -0.10358003 -0.02982333 -0.090672314 -0.10305989
0.029306633 -0.073982514 -0.013029764 0.030469524 0.09294716 -0.061819635 0.06864154 -0.10009682
0.0015894357 0.086783424 -0.07489659 -0.07087889 0.12012977 0.106700204 0.04451147 -0.048742875
-0.03752021 -0.09414573 0.0639493 -0.063446365 0.036930036 -0.07121825 0.042900525 0.10445755
-0.062248334 0.10913811 0.038849622 0.09886697 -0.119499855 0.08141883 0.11797852 -0.023684874
0.03446516 -0.03984702 -0.088900656 0.048264906 -0.09959594 -0.03662991 0.035498492 0.08218641

layer1.bias f4 [75]
00000000: 2768 a8bb 9ed3 b3bd 8fd1 06bd 7b2f be3c
00000010: 4c60 6abd 6570 1dbd 3560 e03d eb14 b7bc
00000020: c0cf e53d caa3 2bbd 56da a63d 1034 ccbd
00000030: f85e 9dbd 0f63 3bbc 9cb3 ba3d f9e4 78bd
00000040: 7e6a c63d 331b 9cbd 5563 da3c 69af ed3a
00000050: 2769 65bc 0f72 243c c934 e7bc 0db1 21bd
00000060: d72e f1bd c5b5 363c 451d 1abc 837f c43d
00000070: 64d8 4fbd b3a0 bb3d d2eb df3d d4e9 ce3d
00000080: 49e4 6dbc 0ba7 edbc 7299 72bd a36c 3cbc
00000090: 03fd be3d 8735 ac3d cac1 0cbd 1686 213c
000000a0: f3eb da3c 3df4 9a3d 18d6 ad3d 3457 f4bc
000000b0: c6ff b83d 47b6 05bd c8d2 ec3d 707e 153d
000000c0: d7c4 ef3d 9294 853d 875f 97b8 a493 b0bd
000000d0: 2af5 d8bd 640e 85bd e719 72bd ac42 9e3d
000000e0: f905 ab3d d696 edbd b43c 133d 4081 d8bd
000000f0: 54ee 8f3d 62a8 e0bd 7035 d93d 24ae a0bd
00000100: 68f1 bd3d b832 81bd 768d 573b 03ac a23d
00000110: 7566 043c 7826 723d c382 a1bd a9f9 dbbd
00000120: 9744 99bd 60fc c2bd 832c d63d
-0.005139369 -0.08780597 -0.032914694 0.023216 -0.057220742 -0.038437266 0.1095585 -0.022348842
0.11221266 -0.04190425 0.08147113 -0.09970868 -0.076841295 -0.011437192 0.09116289 -0.06076524
0.096882805 -0.07622375 0.026658693 0.0018133941 -0.014002121 0.010036959 -0.028223412 -0.03947549
-0.11776512 0.011151736 -0.009406392 0.095946334 -0.050743476 0.0916151 0.10933651 0.10103193
-0.014519759 -0.029010316 -0.059228368 -0.01150051 0.09325602 0.08408647 -0.0343645 0.009858629
0.026723837 0.07566116 0.08488101 -0.029826738 0.0903316 -0.032644536 0.11563641 0.036497533
0.11707466 0.06522478 -7.2180344e-05 -0.0862191 -0.10593636 -0.064968854 -0.059106734 0.077275604
0.083507486 -0.11601035 0.035946563 -0.105715275 0.07027879 -0.109696165 0.106058955 -0.07845715
0.0927456 -0.06308502 0.0032890714 0.07942965 0.008081068 0.059118718 -0.07886269 -0.10740978
-0.074837856 -0.09520793 0.10457709

layer4.weight f4 [50, 75]
00000000: 0973 03bc 6d7a 4d3d b1c0 bebe bd56 9d3d
00000010: 6204 d5bd 77b2 90bd 21b4 bdbd 5956 e33d
00000020: b7cf ad3d 7083 12bf 6dd1 183c 92f9 fdbe
00000030: 6a4f dbbc 1259 e1bb 373f 213d b1ba da3c
00000040: d61b ecbc 746a 86be 8e92 28bd d6b8 70be
00000050: f60b dfbd 5b41 aa3d cdbf c63a 0a9f a4be
00000060: 44bd aebe 4a76 eabe 1831 85bd 5905 c8be
00000070: 4465 fabc f901 9cbe d097 f3bd a169 33be
00000080: ea69 f1be e6af 86bd bf0b 4d3d fa7f 89bd
00000090: aa3f b7be c16e cebd 7c95 cfbc eb7a c8be
000000a0: a72c 40bc 7c75 ce3d f0d9 a63d c053 80be
000000b0: d010 91be 7a22 fbbd 85b3 89bd ab08 09bf
000000c0: 9d15 50bd ba40 7a3c eb89 b8be 89e0 2cbe
000000d0: d6b6 84be 217b febe d1db 0abd 8f60 7abd
000000e0: 154d 11bf ac8e c9bd 89fa 4fbd 7a50 213b
000000f0: 59af e0bd 7d32 fbbe b816 34bd 7cf4 cdbe
00000100: 65f2 fdbe aacd 833d 6faf c13d 31b1 0b3c
00000110: bcf9 02bf d178 5ebd 44f9 1cbd 1e42 0ebf
00000120: 61f2 eebe d72f 833c 23ea 98be f7f0 623d
00000130: eb15 e3bc 7211 c4bd 657e b2bd b1bd 29b8
00000140: 424e c3bd 6242 cc3d 793b e43c 6e88 7d3d
00000150: 9b2c d9bd 15d9 b43c c6f0 5f3d d85d d53d
00000160: abe5 75bd c92f e23d be64 fbbc bd30 d83c
00000170: 97cb febc 0b62 bf3d c59d 18bd 532c cd3d
00000180: d0ef 8abd 433f debd 2646 8bbb 0a74 acbd
00000190: 8e70 9bbd d0de a3bd df29 34bd da99 24bc
000001a0: 9f5a 00bb c769 93bd 8ad9 3bbd 9f02 40bd
000001b0: b184 0bbd 00ea eabd a00e 8abd dd5a b03d
000001c0: 6646 f23c 4d9f f63c b7e6 4a3d 636c 553c
000001d0: 47ec e6bd fb2b 79bd c574 cc3d 0ae0 e6bd
000001e0: 0cd2 9f3d 7750 ec3d 36c0 1c3d 07b9 eabd
000001f0: 35f3 b9bd f824 8fbc 7563 e23c 8142 a23c
00000200: fb5f 67bd 8c24 6f3d 2573 aabd f2e6 d03c
00000210: 2391 d7bd 16f6 0a3d a7b1 92bd b9f5 64bd
00000220: ebb6 99bd 891e c73d bc78 49bd ae48 e8bc
00000230: cd76 623d 8cd3 d03d 02ef 8e3d 5e0d b1bd
00000240: 5f4f aebd 5e29 613d a69d 15bd aa64 9fbd
00000250: 548b a03d 1f88 ddbd b486 c83d 3f69 863d
00000260: 2062 78ba 1063 cb3b 9e0c 42bd 4657 54bd
00000270: 4738 be3d cc02 e1bd ae42 86bd 2048 56bb
00000280: 5a4c b93d 1e3b f0bb 046f 69bd 97ab 8bbd
00000290: d18f b4bb 5759 fbbc 2bd4 2dbd e18a 80bd
000002a0: ece9 de3d c806 bebc 6553 97bc fc4c 983d
000002b0: 2630 8dbd 37ee 24bd 9a7f b4bd 86f8 64bd
000002c0: a81f 85bc c8c4 bbbd 0045 be3d 7690 6dbd
000002d0: 80a8 95bb 994f ccbd 9b33 a33c 3968 dfbd
000002e0: 7b99 13bd 20cc 3cbd d4cf 883d 97e9 35bc
000002f0: e6d1 babd 5894 44bd 9ffe e4bd 66d3 79bb
00000300: 1246 0ebd 17ef a93d 3f6c d23d dcf0 103d
00000310: 1e6a 103d f314 2c3d 8f53 973d a5d9 1bbd
00000320: 7ced 0a3d 59c6 0cbd a6f0 893c e02a 27bc
00000330: d3ad dcbd 54fd ab3d 6473 59bd acf2 58bd
00000340: afb0 96bd 1252 d93d 67f5 29bc 3567 c5bd
00000350: 4dd0 98bc 3c04 68bd c255 40bd 4d64 ac3d
00000360: 1ad8 56bd 2570 2cbd cb70 b93d 42b1 71bd
00000370: 9647 ec3d 3d58 783d 1df3 7dbd e860 7a3d
00000380: d8fa 663d bea8 433d 11c0 ebbc a133 d2bd
00000390: a22e abbd 4e86 9bbb 89cf ea3d 10f1 643d
000003a0: 7857 1a3d d868 70bd 299f c0bd a71d 73bd
000003b0: fa65 e0bc b6f8 29bd c3b0 98bd 3682 c9bd
000003c0: 8489 873d 1682 92bc 1206 b13b 4851 a3bc
000003d0: 628f 82bb c31c cbbd a068 9abd 9d4c c5bd
000003e0: 0c7d bebd 66ed dbbd 881d c3bd 0111 b13d
000003f0: f692 7a3c 4f6e 37bd be1c 5f3d 867a 1cbd
-0.008023032 0.050165582 -0.37256387 0.0768256 -0.104012266 -0.070652895 -0.092628725 0.11100454
0.08486884 -0.5723181 0.009327275 -0.4960447 -0.026771266 -0.006877073 0.039366927 0.02670035
-0.028821867 -0.26253092 -0.04115539 -0.2350801 -0.10890953 0.08313247 0.0015163362 -0.32152587
-0.34128773 -0.45793372 -0.065035045 -0.3906658 -0.030565865 -0.30470255 -0.1189419 -0.17520763
-0.4715112 -0.06576519 0.05006003 -0.06713863 -0.3579076 -0.100797184 -0.025339834 -0.3915628
-0.011729396 0.10081002 0.08147037 -0.25063896 -0.2833314 -0.12262435 -0.06723694 -0.5352885
-0.050801862 0.015274221 -0.36042723 -0.16882528 -0.25920743 -0.49703315 -0.03390104 -0.06112724
-0.5675824 -0.098416656 -0.05077604 0.0024614618 -0.10970945 -0.49061957 -0.04396698 -0.4022559
-0.49598995 0.06435712 0.094572894 0.008526132 -0.51162314 -0.05431444 -0.038323656 -0.55569637
-0.46669295 0.016014023 -0.29866132 0.055405583 -0.027720412 -0.0957364 -0.08715514 -4.0469404e-05
-0.09536411 0.09973599 0.02786039 0.061897688 -0.10604211 0.022076169 0.05467298 0.1041829
-0.06003348 0.110442705 -0.030687686 0.026390428 -0.031102939 0.09344872 -0.037259836 0.1001822
-0.06784022 -0.1085191 -0.0042503057 -0.0842057 -0.075898275 -0.080014825 -0.043985244 -0.010046447
-0.0019585264 -0.0719791 -0.04586176 -0.0468775 -0.03406209 -0.11470413 -0.06741071 0.08611081
0.029574584 0.030105257 0.049536433 0.01302633 -0.11275535 -0.06083296 0.099832095 -0.11273201
0.07803735 0.11538785 0.038269244 -0.114610724 -0.09079591 -0.017473683 0.027635315 0.019807102
-0.05648802 0.058384463 -0.08322743 0.025500748 -0.105257295 0.033926092 -0.07162791 -0.055898402
-0.07505592 0.09722621 -0.049187407 -0.028354969 0.05528908 0.10196599 0.06979181 -0.08645128
-0.085112326 0.05497109 -0.0365273 -0.07782872 0.07839075 -0.10816979 0.097913176 0.06563043
-0.0009475071 0.0062068775 -0.047375314 -0.051841043 0.09288078 -0.109868616 -0.06555687 -0.0032696798
0.09047766 -0.007331266 -0.05699064 -0.068198375 -0.0055103083 -0.030682249 -0.042438667 -0.06276489
0.10884461 -0.023196593 -0.018472383 0.074365586 -0.06893949 -0.040266242 -0.088134006 -0.055901073
-0.016250446 -0.091683924 0.092905045 -0.057999097 -0.004567206 -0.099761195 0.019922068 -0.10908551
-0.036035042 -0.046093106 0.06680265 -0.011103055 -0.09122066 -0.047993034 -0.111813776 -0.0038120388
-0.034734793 0.08297556 0.102745526 0.03538595 0.03525745 0.042012166 0.073889844 -0.03804936
0.03391789 -0.034368847 0.016838383 -0.010203093 -0.10775342 0.08397928 -0.05308856 -0.052965805
-0.073579185 0.10611357 -0.01037345 -0.09638826 -0.018654013 -0.056644663 -0.046956785 0.08417568
-0.052452184 -0.042099137 0.09054717 -0.059006937 0.115370914 0.060631026 -0.06199943 0.061127573
0.056391567 0.047768347 -0.028778108 -0.10263754 -0.08358504 -0.004746235 0.114653654 0.055893958
0.037681073 -0.058693737 -0.094053574 -0.05935445 -0.027392376 -0.041496955 -0.074555896 -0.09839289
0.06618026 -0.017884295 0.005402335 -0.019936219 -0.0039843777 -0.09917595 -0.07539487 -0.096337534
-0.093011945 -0.107386395 -0.09527117 0.08645821 0.015293827 -0.044782933 0.05447077 -0.038202785

layer4.bias f4 [50]
00000000: 80c9 a8bc c2d3 6abd 72f8 0c3d ddae b4bd
00000010: b820 3e3d a5e3 76bd b6ff 0d3d c6e7 783d
00000020: aea9 933d d45b a6bd d959 00bd 0ce8 4b3d
00000030: b729 c8bd 8999 94bd a19f 71bd 7655 d5bd
00000040: 52ae 97bd dfe8 babd e721 0dbd b5e2 953d
00000050: c341 8b37 fe2a ba3c 8bb1 2b3d d8a3 62bd
00000060: bf1e 033d ce04 eb3d a7c6 a7bd 458d 293d
00000070: da34 a4bc 2140 193d eda7 4d3d 86b1 60bd
00000080: 8c5b 9dbd e5b2 acbd 35e1 8abd 0edf d03d
00000090: 2464 343d 3cc0 a83b c571 66bd 6913 2f3d
000000a0: 3fe9 dcbc 039e a0bd a322 2ebe b445 3ebc
000000b0: 0323 3dbd 5366 9abb e21f e0bc 7309 b6bd
000000c0: 8957 48bd 7fc6 9cbd
-0.020603895 -0.057330854 0.034416623 -0.08822415 0.04641792 -0.060275692 0.034667693 0.06076791
0.07210098 -0.081229836 -0.031335685 0.049781844 -0.097735815 -0.07255847 -0.058990125 -0.10416691
-0.07406296 -0.09126448 -0.03445616 0.073186316 1.6600714e-05 0.022725578 0.041917365 -0.055332035
0.032011744 0.11475526 -0.08192187 0.04139449 -0.020044733 0.037414674 0.050208975 -0.0548568
-0.07683477 -0.08432559 -0.06781236 0.10198794 0.044040814 0.0051498692 -0.056260843 0.04274312
-0.02696669 -0.07842638 -0.170054 -0.011613298 -0.046175968 -0.004711905 -0.027358953 -0.08888521
-0.048911605 -0.076550476

layer5.weight f4 [35, 50]
00000000: 77ac 043d bd2d 013c 61bf a7bc 3e87 843d
00000010: 33ea 1b40 483b d03d 9703 1abf 5cd6 4ebe
00000020: 5c63 aa3c 0db2 273e 48f8 81bd 6fbc d8be
00000030: efdf 24be 49d6 91bd 65c3 e83b b791 363d
00000040: 927c 883d 5bd6 a83e 9ab4 19bf a149 d53c
00000050: 4f2c 33be 531a febd c6c3 303e e14d 8b3d
00000060: 467c 0cbd f535 5f3e 42af 613c c05a 1ebf
00000070: 04f5 823d 623c 14bf fb5f 9abd 0e66 20be
00000080: ef64 c5bc 7108 d73e 31f7 f23d c0f4 34be
00000090: 4aa2 b0bc 289d f9bb 2afe 39be 4130 02bd
000000a0: 4f0d e2bd 29c3 37bd 0662 703e a08e a5be
000000b0: dfc2 65be 0252 8c3d 3636 753f 8625 2cbf
000000c0: d445 883d 24f9 92bd c883 f83f ad63 77be
000000d0: 9aab d2bf f459 c6bd 9e7c 50c0 31a2 96c0
000000e0: 47fa 4ec0 4861 2cc0 3275 bebe 0a79 57c0
000000f0: be1a 03c0 a293 eb3f 86de 4c41 31ed c63f
00000100: 8dc0 25be 87ea a73f 97eb ec40 fa6c 2140
00000110: 4eaa fa41 524d 563f d73f b03f ac01 b63e
00000120: 9be7 24bf c105 d73f ccad d840 0ca5 5fc1
00000130: cfb9 42bf a20b a841 296e 6340 9683 12c1
00000140: c3e3 8f40 03c6 9140 e00a b13f ccaf eec0
00000150: afc6 06c1 24e7 2f40 0d0c 2fbf fc38 c33e
00000160: 9064 6440 9529 2ac0 fa8a b53c 9996 0d40
00000170: f101 873d b351 14c0 caf3 3341 5772 bc3e
00000180: e8e2 da3e c478 ab41 8d27 afbd d6d1 1a40
00000190: b5d3 80be 014f a83d 4fe1 7ebd aa37 e63d
000001a0: 3a6d e93d c3a6 813e cfa6 e6be 166b fa3e
000001b0: 33e6 17bb 8759 073e a28c d93e afe4 3ac0
000001c0: 3c3b 77bf 847b 9abd f292 433d 56ff eabd
000001d0: f584 933f d0db f5bd fc62 48c0 ce6a 243d
000001e0: 2cb2 12bc d3c6 513d 21e2 053d a018 893d
000001f0: b176 8dbe d14f 2640 446c 6e3d 5ff0 06c0
00000200: 3a52 1fbe ab37 35bf 5e8c dcbe d125 c7be
00000210: be4b 66be 6b05 e83e c10d bc3e 7511 f1bd
00000220: eed1 19bd ac41 8f3c 6e1c 51be 0719 ab3e
00000230: 54fc 3e3d 0840 d5bd cbc2 b8be ea62 62bf
00000240: 112a 3bbf 5a80 24be 3e42 17bf 4107 6bbe
00000250: 71d1 c53d 5e47 ac3e 23d9 f7bc 8437 1c3d
00000260: 4bb3 4d3e f573 02be accf 1e40 6bf8 ee3e
00000270: 3287 06bf a49f cabe 0a97 223d 919a b53e
00000280: 9a77 8e3e 4f44 10c0 79ab 9dbf 1036 3dbe
00000290: 734e c23d 0da1 0abe 9950 79bf 4d57 9c3f
000002a0: 49fa 54c0 d3eb 15be caf1 31be 890b 4abc
000002b0: 3994 cd3d ac0f 5b3c 6612 24bf b651 debe
000002c0: 5969 0d3e 321b e7bf 108f 78be 49b3 773f
000002d0: 5c65 d0be 51cc 94be df1b f5bd 7193 0b3f
000002e0: 83db f53e b4c1 98be 5a5d ec3d a913 09be
000002f0: d865 e2be 5080 993e 0140 fc3d f503 30be
00000300: ecb0 74be b2f3 083c 641d cebe f218 dbbd
00000310: f127 4c3e 5b12 95bf d399 023e 5dfd cbbc
00000320: 61e9 e73d 2956 c03d 94ea 5ebd 2c9d ebbd
00000330: a449 923f 3024 293e 11d5 efbe 48f8 14bf
00000340: 7c52 a13b 85ab 94bc 4835 7a3e a63c 95bf
00000350: 5d51 b03e f55c 863d 10b9 9e3d d303 b0bd
00000360: 9d17 393f 77a5 2abf 9680 73bf 746b a53c
00000370: 1b38 26be bad4 a5bd 91ce 37bd 6a9e 893e
00000380: d608 8f3e e90a 003f 7b99 1fbe 2ced 6640
00000390: 6293 483e ef7e cdbe 0982 92be 7203 393d
000003a0: 694a 3ebd 574d 873e 3618 83bf 104f b23c
000003b0: 8646 e63d 7256 49bd 9421 61bd 0026 77be
000003c0: 6494 17bc 0fbe b13d a42e 53be 47e6 c23e
000003d0: cf8a 823f 9477 fbbd 5680 2b40 421c d0be
000003e0: 8733 dc3c 432e 983e 88a7 afbb efc5 9a3d
000003f0: 2353 cc3d 20f2 1bbe f581 1f40 6139 993e
0.032391038 0.00788444 -0.020476999 0.06471108 2.4361694 0.10167557 -0.6016173 -0.20198959
0.020799331 0.16376515 -0.06346184 -0.42331263 -0.16101049 -0.0712095 0.007103371 0.04457256
0.06664385 0.3297604 -0.600412 0.026036086 -0.17497371 -0.12407365 0.17262182 0.068019636
-0.034298204 0.21797927 0.013774695 -0.61857224 0.06394389 -0.57904637 -0.07537838 -0.15663931
-0.02409598 0.41998628 0.11863554 -0.1767149 -0.02156176 -0.0076176114 -0.18163362 -0.0317843
-0.11037695 -0.044863854 0.23474893 -0.32335377 -0.22437619 0.06851579 0.95785844 -0.67244756
0.06653944 -0.07176426 1.9415216 -0.24159117 -1.6458619 -0.09685126 -3.257606 -4.7072988
-3.2340257 -2.6934376 -0.37198788 -3.3667626 -2.0485072 1.8404429 12.804327 1.5541135
-0.16186734 1.3118447 7.4037585 2.5222764 31.333157 0.8371173 1.3769482 0.3554815
-0.644159 1.6798631 6.7712154 -13.977795 -0.7606477 21.00568 3.5535986 -9.157125
4.496553 4.5554214 1.3831444 -7.4589596 -8.423507 2.7484827 -0.68377763 0.38129413
3.5686378 -2.658788 0.022160996 2.2123168 0.06592167 -2.3174865 11.247019 0.36805984
0.4275124 21.433968 -0.085524656 2.4190574 -0.2516152 0.08218194 -0.06222659 0.11241086
0.113977864 0.25322542 -0.4504914 0.48909825 -0.002317798 0.13217746 0.42490107 -2.9202077
-0.9657476 -0.0754309 0.04774756 -0.11474483 1.152495 -0.120048165 -3.1310415 0.04014092
-0.008953612 0.051215004 0.032686356 0.0669415 -0.27629617 2.5986216 0.05820872 -2.108421
-0.1555871 -0.7078807 -0.43075842 -0.3889604 -0.22489831 0.45316634 0.36729243 -0.11770908
-0.03755372 0.01748737 -0.20421001 0.33417532 0.046627358 -0.104126036 -0.36086115 -0.8843218
-0.73111063 -0.16064587 -0.5908545 -0.22951986 0.096590884 0.336482 -0.030254906 0.03813888
0.20087926 -0.12739547 2.4814253 0.46673903 -0.5255004 -0.3957492 0.039694823 0.35469487
0.27825624 -2.2541692 -1.2317954 -0.18477654 0.09487619 -0.13537998 -0.9738861 1.2214142
-3.3277762 -0.14640741 -0.17377391 -0.012331852 0.10038037 0.013370436 -0.64090574 -0.43421715
0.13809718 -1.8055174 -0.24273324 0.9675794 -0.4070233 -0.2906213 -0.119682066 0.5452185
0.48019037 -0.29835284 0.11541243 -0.13386406 -0.44218326 0.29980707 0.12316895 -0.1718901
-0.23895615 0.008358883 -0.40256798 -0.10698117 0.19937111 -1.1646227 0.12753992 -0.024901086
0.1132381 0.09391434 -0.05442293 -0.115045875 1.1428723 0.1651771 -0.46842244 -0.5819135
0.004923163 -0.018148193 0.24434388 -1.1659133 0.34437075 0.06560699 0.077501416 -0.085944794
0.72301656 -0.6665873 -0.9511808 0.02019284 -0.1623234 -0.08097215 -0.04487473 0.26878673
0.2793643 0.5001665 -0.15585892 3.6082258 0.19587472 -0.40135905 -0.28614834 0.0451693
-0.04645768 0.26426193 -1.0241764 0.021766216 0.1124392 -0.049154706 -0.054963663 -0.2413559
-0.009251688 0.08678829 -0.2062326 0.38066313 1.0198611 -0.12278667 2.679708 -0.4064656
0.026880039 0.29722795 -0.0053605475 0.07557284 0.099767946 -0.15229082 2.492307 0.2992659

layer5.bias f4 [35]
00000000: 9329 893e 8912 b9c0 1a11 c63e a1f5 3d3f
00000010: 063a 023e 8329 473f a399 e53f 6d4a 833e
00000020: d3a6 2c3f e61b 063f 430e 363f 37c2 a93c
00000030: 313c 2abe 7519 413e 9fd1 103f d58e 11b8
00000040: 4e8b c43c 5fdd 633e a650 553e 59fc 40be
00000050: 7c4c 5d3e 88e6 9d3e 8fd8 4dbe 5758 bf3c
00000060: da72 b83d 12ee eb3d afc7 613f 45e0 e1be
00000070: d70f 693e 5bcd 01bf 564d a3bf a4f5 e43e
00000080: f1dd 3c3f 7240 453e dce8 1d3e
0.2678953 -5.7835126 0.38684922 0.74202925 0.12717447 0.77797717 1.7937511 0.2564272
0.67442054 0.5238632 0.7111551 0.020722492 -0.16624524 0.18857367 0.56569856 -3.4703717e-05
0.023992207 0.22252415 0.20831546 -0.18846263 0.21611208 0.30839944 -0.20102142 0.023357553
0.09006281 0.11520018 0.8819532 -0.44116417 0.22759949 -0.5070397 -1.2757976 0.4471866
0.73776156 0.19262865 0.1542086

layer6.weight f4 [1, 35]
00000000: a808 9f18 4849 4a41 1602 5897 6479 4199
00000010: 56ef 0c23 f6be 0c96 895d 2b1c bf18 e21b
00000020: bd60 63c0 ec6c 6798 f18c c410 f468 5e15
00000030: d8d6 19c0 6c11 4712 f571 ec1e f133 9cbf
00000040: 90a4 55be da94 1b16 f825 a99d cdf3 3a3f
00000050: 4b31 d319 9584 d814 e102 b31c 4d04 bba1
00000060: f905 3e15 54dc ac3f f871 8397 0232 a240
00000070: 7c8e ea90 1681 9b98 d1c5 3a40 3a68 1719
00000080: 12e4 b5a1 6123 a819 7092 8120
4.1109277e-24 12.642891 -6.9795997e-25 -1.0002381e-23 7.6400966e-18 -1.1369367e-25 5.6700045e-22 3.7404555e-22
-3.5527794 -2.9911042e-24 7.7525523e-29 4.4915336e-26 -2.403738 6.28148e-28 2.5034603e-20 -1.2203351
-0.20863557 1.256777e-25 -4.4773186e-21 0.7302826 2.1836798e-23 2.186272e-26 1.1845971e-21 -1.2672751e-18
3.8374906e-26 1.3504739 -8.494446e-25 5.0686045 -9.251626e-29 -4.0196904e-24 2.9183238 7.8275654e-24
-1.2325407e-18 1.7385082e-23 2.1950354e-19

batchnorm1.weight f4 [50]
00000000: 97e0 803f 0000 803f 0000 803f 0000 803f
00000010: 0432 c6c1 317c 803f 8d5e 5ac0 a281 28bf
00000020: 2a66 7f3f 3012 803f e98f 3b3f c3d1 45c0
00000030: 3923 0340 a38c 7e3f d0d7 7f3f 0000 803f
00000040: da47 f2c0 0165 74bf 4b33 1f40 9967 7f3f
00000050: 0000 803f 0000 803f 9409 793f 813c 3c3f
00000060: 61a1 273f 4271 a640 0000 803f cf28 2040
00000070: 5a9e 723f a2d3 4b3f 32ab a03f 0000 803f
00000080: 0000 803f d3ac 2a3f 8789 833f 0000 803f
00000090: 0000 803f 0000 803f 9645 4a3f d65a a63c
000000a0: 0000 803f 0000 803f f2f6 643f 75e0 0b40
000000b0: 5fa9 bc3f 0000 803f 6ce3 b140 aea7 9b40
000000c0: ec08 7f3f 54f9 41bf
1.0068539 1.0 1.0 1.0 -24.774422 1.00379 -3.412021 -0.65822804
0.99765265 1.000555 0.73266464 -3.0909278 2.0490248 0.99433345 0.9993868 1.0
-7.571271 -0.9546662 2.4875057 0.9976745 1.0 1.0 0.9728024 0.7352982
0.6548062 5.2013254 1.0 2.5024908 0.94772875 0.796198 1.2552245 1.0
1.0 0.6666996 1.0276345 1.0 1.0 1.0 0.7901243 0.020306986
1.0 1.0 0.8943931 2.1855748 1.4739188 1.0 5.5590115 4.8642187
0.9962299 -0.7577107

batchnorm1.bias f4 [50]
00000000: 9a48 63bf 12c2 dd3e 919c ac3e 9074 093d
00000010: a832 d041 4beb 2a40 9d49 03c1 ede5 0f3f
00000020: 5339 a33e 27c6 923f 0aa5 0d3f 12c8 d6c0
00000030: e902 02c1 54b4 37bf 89ea 25bd afe0 5abf
00000040: f3c9 0941 4d5b 4440 b967 80c1 6486 05bf
00000050: ca2e 96bf 1cf7 863d 5841 713f 9937 0740
00000060: 22b2 d6bf eb14 8141 67f1 a43e f216 8541
00000070: 6d11 5bbf d4f3 7dc0 58bd 95bf 3866 0ac0
00000080: 7da1 2dbf 67df c540 16cf 5940 59ab d2bf
00000090: 4be4 cb3d 88d8 343e 53b4 02c0 42d6 d83f
000000a0: 370d 2a3c 0c35 46bf 398f ae3e d0c9 0fc0
000000b0: fab7 2dc0 9cfd 81be 2dd1 49c0 b0ba 0e40
000000c0: 82e1 613e 4323 dabf
-0.88782656 0.43312126 0.337132 0.03355843 26.024734 2.6706111 -8.205472 0.56210214
0.31879672 1.1466721 0.55329955 -6.7119226 -8.1257105 -0.71759534 -0.040506873 -0.8549909
8.611804 3.0680726 -16.050646 -0.5215819 -1.1733029 0.06590101 0.9424033 2.1127684
-1.6773112 16.135214 0.32215425 16.636204 -0.85573465 -3.968007 -1.1698408 -2.162489
-0.67824537 6.183521 3.4032645 -1.6458541 0.09955653 0.17660725 -2.042256 1.6940386
0.010379127 -0.77424693 0.34093645 -2.2466927 -2.714354 -0.253888 -3.153392 2.2301445
0.2205868 -1.7042011

batchnorm1.running_mean f4 [50]
00000000: 0400 0000 0000 0000 0000 0000 0000 0000
00000010: 0400 0000 0400 0000 0400 0000 0400 0000
00000020: 0400 0000 0400 0000 8925 8f45 2b59 2246
00000030: 0400 0000 0400 0000 0400 0000 0000 0000
00000040: 03e7 d045 6fbd dc47 0400 0000 0400 0000
00000050: 0000 0000 0000 0000 0400 0000 0400 0000
00000060: 0400 0000 a175 da45 0000 0000 dbc7 be46
00000070: 0400 0000 d21a 1146 6052 8144 0000 0000
00000080: 0000 0000 0400 0000 0400 0000 0000 0000
00000090: 0000 0000 0000 0000 0400 0000 0400 0000
000000a0: 0000 0000 0000 0000 0400 0000 07bb 8445
000000b0: b528 7f46 0000 0000 0400 0000 0400 0000
000000c0: 0400 0000 0400 0000
6e-45 0.0 0.0 0.0 6e-45 6e-45 6e-45 6e-45
6e-45 6e-45 4580.692 10390.292 6e-45 6e-45 6e-45 0.0
6684.8765 113018.87 6e-45 6e-45 0.0 0.0 6e-45 6e-45
6e-45 6990.7036 0.0 24419.928 6e-45 9286.705 1034.5742 0.0
0.0 6e-45 6e-45 0.0 0.0 0.0 6e-45 6e-45
0.0 0.0 6e-45 4247.3784 16330.177 0.0 6e-45 6e-45
6e-45 6e-45

batchnorm1.running_var f4 [50]
00000000: 0400 0000 0400 0000 0400 0000 0400 0000
00000010: 0400 0000 0400 0000 0400 0000 0400 0000
00000020: 0400 0000 0400 0000 b961 144b 2285 224c
00000030: 0400 0000 0400 0000 0400 0000 0400 0000
00000040: 0085 994b 50c5 ac4f 0400 0000 0400 0000
00000050: 0400 0000 0400 0000 0400 0000 0400 0000
00000060: 0400 0000 4de2 954b 0400 0000 cfc2 644d
00000070: 0400 0000 5299 084c 93d9 f148 0400 0000
00000080: 0400 0000 0400 0000 0400 0000 0400 0000
00000090: 0400 0000 0400 0000 0400 0000 0400 0000
000000a0: 0400 0000 0400 0000 0400 0000 88bc fb4a
000000b0: a292 c54c 0400 0000 0400 0000 0400 0000
000000c0: 0400 0000 0400 0000
6e-45 6e-45 6e-45 6e-45 6e-45 6e-45 6e-45 6e-45
6e-45 6e-45 9.724345e+06 4.2603656e+07 6e-45 6e-45 6e-45 6e-45
2.0122112e+07 5.7972244e+09 6e-45 6e-45 6e-45 6e-45 6e-45 6e-45
6e-45 1.9645594e+07 6e-45 2.3987326e+08 6e-45 3.5808584e+07 495308.6 6e-45
6e-45 6e-45 6e-45 6e-45 6e-45 6e-45 6e-45 6e-45
6e-45 6e-45 6e-45 8.2489e+06 1.0358504e+08 6e-45 6e-45 6e-45
6e-45 6e-45

batchnorm2.weight f4 [35]
00000000: 2682 bc18 223d 07bf 3ee2 8717 3021 c599
00000010: 77fb dca2 7735 1396 5694 a21b 6ca4 591b
00000020: 7087 bb3f 28f4 9998 21cb b690 36ef 2d95
00000030: 8bff 96bf f4da 7712 e212 d11e 53dc 183f
00000040: b6ed 9e3e 39f6 1f16 ba97 2b9c 3f55 3e3f
00000050: 545e 0d19 b93b bd94 cda0 cd9c 7c03 2923
00000060: a3e7 f096 92ac 99be 3922 ce17 b572 d4be
00000070: 18c0 be10 b55a 5b98 78fb 933e 6e24 6518
00000080: 00aa c221 a045 a599 a322 8b20
4.8728277e-24 -0.52827656 8.781282e-25 -2.0382727e-23 -5.989737e-18 -1.1891436e-25 2.6896512e-22 1.8002947e-22
1.4650707 -3.9796108e-24 -7.209931e-29 -3.5125776e-26 -1.1796736 7.820934e-28 2.2136545e-20 0.5971119
0.31040734 1.2921612e-25 -5.6775256e-22 0.74348825 7.3085786e-24 -1.910768e-26 -1.3607328e-21 9.162246e-18
-3.8920275e-25 -0.30014473 1.3321077e-24 -0.41493765 7.5237753e-29 -2.8350882e-24 0.28902793 2.9615949e-24
1.319095e-18 -1.7088721e-23 2.3570437e-19

batchnorm2.bias f4 [35]
00000000: fd73 4a18 4a49 4a41 1a87 9397 9b8a 7899
00000010: 4b42 3d23 bab3 e295 d3c5 971c 8283 211c
00000020: bb60 63c0 fb50 d098 7571 c810 83b7 6d15
00000030: d6d6 19c0 6c08 7312 5f29 d41e f033 9cbf
00000040: 8da4 55be 6d21 1c16 9f5b 109e d0f3 3a3f
00000050: 43c6 1f1a 230d d014 4ce2 401c aaed 89a3
00000060: 5ca0 ed96 52dc ac3f 1ea9 4297 0132 a240
00000070: 8ee0 eb90 7294 1099 d3c5 3a40 d3e5 cf19
00000080: 96fd 44a1 8965 7219 5abd 0d20
2.6166447e-24 12.642893 -9.533757e-25 -1.2849291e-23 1.0259749e-17 -9.156423e-26 1.0043478e-21 5.34404e-22
-3.552779 -5.384851e-24 7.90609e-29 4.8006534e-26 -2.4037375 7.668766e-28 2.2463484e-20 -1.220335
-0.20863552 1.2612127e-25 -7.642243e-21 0.7302828 3.3040584e-23 2.1007814e-26 6.3819953e-22 -1.4954224e-17
-3.8390616e-25 1.3504736 -6.2898237e-25 5.068604 -9.303714e-29 -7.474604e-24 2.9183242 2.1496124e-23
-6.6743e-19 1.2531612e-23 1.2005816e-19

batchnorm2.running_mean f4 [35]
00000000: 30b3 a342 0400 0000 fd15 ee42 3b5c de42
00000010: ce32 e842 38bd ff42 8e65 f743 5df1 be42
00000020: 0400 0000 9622 1743 5198 0043 3188 bc42
00000030: 0400 0000 e8c4 e342 27a0 1c43 0400 0000
00000040: 0400 0000 981b 9a42 6cfc 0544 0400 0000
00000050: 2f36 7043 427a 1e43 13fc 9142 13c5 1643
00000060: f683 8442 0400 0000 a68d 0243 0400 0000
00000070: 4538 2442 bce9 cf42 0400 0000 cb9e 8d42
00000080: 74a5 8d43 406e 0043 cd87 0442
81.849976 6e-45 119.042946 111.18014 116.09923 127.86957 494.7934 95.47141
6e-45 151.1351 128.59499 94.266 6e-45 113.88458 156.6256 6e-45
6e-45 77.053894 535.9441 6e-45 240.21165 158.47757 72.99233 150.76982
66.25774 6e-45 130.55331 6e-45 41.05495 103.95651 6e-45 70.81014
283.2926 128.43066 33.132618

batchnorm2.running_var f4 [35]
00000000: f0a5 3045 0400 0000 f3fa ca45 53e0 b245
00000010: 60f8 a545 460a d545 43f3 d947 42fa 8d45
00000020: 0400 0000 a8d8 0546 0919 d345 f16a 6445
00000030: 0400 0000 10dc b445 a76e 1946 0400 0000
00000040: 0400 0000 3259 1a45 2b18 0248 0400 0000
00000050: 8621 c346 0a8d 2646 0fcf 0f45 6a9b 2646
00000060: cb73 ed44 0400 0000 8b4e ec45 0400 0000
00000070: a601 1e44 290c a745 0400 0000 8f1e 0c45
00000080: e2e8 0d47 9968 f345 a96f 0944
2826.371 6e-45 6495.3687 5724.0405 5311.047 6817.284 111590.52 4543.282
6e-45 8566.164 6755.1294 3654.6838 6e-45 5787.508 9819.663 6e-45
6e-45 2469.5747 133216.67 6e-45 24976.762 10659.26 2300.9412 10662.854
1899.6185 6e-45 7561.818 6e-45 632.02576 5345.52 6e-45 2241.91
36328.883 7789.0747 549.7447
