model_weights_4.pth (torch, 102603 bytes, 25 tensors)

layer1.weight f4 [75, 68]
-0.11688751 0.04092258 -0.0057163914 0.060530744 -0.05437328 -0.06008389 -0.05719838 0.03620313
-0.0418061 -0.029674618 -0.10352353 0.028077723 0.09824308 0.036410954 -0.06286747 0.007904345
0.072366774 -0.05551856 -0.058195975 0.043473613 -0.00095947576 0.03007799 -0.04150947 -0.04127106
0.065214455 0.09713776 -0.09453891 -0.094791725 0.06670702 0.11407736 0.07801306 0.051690415
-0.04148828 -0.09318656 -0.09366236 -0.041901164 -0.110848844 0.066799566 0.120298535 0.06918754
-0.0977686 -0.08751341 0.032395978 0.09310824 0.09215534 0.10706421 -0.04400404 0.05788158
0.121025376 0.075059794 -0.05680294 0.06335668 0.014334007 -0.019051602 0.01949421 0.04256501
0.028850453 0.030525355 0.11926967 0.07133353 0.081065215 -0.037715748 -0.092845626 -0.09913886
0.09452125 -0.04067623 -0.05597117 0.02170392 -0.010004867 0.058597237 -0.09725997 -0.03286125
0.07217961 0.011882545 0.04880336 0.06409705 0.052428305 -0.026746273 -0.025974035 0.107838966
-0.01688169 0.021919461 0.06614123 0.039561305 -0.013111544 0.05832066 -0.055247463 -0.015007683
0.014540052 0.023826992 0.10079883 -0.029990168 0.088728294 0.042017307 -0.02151716 -0.05202671
-0.0073332074 0.120209396 -0.091587774 0.07313477 -0.03918125 0.0025999565 -0.031935953 0.11790849
-0.05229729 -0.054516714 0.06919121 -0.08157997 0.044042755 -0.112848565 -0.113620065 -0.11579404
-0.031195227 0.06353743 0.10192046 0.050473865 0.024954017 0.075841516 -0.066755146 0.11639229
0.04931787 0.10093183 -0.012944588 -0.08023055 -0.11199932 -0.056204394 -0.027284509 -0.118171036
0.045893 0.08328965 -0.022908268 -0.10221954 -0.06959752 0.0032698591 -0.052210756 0.053346757
15.157438 -1.273552 1.5303997 -8.187109 -5.4941573 -0.056972068 -0.028355403 0.0714969
0.106767364 0.041637942 0.057527464 -0.04045598 0.050067596 -0.014669458 -0.029133232 -0.10795299
0.048879918 0.09359189 -0.09916073 -0.06743411 0.10706967 0.05602035 -0.09619624 0.03956497
-0.006438884 -0.10545115 -0.07177806 -0.072764456 -0.09308504 0.060400862 -0.029733624 0.0058998163
0.08229553 0.067314744 0.102417804 -0.027022867 -0.12139534 -0.07434204 0.004797921 0.055046562
0.014652286 0.08388787 0.10210176 -0.080885455 0.08970453 -0.010343468 -0.03508874 0.097182184
-0.018180942 0.06651398 -0.09190522 0.12442481 -0.057562962 -0.08974426 0.11624045 -0.01356893
-0.044974122 -0.058990154 -0.08978317 -0.008278473 0.066390105 -0.09503657 0.058600597 -0.07717983
-0.13936591 -0.07305494 -0.04691898 -0.10069426 -0.036659617 0.046995617 -0.07764855 0.049001437
-0.04761926 -0.07400417 0.025083616 0.07639213 0.026871277 0.118884854 0.068713315 0.05156495
-0.004775738 0.016299725 -0.007832425 0.0130516365 -0.052469954 0.041891694 0.10399149 0.08565853
0.03998646 -0.07661604 -0.0231821 0.118286096 0.013614231 0.10783489 -0.09442182 -0.040069617
-0.08096046 -0.09329284 -0.1041217 0.11390972 0.07382528 -0.06010537 0.01022917 -0.008799331
-0.019651406 0.095757805 0.102833375 -0.08456706 0.03523173 0.02875935 0.07390357 0.07885063
0.09340336 0.009809809 -0.010301494 -0.07761826 -0.117595084 0.07413381 0.02975702 -0.01119372
00000000: b862 efbd 6f9e 273d 9150 bbbb 16ef 773d
00000010: 84b6 5ebd 861a 76bd d948 6abd bc49 143d
00000020: e03c 2bbd 2f18 f3bc 2504 d4bd 4103 e63c
00000030: ab33 c93d a723 153d a9c0 80bd 3a81 013c
00000040: 0835 943d 6e67 63bd e75e 6ebd 6311 323d
00000050: 5485 7bba 1e66 f63c d605 2abd d80b 29bd
00000060: 288f 853d 29f0 c63d 9e9d c1bd 2a22 c2bd
00000070: b19d 883d 64a1 e93d 50c5 9f3d 54b9 533d
00000080: 9def 29bd 98d8 bebd 0dd2 bfbd 8ea0 2bbd
00000090: b804 e3bd 36ce 883d 145f f63d 32b2 8d3d
000000a0: e73a c8bd 3b3a b3bd a5b1 043d 88af be3d
000000b0: f0bb bc3d 7b44 db3d 953d 34bd 3c15 6d3d
000000c0: 27dc f73d f3b8 993d 33aa 68bd 26c1 813d
000000d0: 2fd9 6a3c 1b12 9cbc 52b2 9f3c a658 2e3d
000000e0: c957 ec3c 4f10 fa3c a843 f43d 5017 923d
000000f0: 8505 a63d d47b 1abd d925 bebd 5109 cbbd
00000100: 5b94 c13d 1e9c 26bd 0742 65bd 6bcc b13c
00000110: 74eb 23bc a803 703d 3c30 c7bd 8599 06bd
00000120: e7d2 933d 02af 423c 08e6 473d 5045 833d
00000130: 10bf 563d 001b dbbc 80c7 d4bc adda dc3d
00000140: 784b 8abc 7190 b33c 0e75 873d 090b 223d
00000150: cdd1 56bc a5e1 6e3d 2a4b 62bd c9e2 75bc
00000160: 6639 6e3c d330 c33c 9e6f ce3d f1ad f5bc
00000170: 2eb7 b53d 571a 2c3d c144 b0bc f619 55bd
00000180: 674b f0bb 5830 f63d 5f92 bbbd afc7 953d
00000190: 857c 20bd 0864 2a3b 46cf 02bd 027a f13d
000001a0: af35 56bd eb4c 5fbd 1fb4 8d3d 6613 a7bd
000001b0: 2d66 343d 261d e7bd a3b1 e8bd 6d25 edbd
000001c0: 228d ffbc e91f 823d adbb d03d afbd 4e3d
000001d0: 5e6c cc3c cc52 9b3d ecb6 88bd 155f ee3d
000001e0: 8901 4a3d 59b5 ce3d 8a15 54bc ea4f a4bd
000001f0: e65f e5bd 9436 66bd c383 dfbc a803 f2bd
00000200: 4cfa 3b3d c493 aa3d 1faa bbbc 7a58 d1bd
00000210: 2589 8ebd 224b 563b f2da 55bd 2182 5a3d
00000220: de84 7241 c003 a3bf 23e4 c33f 66fe 02c1
00000230: 23d0 afc0 8b5b 69bd 9749 e8bc f76c 923d
00000240: d9a8 da3d 8c8c 2a3d eba1 6b3d 2bb5 25bd
00000250: ae13 4d3d 2b58 70bc d1a8 eebc 7516 ddbd
00000260: 4f36 483d 1bad bf3d c814 cbbd e51a 8abd
00000270: 5847 db3d 9875 653d 8902 c5bd e10e 223d
00000280: 46fd d2bb c6f6 d7bd 6000 93bd 8805 95bd
00000290: 5fa3 bebd e566 773d ee93 f3bc 3f53 c13b
000002a0: 8f8a a83d 50dc 893d 6dc0 d13d 0f5f ddbc
000002b0: 1f9e f8bd a440 98bd e137 9d3b 8178 613d
000002c0: 2410 703c 67cd ab3d ba1a d13d 46a7 a5bd
000002d0: 02b7 b73d a677 29bc 36b9 0fbd 7407 c73d
000002e0: 33f0 94bc 7b38 883d ce38 bcbd 6fd2 fe3d
000002f0: 24c7 6bbd d7cb b7bd 790f ee3d 3850 5ebc
00000300: c936 38bd a99f 71bd 3de0 b7bd 6fa2 07bc
00000310: 89f7 873d 89a2 c2bd 2e07 703d 7510 9ebd
00000320: f0b5 0ebe d49d 95bd 1e2e 40bd cb38 cebd
00000330: 6528 16bd 7a7e 403d 3406 9fbd bbb5 483d
00000340: 6a0c 43bd 808f 97bd 287c cd3c 7a73 9c3d
00000350: 2721 dc3c e779 f33d 91b9 8c3d c535 533d
00000360: cb7d 9cbb 0087 853c 9253 00bc 88d6 553c
00000370: bcea 56bd a096 2b3d 7ef9 d43d bd6d af3d
00000380: d8c8 233d dfe8 9cbd 63e8 bdbc fb3f f23d
00000390: 390e 5f3c 8ad8 dc3d 3a60 c1bd 0a20 24bd
000003a0: 99ce a5bd 5110 bfbd c23d d5bd 8049 e93d
000003b0: b531 973d 0c31 76bd 4098 273c 122b 10bc
000003c0: fcfb a0bc ab1c c43d 4e9a d23d 7f31 adbd
000003d0: 264f 103d ba98 eb3c c15a 973d 707c a13d
000003e0: 434a bf3d 52b9 203c 99c7 28bc 53f6 9ebd
000003f0: b1d5 f0bd 78d3 973d fec4 f33c dd65 37bc

layer1.bias f4 [75]
0.11629554 -0.026721612 -0.06237051 -0.038595453 0.119396724 -0.11678844 -0.07451562 0.014532267
0.11284094 -0.015923068 0.05351802 0.118659295 -0.04762087 0.059357896 0.042720705 0.039329875
0.047764648 -0.022677938 -0.031522486 0.049019374 -0.029145028 0.028478421 0.0512408 0.06508672
-0.016731158 -0.101760186 0.02339382 -0.040805757 0.052978035 -0.11233611 -0.047041547 -0.09291391
0.05227361 0.019729123 -0.014953935 0.10832369 0.05235257 -0.07190135 0.057559777 -0.08820158
0.012684564 -0.04385189 0.042153746 -0.03204984 -0.053460944 -0.02495263 -0.102811985 0.10957367
-0.079965085 0.11767089 0.011437366 -0.07484416 -0.009597244 -0.051155042 0.055979107 -0.08744344
-0.08153848 -0.081521295 0.0853095 -0.010647632 0.029138215 -0.09002184 0.04718316 0.062124982
-0.008687602 -0.096333355 -0.037365817 -0.008354425 0.051757738 0.09242514 -0.080330774 0.102187954
0.06783787 -0.012052956 -0.0065901848
00000000: 5b2c ee3d 48e7 dabc 3878 7fbd 4416 1ebd
00000010: 4586 f43d c72e efbd a59b 98bd bf18 6e3c
00000020: 2719 e73d 1871 82bc b635 5b3d a503 f33d
00000030: 1a0e 43bd 4421 733d e8fb 2e3d 5d18 213d
00000040: dda4 433d 15c7 b9bc b91d 01bd 8ac8 483d
00000050: 8ec1 eebc 944b e93c e0e1 513d 304c 853d
00000060: c80f 89bc a567 d0bd 65a4 bf3c f023 27bd
00000070: 7fff 583d 7910 e6bd a3ae 40bd a649 bebd
00000080: da1c 563d f89e a13c 5901 75bc d0d8 dd3d
00000090: a66f 563d 0441 93bd cdc3 6b3d 08a3 b4bd
000000a0: ebd2 4f3c 0a9e 33bd 68a9 2c3d b146 03bd
000000b0: ddf9 5abd 7569 ccbc 178f d2bd 2968 e03d
000000c0: bcc4 a3bd 70fd f03d ca63 3b3c e547 99bd
000000d0: c23d 1dbc f387 51bd 594a 653d 8c15 b3bd
000000e0: a6fd a6bd a3f4 a6bd bfb6 ae3d 6873 2ebc
000000f0: 44b3 ee3c 5f5d b8bd 2143 413d c476 7e3d
00000100: 7256 0ebc 6c4a c5bd e60c 19bd 00e1 08bc
00000110: ecff 533d 6449 bd3d 7684 a4bd eb47 d13d
00000120: 95ee 8a3d c379 45bc 7af2 d7bb

layer2.weight f4 [75, 75]
0.19713604 0.6238779 -0.714516 -0.080350816 -0.012013044 -0.5652052 -1.1377422 -3.5692885
-1.0724308 -0.23173772 -0.34784335 -1.383251 -1.9261606 0.11513546 0.38047245 -0.22420551
0.76133454 -1.0594769 -0.73150367 -2.4424703 -1.8677211 -0.7877346 1.1848911 -0.24776365
1.5352194 -0.01384144 -1.2303473 -0.71256846 0.5982649 0.4998584 -0.7584937 4.112003
0.4903724 0.91664976 0.8107513 1.3813142 0.14416324 -0.5003285 2.7365456 -0.06630626
-0.4859641 -0.08490036 -0.6322629 0.3809503 -1.7409065 -0.16941667 2.0912724 0.4874921
-0.4162272 0.61852264 -0.6096636 1.943285 0.2085109 0.25361532 1.5895005 -0.28417158
-0.45976332 0.16657132 -0.330705 -0.57611316 -2.1942725 -0.3400776 0.59171706 0.4320703
3.0979543 1.0292885 -0.74079436 -0.4265297 0.29804885 -0.5942509 -0.031122971 -1.3358647
0.21825269 -0.16276865 0.64478606 0.08883745 0.28484288 -0.5954086 -0.16516696 -0.010749326
-0.2958544 -0.39279097 0.02122672 -0.3635212 -0.077431984 -0.1703552 -0.5751125 -0.60121024
-0.2021257 0.081012 -0.14677331 0.3352962 -0.50925857 -0.027769618 -2.3989284 -1.5188622
-0.27145943 0.68787813 -0.15079343 0.78017706 -0.1446105 -0.54653925 -0.36282802 0.41638294
0.22256976 -0.35574955 -0.32597664 0.28901008 0.22752915 0.39880568 0.35995522 -0.077939436
-0.38091692 -0.070077926 0.08937349 -0.3805891 -0.09459555 -0.42067376 0.34403738 -0.7768647
-0.19665444 0.90511376 4.990012 -0.5148439 0.12927398 -0.17812791 0.88891804 0.121012636
-0.019783685 0.73982435 -0.08275579 -0.17310807 -0.038051154 0.058852587 -0.05428412 -0.5174326
-0.09359185 0.38327006 0.16039056 0.31634396 0.48667076 -0.1988663 -0.37221915 0.24780528
-0.22492559 -0.13694665 -0.6474297 0.057808258 -0.124432884 0.24080202 0.2998178 1.5715278
-4.186772 -0.42767912 0.04954683 -1.7270491 -2.4182394 -10.920865 -2.5757601 -0.75313306
-0.790883 -3.436787 2.8427768 -0.74623245 0.82167774 -0.70985335 1.845199 -2.874194
-1.4133441 -16.085085 -4.757927 -2.1349149 -7.764768 -0.7481633 -12.943028 -0.076779276
-3.1263282 -1.66342 1.6879963 1.4215268 -2.0865135 -8.466582 1.2326214 2.0508475
1.8207734 4.644247 0.12988177 -1.2631788 8.484628 -0.13268335 -1.4525691 -0.4903809
-1.657429 1.3115803 -4.8291054 -0.79116625 4.80458 9.324804 -2.1205351 1.1970433
-1.1796969 6.5280595 0.55787015 0.8233042 5.627257 -0.94340813 -1.0923859 0.58707494
-0.44814962 -1.3589869 5.3004756 -1.2422478 1.6781732 0.87105685 10.315258 2.4964507
-1.710111 -1.2861322 0.79807836 -1.4228958 -0.23342833 -0.05680021 0.53983057 -0.7256244
1.5273763 -0.7732705 -2.6294572 3.8942351 0.5714842 -0.14644338 2.574832 3.1655362
26.13967 3.715838 1.0759438 1.2168088 4.8277006 -4.2804227 3.0590441 -1.1806266
1.129889 -2.717048 4.129034 1.563872 0.3540974 -17.211664 2.9736023 10.69728
1.2230002 6.233725 0.33367878 4.4566603 2.4277587 -2.4933589 -2.2096148 3.0762777
00000000: 08de 493e 76b6 1f3f 85ea 36bf f88e a4bd
00000010: 5cd2 44bc 4ab1 10bf 89a1 91bf 396f 64c0
00000020: 6a45 89bf a74c 6dbe 8618 b2be 5e0e b1bf
00000030: 6e8c f6bf 24cc eb3d 49cd c23e 2196 65be
00000040: d2e6 423f f09c 87bf d343 3bbf 6f51 1cc0
00000050: 7c11 efbf faa8 49bf 83aa 973f c1b5 7dbe
00000060: 1282 c43f 35c7 62bc 057c 9dbf e36a 36bf
00000070: e327 193f 71ed ff3e a52c 42bf 8795 8340
00000080: 1712 fb3e 8fa9 6a3f 668d 4f3f e7ce b03f
00000090: 879f 133e 8715 00bf 9023 2f40 94cb 87bd
000000a0: 49d0 f8be 3de0 adbd fbdb 21bf eb0b c33e
000000b0: 06d6 debf 907b 2dbe 68d7 0540 9198 f93e
000000c0: bb1b d5be 8057 1e3f ea12 1cbf 90bd f83f
000000d0: e283 553e ded9 813e c174 cb3f f07e 91be
000000e0: 1966 ebbe ac91 2a3e 2a52 a9be 277c 13bf
000000f0: f66e 0cc0 a71e aebe c57a 173f 5238 dd3e
00000100: e244 4640 babf 833f b3a4 3dbf 1a62 dabe
00000110: dc99 983e d420 18bf 9af5 febc 9dfd aabf
00000120: a27d 5f3e d3ac 26be b310 253f 69f0 b53d
00000130: edd6 913e b36c 18bf 8721 29be f11d 30bc
00000140: 3a7a 97be e61b c9be a9e3 ad3c 731f babe
00000150: a994 9ebd 9871 2ebe 933a 13bf eae8 19bf
00000160: 0afa 4ebe 9fe9 a53d be4b 16be f2ab ab3e
00000170: c55e 02bf 1c7d e3bc 0b88 19c0 146a c2bf
00000180: bbfc 8abe c818 303f 9869 1abe afb9 473f
00000190: c614 14be ffe9 0bbf 98c4 b9be 2530 d53e
000001a0: 54e9 633e ce24 b6be 69e6 a6be 21f9 933e
000001b0: 67fd 683e 4230 cc3e 0d4c b83e b69e 9fbd
000001c0: 8b07 c3be 0485 8fbd 7309 b73d 93dc c2be
000001d0: 50bb c1bd 8d62 d7be ab25 b03e 9be0 46bf
000001e0: c85f 49be 89b5 673f 2eae 9f40 cfcc 03bf
000001f0: 6660 043e 2a67 36be 2290 633f 79d5 f73d
00000200: 6511 a2bc 2165 3d3f de7b a9bd 3e43 31be
00000210: 87db 1bbd 690f 713d 0759 5ebd 7676 04bf
00000220: 15ad bfbd f93b c43e 6c3d 243e d6f7 a13e
00000230: e92c f93e 9ba3 4bbe 8293 bebe abc0 7d3e
00000240: e552 66be be3b 0cbe f4bd 25bf 5ac8 6c3d
00000250: abd6 febd ce94 763e b881 993e d327 c93f
00000260: 09fa 85c0 c2f8 dabe 9ef1 4a3d f20f ddbf
00000270: 6fc4 1ac0 ddbb 2ec1 41d9 24c0 54cd 40bf
00000280: 4f77 4abf 51f4 5bc0 0ef0 3540 1709 3fbf
00000290: 7959 523f f3b8 35bf 7b2f ec3f cbf2 37c0
000002a0: 76e8 b4bf 41ae 80c1 f040 98c0 72a2 08c0
000002b0: fb78 f8c0 a187 3fbf a516 4fc1 743e 9dbd
000002c0: c315 48c0 f2ea d4bf 4310 d83f 97f4 b53f
000002d0: 7089 05c0 1f77 07c1 8ac6 9d3f 1641 0340
000002e0: 1a0f e93f ac9d 9440 baff 043e d8af a1bf
000002f0: 09c1 0741 25de 07be c9ed b9bf 3513 fbbe
00000300: a226 d4bf dde1 a73f 0888 9ac0 df89 4abf
00000310: 1fbf 9940 6632 1541 d9b6 07c0 b738 993f
00000320: 4f00 97bf dde5 d040 94d0 0e3f 10c4 523f
00000330: 7d12 b440 3283 71bf 4dd3 8bbf 8b4a 163f
00000340: de73 e5be 48f3 adbf 7f9d a940 fa01 9fbf
00000350: 61ce d63f 95fd 5e3f 4c0b 2541 d9c5 1f40
00000360: ebe4 dabf fb9f a4bf dd4e 4c3f 7321 b6bf
00000370: d607 6fbe 56a7 68bd 5632 0a3f 85c2 39bf
00000380: 1181 c33f 0ef5 45bf 0749 28c0 263b 7940
00000390: ca4c 123f 41f5 15be 0cca 2440 2598 4a40
000003a0: 0b1e d141 4ad0 6d40 87b8 893f 64c0 9b3f
000003b0: 867c 9a40 39f9 88c0 61c7 4340 c61e 97bf
000003c0: 34a0 903f 1de4 2dc0 0c21 8440 f52c c83f
000003d0: 414c b53e 7db1 89c1 804f 3e40 0f28 2b41
000003e0: 458b 9c3f ad7a c740 f2d7 aa3e f69c 8e40
000003f0: 6660 1b40 3193 1fc0 546a 0dc0 bce1 4440

layer2.bias f4 [75]
-0.03334867 0.30547428 -0.8149786 0.22303563 0.16219617 -0.5004371 0.10371496 -0.5529014
0.14482994 -0.3009326 -0.19351332 0.17181276 0.2009586 0.025016338 0.00981151 -0.54392284
0.12093791 0.30087194 -0.6271958 0.010199004 -0.68216485 0.103092395 0.27051973 -0.051548623
-0.22800472 -4.6551394 0.15413046 0.27051082 0.23286755 0.11803815 -0.18815385 0.099348426
0.21811232 -0.13851255 0.5733236 -0.7178414 -0.9205721 -0.31379038 0.67954004 -0.58020955
-0.17057465 -0.55565494 -0.10260104 -0.026947532 -0.3050879 0.012880505 0.41766515 -0.015217959
-0.14122815 -0.074091494 -0.64920115 1.020716 -0.53646636 -0.32892987 0.10619651 -1.3469304
-0.32410225 -0.0070009218 -0.20327835 -46.606434 -0.35577905 -1.0314636 0.081988424 0.44609088
-0.20186746 -0.115103394 0.19220518 -0.65706444 0.015106547 -0.064728945 -0.43729946 0.14742917
-0.31549525 0.705918 -0.1461227
00000000: 9d98 08bd 2067 9c3e 70a2 50bf 7463 643e
00000010: c116 263e a51c 00bf 8268 d43d f28a 0dbf
00000020: 4d4e 143e d613 9abe 5b28 46be afef 2f3e
00000030: 17c8 4d3e 10ef cc3c 75c0 203c 873e 0bbf
00000040: 4cae f73d e30b 9a3e e78f 20bf b919 273c
00000050: 5ba2 2ebf 1b22 d33d 9081 8a3e a624 53bd
00000060: 127a 69be e7f6 94c0 60d4 1d3e 6580 8a3e
00000070: d574 6e3e fcbd f13d 67ab 40be 3077 cb3d
00000080: d658 5f3e 3cd6 0dbe 56c5 123f 74c4 37bf
00000090: 9daa 6bbf 22a9 a0be 56f6 2d3f 9d88 14bf
000000a0: 1fab 2ebe 673f 0ebf 7e20 d2bd 12c1 dcbc
000000b0: 7b34 9cbe c108 533c 35d8 d53e bf54 79bc
000000c0: 1d9e 10be 48bd 97bd 0c32 26bf d2a6 823f
000000d0: dc55 09bf 7f69 a8be 8e7d d93d 3768 acbf
000000e0: bbf0 a5be fd67 e5bb 3328 50be fd6c 3ac2
000000f0: ac28 b6be 0007 84bf 8ce9 a73d 0666 e43e
00000100: 58b6 4ebe 54bb ebbd 6fd1 443e 6035 28bf
00000110: 7381 773c 9c90 84bd b7e5 dfbe acf7 163e
00000120: 9888 a1be 0bb7 343f 30a1 15be

layer3.weight f4 [75, 75]
-0.1667731 -0.7907905 -0.07435375 -0.09784087 0.057717383 0.16869576 0.31088984 0.07223303
0.15727882 -0.34170252 -0.080074675 0.051948033 -0.17310849 0.022346813 0.12036441 -0.12346462
0.08416288 0.54235864 0.06275105 -0.5385146 0.12910855 -0.5186658 -0.12699503 -0.42031538
-0.07150149 -0.26199988 0.2064151 0.20133139 -0.79441375 -1.0334771 0.08777586 -0.15960568
-0.05000526 0.058822885 0.120504916 -0.15313314 -0.25045124 -0.24810119 0.3888787 0.013935595
-0.19300339 -0.08216553 0.095443524 -0.034919705 0.015805108 0.06295989 0.17641495 0.09692584
-0.14366598 -0.0015644818 -0.32660255 -0.68028104 -0.10608154 0.13318214 -0.38373807 0.32561207
-0.12602662 0.09531146 -0.053369306 -0.85358596 -1.0423219 -0.8580645 -0.61859506 0.84950197
0.24440995 -1.0272217 -0.008319199 -0.0036280914 -0.9890818 0.36374694 -0.10571008 0.2754056
-0.034391824 -0.45240745 0.26968524 0.4893574 1.337336 1.9596885 -0.6221524 -1.4520935
0.11099069 -0.56203574 1.9233418 0.1186349 -1.2306706 0.5296213 1.141084 -1.1565101
0.14219327 -0.4008846 0.18943788 0.33017415 1.6493616 0.40246138 -0.032145713 0.8265788
-0.61243546 0.33956456 3.2031832 -0.80199033 3.3844974 -2.6090574 -2.1648295 -1.6996915
-0.41833875 0.76868695 0.38657212 -0.006435225 1.2918292 -1.9986573 0.50313956 2.423502
0.78150505 -0.007661061 1.6815556 0.22658415 -0.04152867 0.09260905 -2.0673292 -0.024361273
0.98579407 2.3109095 -0.20896858 -0.2267069 2.0586505 1.9338835 1.141539 1.0161985
0.41171768 0.45756215 0.5054283 0.23740968 -2.40072 2.3182647 2.9690475 -0.48232234
1.0367846 -1.7298578 0.12788501 -1.7841427 0.9769073 -0.27382204 0.13683152 0.41817293
0.3036779 0.0934656 1.5799062 -0.15507674 -0.4211358 0.29551104 -0.11650366 -2.5834074
-0.26090014 -0.6145592 0.69843596 0.9831753 0.95595914 -0.019490642 0.20900853 0.6161002
1.0432247 0.014589081 -1.1680082 0.08588647 0.13609125 0.3016573 -0.10938134 -1.9853648
0.2832711 2.2723455 0.14913203 -3.0361626 0.4247642 -0.17600372 -0.53125316 -0.23741476
-0.098674804 -1.3945695 -0.2015448 -0.8753925 1.2290761 1.2413957 -0.102905534 1.262319
-1.506445 0.5586764 0.004485682 0.31062245 2.3415031 0.9807283 0.6262668 0.5051109
0.45924675 -2.0477977 0.2578025 -1.3735435 1.1404501 0.41274145 -0.08408858 -1.1110258
1.2355803 -2.2138295 0.36468962 0.15040508 -1.2446849 0.011101617 0.6196937 0.90730566
-1.9613649 -1.7906754 -1.703634 0.6499257 2.723129 0.011667504 0.7580558 0.08200501
-0.0786603 0.33830735 -0.46389374 0.2556467 0.20367685 -0.31902227 1.0031552 -0.032168087
0.3492739 0.32874563 0.59399873 -0.2454895 -0.6367194 -0.19244939 -0.24515693 0.6780822
0.101329274 0.3437113 -0.1953995 -0.8684115 -0.33810106 -0.069578275 0.1486168 -0.21130715
-0.2035164 -0.013699025 0.55712706 -0.09542631 -0.78333634 -0.09308111 0.75482595 -0.20880273
0.22003263 0.3773549 -0.19813737 0.11686119 0.93758094 -0.33728355 -0.62496835 0.09694615
00000000: 91c6 2abe 3f71 4abf c746 98bd cb60 c8bd
00000010: 1069 6c3d 95be 2c3e f42c 9f3e e9ee 933d
00000020: b30d 213e a2f3 aebe 31fe a3bd 76c7 543d
00000030: 5a43 31be aa10 b73c 9e81 f63d 05db fcbd
00000040: 975d ac3d 04d8 0a3f 9f83 803d 18dc 09bf
00000050: 0835 043e 48c7 04bf fc0a 02be 9433 d7be
00000060: 606f 92bd d924 86be 7b5e 533e d129 4e3e
00000070: b35e 4bbf fa48 84bf d5c3 b33d ac6f 23be
00000080: 51d2 4cbd 44f0 703d 48cb f63d efce 1cbe
00000090: 253b 80be 3d0e 7ebe 1c1b c73e 1f52 643c
000000a0: aea2 45be 6746 a8bd e577 c33d f707 0fbd
000000b0: b779 813c 1df1 803d 1fa6 343e 0e81 c63d
000000c0: 2d1d 13be 4c0f cdba 7338 a7be e626 2ebf
000000d0: 4741 d9bd e660 083e 5179 c4be a0b6 a63e
000000e0: 1f0d 01be a832 c33d c699 5abd 9c84 5abf
000000f0: ce6a 85bf 1daa 5bbf 3f5c 1ebf f678 593f
00000100: 9a46 7a3e 007c 83bf 404d 08bc 46c5 6dbb
00000110: 7734 7dbf 0a3d ba3e 877e d8bd f601 8d3e
00000120: 71de 0cbd f3a1 e7be 2f14 8a3e 0e8d fa3e
00000130: d32d ab3f 13d7 fa3f 6145 1fbf 33de b9bf
00000140: 164f e33d 93e1 0fbf 1030 f63f dbf6 f23d
00000150: 9d86 9dbf 4395 073f 0a0f 923f 8608 94bf
00000160: 1d9b 113e bf40 cdbe 01fc 413e 960c a93e
00000170: 481e d33f 6b0f ce3e 39ab 03bd ab9a 533f
00000180: 92c8 1cbf 68db ad3e f400 4d40 3d4f 4dbf
00000190: 9b9b 5840 ccfa 26c0 918c 0ac0 7e8f d9bf
000001a0: 7f30 d6be abc8 443f c8ec c53e 94de d2bb
000001b0: a95a a53f 01d4 ffbf c1cd 003f a81a 1b40
000001c0: b710 483f a309 fbbb 373d d73f ad05 683e
000001d0: f719 2abd d0a9 bd3d 1f4f 04c0 4b91 c7bc
000001e0: 005d 7c3f f1e5 1340 dcfb 55be db25 68be
000001f0: eec0 0340 7f89 f73f f31d 923f cb12 823f
00000200: a9cc d23e 9645 ea3e c063 013f 861b 733e
00000210: 65a5 19c0 735e 1440 e004 3e40 f4f2 f6be
00000220: 5cb5 843f fb6b ddbf 4af4 023e ca5e e4bf
00000230: 9916 7a3f 6732 8cbe 901d 0c3e c31a d63e
00000240: ab7b 9b3e e46a bf3d 5e3a ca3f 70cc 1ebe
00000250: 1d9f d7be 394d 973e 7999 eebd 8c56 25c0
00000260: b494 85be c053 1dbf b3cc 323f 60b1 7b3f
00000270: bdb9 743f d7aa 9fbc 5506 563e beb8 1d3f
00000280: 6388 853f 0a07 6f3c 4b81 95bf 3fe5 af3d
00000290: 815b 0b3e d372 9a3e 5303 e0bd 6f20 febf
000002a0: e908 913e 1c6e 1140 11b6 183e 7d50 42c0
000002b0: b17a d93e 523a 34be 3500 08bf db1c 73be
000002c0: 0416 cabd 4181 b2bf c361 4ebe b919 60bf
000002d0: 5e52 9d3f 0ee6 9e3f 23c0 d2bd ab93 a13f
000002e0: 31d3 c0bf 6b05 0f3f a1fc 923b e809 9f3e
000002f0: 30db 1540 0311 7b3f 0553 203f f34e 013f
00000300: 6422 eb3e 1e0f 03c0 b0fe 833e 46d0 afbf
00000310: 45fa 913f d952 d33e a236 acbd 1836 8ebf
00000320: 7f27 9e3f 62af 0dc0 99b8 ba3e ca03 1a3e
00000330: d651 9fbf 8ee3 353c 3fa4 1e3f 2f45 683f
00000340: 010e fbbf da34 e5bf ae10 dabf 8861 263f
00000350: bf47 2e40 0f29 3f3c f20f 423f 3ef2 a73d
00000360: a718 a1bd 9f36 ad3e 7b83 edbe 20e4 823e
00000370: aa90 503e e356 a3be 6467 803f afc2 03bd
00000380: 07d4 b23e 5951 a83e 4d10 183f 9961 7bbe
00000390: 0b00 23bf 7411 45be 6b0a 7bbe cc96 2d3f
000003a0: b985 cf3d edfa af3e ce16 48be 3750 5ebf
000003b0: 951b adbe 0e7f 8ebd 012f 183e e760 58be
000003c0: 9a66 50be e071 60bc e19f 0e3f df6e c3bd
000003d0: bb88 48bf 4fa1 bebd 463c 413f 62d0 55be
000003e0: 3c50 613e a934 c13e 86e4 4abe eb54 ef3d
000003f0: 4e05 703f 6eb0 acbe edfd 1fbf b48b c63d

layer3.bias f4 [75]
0.1846056 -0.8728477 -0.8377627 0.22558378 0.20695145 0.3717774 0.20208399 0.023775462
0.20125587 0.322921 0.09479465 0.29505554 0.28054765 0.39126015 8.69552 1.9824576
-0.24129082 -0.38161498 0.072317936 0.24899834 0.20586902 -0.36168575 0.07343152 0.22569586
0.14186502 -0.1370489 0.35995826 -0.12978813 -0.70360863 -0.09502872 -0.039048485 -0.14261866
0.39894494 0.099894546 -0.115844354 -0.4650958 -4.723677 0.14862187 0.4479478 0.06752716
0.07953881 -0.32196057 -0.057060704 0.56705886 -1.3846482 1.4012291 -0.16684698 0.34757793
0.6928764 -0.0037823897 -0.041547615 0.089989685 0.7878177 -0.2196163 -0.56117135 -0.42930698
-0.12830035 0.3194385 1.196007 -0.15050569 -0.67496616 -0.44036043 0.66415113 -0.16447754
-1.2110254 0.1940249 0.32723185 0.40876374 0.14702006 0.2800885 -0.7305815 0.2921478
0.009685755 -0.5029076 -0.16191413
00000000: 4009 3d3e f272 5fbf 9e77 56bf 6fff 663e
00000010: 15eb 533e 9b59 be3e 1bef 4e3e c2c4 c23c
00000020: 0516 4e3e e755 a53e b323 c23d 8511 973e
00000030: f1a3 8f3e 4053 c83e da20 0b41 2cc1 fd3f
00000040: f114 77be 0a63 c3be 6d1b 943d 6cf9 7e3e
00000050: 54cf 523e e02e b9be 4463 963d d11c 673e
00000060: 1045 113e 8c56 0cbe 734c b83e 2ee7 04be
00000070: b21f 34bf 6b9e c2bd 4ef1 1fbd a00a 12be
00000080: 8342 cc3e 8395 cc3d ce3f edbd 0921 eebe
00000090: 5d28 97c0 5530 183e 6a59 e53e ae4b 8a3d
000000a0: 3ee5 a23d 04d8 a4be 7cb8 69bd c52a 113f
000000b0: 273c b1bf 7a5b b33f efd9 2abe bcf5 b13e
000000c0: 5960 313f f8e1 77bb d52d 2abd 834c b83d
000000d0: 6cae 493f 18e3 60be eda8 0fbf 20ce dbbe
000000e0: 2b61 03be 718d a33e c216 993f 2a1e 1abe
000000f0: 95ca 2cbf ec76 e1be cf05 2a3f cd6c 28be
00000100: e102 9bbf 77ae 463e ef8a a73e 7b49 d13e
00000110: 6d8c 163e c367 8f3e 6407 3bbf 6594 953e
00000120: 00b1 1e3c 8dbe 00bf d1cc 25be

layer4.weight f4 [75, 75]
-0.50677305 -1.3961616 0.12096663 -0.043299776 0.8756334 -0.3706491 -0.26337522 -0.28213808
-1.2947379 0.021701878 0.8580267 -0.40235278 -0.48873878 -0.003557735 1.0086272 -0.4736568
-0.36349964 -0.07000218 -0.8567941 -0.36673176 -0.25509986 -0.2172583 -0.22426158 0.1539788
-0.38876292 1.0073813 -0.8784609 1.018032 -0.09574583 0.7491042 2.0443566 -0.02577554
1.0051414 -0.29709855 -0.028356036 0.41691396 -0.84865683 -0.5766903 -0.20520169 -0.19601567
-0.19112659 0.7828369 0.52980816 0.19587947 -0.22601295 -0.2231052 0.42206597 0.82799417
-0.35901913 -0.58305514 0.37149492 -1.1410872 -1.242754 -0.14033253 -1.295173 0.06977078
-0.39720505 -0.30373603 -0.3057858 0.20938838 -0.48216358 1.2210046 -0.3910807 0.8088725
-1.376041 -0.15584329 0.19562477 -0.27830794 0.21745542 0.095981 -0.009165776 0.26405486
-0.3813947 -0.49860692 -0.12791733 -0.32438782 -1.458288 -0.19227386 -0.3382047 0.3420598
-1.0644109 -0.20112886 -0.16704535 -1.2068614 -0.30095038 0.05674647 -0.35465583 -0.6896945
-0.61478376 0.5769835 -0.2234731 -0.18780665 -0.11568792 -0.5994081 -0.059519548 -0.3121838
-0.045842417 -0.4286027 -0.15996292 -0.5335266 0.86181235 -0.88843966 -0.10142182 -0.1832309
0.02040015 1.8963798 -0.07202088 -0.6163043 -0.022455314 -0.43173027 -0.78495073 -0.6793088
-1.5355924 0.15762608 -0.97186834 -0.44099677 0.40650535 0.12915988 0.21642853 -0.4109105
-0.2582949 0.18065561 0.31525898 -0.029476529 -0.46646896 0.24658921 -1.6893206 -1.13457
-0.009156248 -1.4644402 -0.103559524 -0.11180242 -0.21614927 -0.4034373 0.18894964 -0.70098567
0.24807917 0.03979322 0.42496943 0.061468087 -0.32778165 0.6879081 0.29963043 -0.18053997
-0.10368615 -0.26191637 -0.026869778 -0.4122442 -0.88328564 -0.056645248 -0.46671277 -1.5182095
0.026837952 -0.28962955 0.3740799 -0.84650934 -0.24535964 -0.09388103 -0.9837482 -0.50450957
0.21049356 -0.31813172 -0.49851575 -0.3117708 1.4869105 0.20469986 -0.3384926 0.24401546
-0.5977886 -0.055981558 -0.3673977 -0.33596283 -0.21079051 -0.10999634 -0.41025886 0.50575745
-0.69755644 0.0666148 -0.29416946 0.18491666 2.1052475 -0.0648316 -0.5300486 -0.12001633
-0.24989724 -0.356491 -0.37787664 -0.7743408 0.28309762 -0.7029283 -0.28166848 0.5744889
0.15714182 -0.13031264 -0.2679288 -0.25789443 0.30544707 0.7892606 -0.26406574 -0.5600816
0.20521684 -1.6291674 -1.1392637 0.06897436 -0.8170163 0.09004464 0.09552158 -0.3459682
-0.5125997 0.018849751 -0.25770488 0.37192312 0.36012527 0.3250174 -0.47021106 0.049321823
0.6517264 0.06744533 -0.009589677 -0.020639608 0.15006636 0.22107387 -0.27145755 -0.8975818
-0.24354352 0.45353073 0.19069405 -0.13744459 0.1087263 0.037313696 -0.13125862 0.7785743
0.009939413 0.18178561 -0.46016523 0.14789155 0.52607983 0.18498981 0.09886955 -0.05620559
-0.21456951 0.12084458 -0.34677395 0.23716885 0.28083962 0.17303434 0.14245689 -0.09479295
0.57509965 0.58355427 0.32820165 0.618988 0.25126877 0.25959232 0.15938348 0.13035417
00000000: e1bb 01bf 6cb5 b2bf 5abd f73d 1b5b 31bd
00000010: 8329 603f b8c5 bdbe 1ed9 86be 6774 90be
00000020: f9b9 a5bf 23c8 b13c a3a7 5b3f 2f01 cebe
00000030: f83b fabe e328 69bb b21a 813f 2583 f2be
00000040: a01c babe 4e5d 8fbd dc56 5bbf 44c4 bbbe
00000050: 739c 82be f678 5ebe d4a4 65be 9eac 1d3e
00000060: ef0b c7be dff1 803f d0e2 60bf df4e 823f
00000070: 6416 c4bd 4bc5 3f3f bdd6 0240 3a27 d3bc
00000080: 79a8 803f 4d1d 98be eb4a e8bc bf75 d53e
00000090: 9341 59bf faa1 13bf 6420 52be 55b8 48be
000000a0: b0b6 43be 0068 483f 82a1 073f a194 483e
000000b0: f06f 67be b175 64be 0819 d83e 6df7 533f
000000c0: 5bd1 b7be 1a43 15bf 9534 be3e 250f 92bf
000000d0: 9012 9fbf 55b3 0fbe 3bc8 a5bf fce3 8e3d
000000e0: 765e cbbe 4a83 9bbe f58f 9cbe e869 563e
000000f0: 25de f6be e149 9c3f bb3b c8be 4512 4f3f
00000100: 1d22 b0bf 6295 1fbe dc51 483e 617e 8ebe
00000110: a2ac 5e3e b091 c43d 0d2c 16bc 3332 873e
00000120: 2b46 c3be 6849 ffbe c3fc 02be 2916 a6be
00000130: 2ea9 babf 70e3 44be 2b29 adbe 7622 af3e
00000140: 9e3e 88bf b9f4 4dbe f00d 2bbe 6f7a 9abf
00000150: 2b16 9abe fd6e 683d 7395 b5be d28f 30bf
00000160: 7862 1dbf 31b5 133f 22d6 64be 6350 40be
00000170: caed ecbd cf72 19bf c5ca 73bd 8ed6 9fbe
00000180: 42c5 3bbd d071 dbbe 52cd 23be 3395 08bf
00000190: bc9f 5c3f c870 63bf 3eb6 cfbd e2a0 3bbe
000001a0: 371e a73c 93bc f23f af7f 93bd 1ec6 1dbf
000001b0: 35f4 b7bc c00b ddbe 88f2 48bf 2ee7 2dbf
000001c0: 4b8e c4bf bb68 213e 5dcc 78bf 54ca e1be
000001d0: 7821 d03e 7d42 043e 719f 5d3e dc62 d2be
000001e0: 3b3f 84be c9fd 383e a069 a13e c378 f1bc
000001f0: 05d5 eebe e281 7c3e a83b d8bf 9739 91bf
00000200: 1604 16bc c772 bbbf 0417 d4bd abf8 e4bd
00000210: 3c56 5dbe 558f cebe 047c 413e cc73 33bf
00000220: 7708 7e3e 37fe 223d 9895 d93e f6c5 7b3d
00000230: ffd2 a7be bf1a 303f 2969 993e 78df 38be
00000240: 6759 d4bd e719 86be 021e dcbc ac11 d3be
00000250: 021f 62bf d904 68bd faf4 eebe b054 c2bf
00000260: 44db db3c 534a 94be 6787 bf3e d6b4 58bf
00000270: 8f3f 7bbe b344 c0bd ecd6 7bbf 8a27 01bf
00000280: a08b 573e 29e2 a2be 753d ffbe 6ca0 9fbe
00000290: 1553 be3f d79c 513e e74e adbe 30df 793e
000002a0: ac08 19bf eb4c 65bd 8d1b bcbe 5203 acbe
000002b0: 78d9 57be c345 e1bd 730d d2be 5279 013f
000002c0: 0f93 32bf 576d 883d 619d 96be cb5a 3d3e
000002d0: 60bc 0640 6ec6 84bd 44b1 07bf 1fcb f5bd
000002e0: 10e5 7fbe fd85 b6be 0c79 c1be 333b 46bf
000002f0: 2cf2 903e 1cf3 33bf da36 90be b411 133f
00000300: c9e9 203e ad70 05be f72d 89be bd0a 84be
00000310: 8f63 9c3e fc0c 4a3f a033 87be 8261 0fbf
00000320: 5d24 523e 8f88 d0bf 65d3 91bf 6e42 8d3d
00000330: fb27 51bf 5369 b83d d1a0 c33d be22 b1be
00000340: bc39 03bf cb6a 9a3c e5f1 83be b56c be3e
00000350: 5762 b83e ae68 a63e 81bf f0be ae05 4a3d
00000360: 8bd7 263f c720 8a3d 051e 1dbc 6514 a9bc
00000370: ffaa 193e 3061 623e 7cfc 8abe ecc7 65bf
00000380: 7963 79be 2e35 e83e 4d45 433e 46be 0cbe
00000390: e5ab de3d 3fd6 183d a968 06be a550 473f
000003a0: ebd8 223c 0226 3a3e c79a ebbe e270 173e
000003b0: 2bad 063f f86d 3d3e 1e7c ca3d d537 66bd
000003c0: 1cb8 5bbe 5d7d f73d 5b8c b1be 64dc 723e
000003d0: 36ca 8f3e ea2f 313e 38e0 113e ce22 c2bd
000003e0: bb39 133f d063 153f 0c0a a83e ff75 1e3f
000003f0: 4da6 803e 49e9 843e 6c35 233e 907b 053e

layer4.bias f4 [75]
0.04015489 0.3062447 0.052413043 -0.09666486 0.13824852 -0.05038411 0.32381943 -0.3871285
0.31389126 0.111521326 0.5368186 -0.6698058 0.4440311 0.085633956 0.1357692 0.22902495
-1.3183707 -0.10911244 -0.0465978 -2.82454 -0.29862925 0.082144834 0.13987228 0.21267465
0.086364284 0.13085361 0.004130004 0.114555806 0.29978362 -0.093786485 -0.1676239 0.67408574
-2.0807006 -0.5355691 0.4729623 0.121574216 0.106018394 -0.13295086 -0.18324995 0.20772664
-0.22689165 -0.5019785 0.6873941 -0.12026895 0.26226172 0.25481734 0.47286183 0.45342237
0.34664905 0.3606462 0.16531129 0.3994523 -2.7884827 -0.14722718 -0.16121393 -0.062430695
0.068959884 -0.10440995 0.2744596 0.057106104 0.19171047 0.029397028 0.41689903 0.20124438
0.1967976 0.017389735 0.32668605 0.23132613 -0.009099023 0.31634423 -0.16444814 0.08399847
-0.6848938 -0.2284217 -0.1703045
00000000: 7479 243d 1bcc 9c3e 0faf 563d 3af8 c5bd
00000010: 0591 0d3e 925f 4ebd a9cb a53e b535 c6be
00000020: 5bb6 a03e 4b65 e43d f26c 093f 6578 2bbf
00000030: 0b58 e33e db60 af3d 1507 0b3e 8485 6a3e
00000040: 5fc0 a8bf 5876 dfbd 56dd 3ebd 43c5 34c0
00000050: efe5 98be 8d3b a83d ae3a 0f3e 62c7 593e
00000060: c2df b03d 7dfe 053e fc54 873b 3c9c ea3d
00000070: 3d7d 993e 2113 c0bd 9aa5 2bbe e290 2c3f
00000080: 332a 05c0 0e1b 09bf 1d28 f23e e7fb f83d
00000090: 2c20 d93d 4524 08be e0a5 3bbe 4bb6 543e
000000a0: 4956 68be aa81 00bf 0ff9 2f3f 914f f6bd
000000b0: 2b47 863e 6b77 823e f21a f23e fa26 e83e
000000c0: fc7b b13e 9ea6 b83e 5d47 293e 0385 cc3e
000000d0: 8076 32c0 b9c2 16be 4415 25be 54b7 7fbd
000000e0: d73a 8d3d e2d4 d5bd f885 8c3e 17e8 693d
000000f0: c04f 443e 09d2 f03c ca73 d53e 0213 4e3e
00000100: 4f85 493e eb74 8e3c 6543 a73e c2e0 6c3e
00000110: 1214 15bc dff7 a13e 1865 28be 6407 ac3d
00000120: 3355 2fbf 61e7 69be 4e64 2ebe

layer8.weight f4 [1, 75]
-1.571045 -1.375761 -1.4762696 4.573359 -1.345249 -1.8946638 1.6058923 -3.9096735
1.4781398 4.2796803 1.3788992 2.9242191 1.7269166 3.0841763 -1.1281214 2.8615508
-4.11973 3.015459 -1.8220377 2.9171045 -3.9166598 2.5175283 1.879402 -1.7344816
-1.7682908 1.3529503 -1.3986574 -1.433374 -1.7294593 -4.779341 -1.68143 3.1692836
-3.1680896 4.1933947 1.9741564 -1.3212105 0.9729614 -1.6607758 4.322358 3.5249321
-2.0768666 3.535118 3.013761 -2.705856 2.3510656 -4.600854 4.883496 2.9287562
3.6053472 2.9904976 1.9176276 1.4627144 2.524928 -5.143929 -4.7639947 -1.5963624
2.3912258 -4.93741 4.5263996 3.8667061 5.3479996 -1.6159632 3.12902 4.994558
1.5081648 -1.8616493 2.0153005 2.0384321 -1.4026889 1.3929713 -4.127702 2.1697035
-2.7913816 -5.123368 -3.2769341
00000000: 0118 c9bf f018 b0bf 67f6 bcbf f558 9240
00000010: 1f31 acbf 5884 f2bf e18d cd3f 1738 7ac0
00000020: af33 bd3f 24f3 8840 c57f b03f 6826 3b40
00000030: 9a0b dd3f 2563 4540 4866 90bf a623 3740
00000040: d4d4 83c0 48fd 4040 8838 e9bf d7b1 3a40
00000050: 8eaa 7ac0 2f1f 2140 3f90 f03f 7e03 debf
00000060: 5a57 e2bf 7a2d ad3f 3507 b3bf cd78 b7bf
00000070: ec5e ddbf 5df0 98c0 1939 d7bf 8bd5 4a40
00000080: fbc1 4ac0 4a30 8640 28b1 fc3f 6d1d a9bf
00000090: 0014 793f 4d94 d4bf c250 8a40 7d98 6140
000000a0: 62eb 04c0 603f 6240 76e1 4040 bf2c 2dc0
000000b0: dc77 1640 323a 93c0 9945 9c40 be70 3b40
000000c0: 02be 6640 5064 3f40 d274 f53f 3a3a bb3f
000000d0: 6c98 2140 119b a4c0 a572 98c0 9a55 ccbf
000000e0: d809 1940 43ff 9dc0 44d8 9040 1d78 7740
000000f0: d022 ab40 e2d7 cebf dd41 4840 6bd3 9f40
00000100: 8b0b c13f 864a eebf affa 0040 ac75 0240
00000110: 4f8b b3bf e24c b23f 2316 84c0 6cdc 0a40
00000120: ffa5 32c0 a1f2 a3c0 4ab9 51c0

batchnorm1.weight f4 [75]
1.0 1.0 1.9338893 1.0 1.0 1.0 1.0523982 -35.181698
1.0 1.0 1.0 1.0267812 -13.581524 4.9177747 1.0 1.0
1.0 1.0 0.9885342 -8.498809 -24.18557 1.0 0.20748426 1.0
-4.168921 1.0 0.55981 1.0 1.0 1.0 1.0 -28.089409
1.0 1.0 1.0 -0.85399073 1.0 1.0 -38.773907 1.0
1.0 1.0 1.0 1.0 0.59087557 1.0 0.6886145 -28.903019
0.06603259 1.0 1.0 -2.743868 1.0 1.0 -4.334796 1.0
1.0 1.0 1.0 1.0006417 -15.485373 1.0 1.0 1.0
-30.055702 1.0 1.0726795 1.0 1.0 1.0 1.0 8.11671
1.0 1.0 1.0
00000000: 0000 803f 0000 803f af89 f73f 0000 803f
00000010: 0000 803f 0000 803f fcb4 863f 0fba 0cc2
00000020: 0000 803f 0000 803f 0000 803f 916d 833f
00000030: ec4d 59c1 695e 9d40 0000 803f 0000 803f
00000040: 0000 803f 0000 803f 9410 7d3f 1ffb 07c1
00000050: 0c7c c1c1 0000 803f c176 543e 0000 803f
00000060: cd67 85c0 0000 803f b54f 0f3f 0000 803f
00000070: 0000 803f 0000 803f 0000 803f 1cb7 e0c1
00000080: 0000 803f 0000 803f 0000 803f 239f 5abf
00000090: 0000 803f 0000 803f 7b18 1bc2 0000 803f
000000a0: 0000 803f 0000 803f 0000 803f 0000 803f
000000b0: 9f43 173f 0000 803f 0a49 303f 6239 e7c1
000000c0: 183c 873d 0000 803f 0000 803f 899b 2fc0
000000d0: 0000 803f 0000 803f a6b6 8ac0 0000 803f
000000e0: 0000 803f 0000 803f 0000 803f 0715 803f
000000f0: 16c4 77c1 0000 803f 0000 803f 0000 803f
00000100: 1472 f0c1 0000 803f 904d 893f 0000 803f
00000110: 0000 803f 0000 803f 0000 803f 0bde 0141
00000120: 0000 803f 0000 803f 0000 803f

batchnorm1.bias f4 [75]
-0.8733168 -3.458092 7.346637 0.6825314 -0.008482529 3.6648145 6.207301 -14.627366
5.971277 1.4235574 1.4399006 8.15378 6.609036 -4.797331 -1.9540242 1.5061219
-4.3989315 6.547165 3.6567929 11.494337 8.289235 4.950719 2.8492389 1.7656558
1.2379837 0.21532215 7.351024 3.634081 -3.446636 -3.0569015 4.8671904 -14.965619
-2.4938738 -4.837242 -4.233406 -10.214415 -0.511508 2.4296792 -16.146957 0.18932793
3.0986133 1.1067702 3.6075928 -2.669433 11.074875 1.4017341 -11.149849 -12.113154
4.803524 -3.038987 2.9465659 -14.013836 -1.0242687 -2.028795 -11.871204 2.0198102
2.3232327 -1.4185332 1.349325 3.4302554 7.5047207 2.5993195 -3.751935 -2.074146
12.340835 -5.552623 4.450456 2.7795274 -1.5689559 2.9545424 0.6094911 0.8758006
-1.2400657 1.6287024 -3.1656625
00000000: b191 5fbf 6151 5dc0 a617 eb40 61ba 2e3f
00000010: 4efa 0abc 528c 6a40 36a2 c640 b109 6ac1
00000020: b414 bf40 2137 b63f aa4e b83f e275 0241
00000030: 397d d340 bc83 99c0 771d fabf 9ac8 c03f
00000040: 0cc4 8cc0 6082 d140 e508 6a40 cee8 3741
00000050: b5a0 0441 4a6c 9e40 ee59 3640 0201 e23f
00000060: 4076 9e3f 697d 5c3e 973b eb40 c894 6840
00000070: af95 5cc0 46a4 43c0 06c0 9b40 2d73 6fc1
00000080: a19b 1fc0 b0ca 9ac0 1078 87c0 3e6e 23c1
00000090: 30f2 02bf dd7f 1b40 f82c 81c1 2edf 413e
000000a0: ae4f 4640 a5aa 8d3f cde2 6640 fed7 2ac0
000000b0: b032 3141 066c b33f c865 32c1 7bcf 41c1
000000c0: 78b6 9940 c37e 42c0 8994 3c40 ac38 60c1
000000d0: 3d1b 83bf c7d7 01c0 74f0 3dc1 9244 0140
000000e0: d8af 1440 7f92 b5bf aeb6 ac3f 4e89 5b40
000000f0: ac26 f040 405b 2640 b41f 70c0 cfbe 04c0
00000100: 0f74 4541 16af b1c0 236a 8e40 c7e3 3140
00000110: 8cd3 c8bf 3917 3d40 9c07 1c3f 7834 603f
00000120: 79ba 9ebf 5279 d03f 379a 4ac0

batchnorm1.running_mean f4 [75]
0.0 0.0 30318.057 0.0 0.0 0.0 6e-45 1003.89575
0.0 0.0 0.0 6e-45 2898.424 6e-45 0.0 0.0
0.0 0.0 6e-45 37064.895 21778.475 0.0 5728.625 0.0
13161.85 0.0 6e-45 0.0 0.0 0.0 0.0 5215.652
0.0 0.0 0.0 6e-45 0.0 0.0 6e-45 0.0
0.0 0.0 0.0 0.0 6e-45 0.0 6e-45 6e-45
6e-45 0.0 0.0 6e-45 0.0 0.0 6e-45 0.0
0.0 0.0 0.0 6e-45 2910.6143 0.0 0.0 0.0
13712.438 0.0 6e-45 0.0 0.0 0.0 0.0 114193.41
0.0 0.0 0.0
00000000: 0000 0000 0000 0000 1ddc ec46 0000 0000
00000010: 0000 0000 0000 0000 0400 0000 54f9 7a44
00000020: 0000 0000 0000 0000 0000 0000 0400 0000
00000030: c926 3545 0400 0000 0000 0000 0000 0000
00000040: 0000 0000 0000 0000 0400 0000 e5c8 1047
00000050: f324 aa46 0000 0000 0005 b345 0000 0000
00000060: 66a7 4d46 0000 0000 0400 0000 0000 0000
00000070: 0000 0000 0000 0000 0000 0000 37fd a245
00000080: 0000 0000 0000 0000 0000 0000 0400 0000
00000090: 0000 0000 0000 0000 0400 0000 0000 0000
000000a0: 0000 0000 0000 0000 0000 0000 0000 0000
000000b0: 0400 0000 0000 0000 0400 0000 0400 0000
000000c0: 0400 0000 0000 0000 0000 0000 0400 0000
000000d0: 0000 0000 0000 0000 0400 0000 0000 0000
000000e0: 0000 0000 0000 0000 0000 0000 0400 0000
000000f0: d4e9 3545 0000 0000 0000 0000 0000 0000
00000100: c141 5646 0000 0000 0400 0000 0000 0000
00000110: 0000 0000 0000 0000 0000 0000 b408 df47
00000120: 0000 0000 0000 0000 0000 0000

batchnorm1.running_var f4 [75]
6e-45 6e-45 6612.2656 6e-45 6e-45 6e-45 6e-45 13788.874
6e-45 6e-45 6e-45 6e-45 2251.504 6e-45 6e-45 6e-45
6e-45 6e-45 6e-45 77764.06 622.7553 6e-45 8225.973 6e-45
51698.715 6e-45 6e-45 6e-45 6e-45 6e-45 6e-45 7534.686
6e-45 6e-45 6e-45 6e-45 6e-45 6e-45 6e-45 6e-45
6e-45 6e-45 6e-45 6e-45 6e-45 6e-45 6e-45 6e-45
6e-45 6e-45 6e-45 6e-45 6e-45 6e-45 6e-45 6e-45
6e-45 6e-45 6e-45 6e-45 3794.728 6e-45 6e-45 6e-45
8931.018 6e-45 6e-45 6e-45 6e-45 6e-45 6e-45 1301.2911
6e-45 6e-45 6e-45
00000000: 0400 0000 0400 0000 20a2 ce45 0400 0000
00000010: 0400 0000 0400 0000 0400 0000 7f73 5746
00000020: 0400 0000 0400 0000 0400 0000 0400 0000
00000030: 10b8 0c45 0400 0000 0400 0000 0400 0000
00000040: 0400 0000 0400 0000 0400 0000 08e2 9747
00000050: 57b0 1b44 0400 0000 e487 0046 0400 0000
00000060: b7f2 4947 0400 0000 0400 0000 0400 0000
00000070: 0400 0000 0400 0000 0400 0000 7d75 eb45
00000080: 0400 0000 0400 0000 0400 0000 0400 0000
00000090: 0400 0000 0400 0000 0400 0000 0400 0000
000000a0: 0400 0000 0400 0000 0400 0000 0400 0000
000000b0: 0400 0000 0400 0000 0400 0000 0400 0000
000000c0: 0400 0000 0400 0000 0400 0000 0400 0000
000000d0: 0400 0000 0400 0000 0400 0000 0400 0000
000000e0: 0400 0000 0400 0000 0400 0000 0400 0000
000000f0: a62b 6d45 0400 0000 0400 0000 0400 0000
00000100: 128c 0b46 0400 0000 0400 0000 0400 0000
00000110: 0400 0000 0400 0000 0400 0000 51a9 a244
00000120: 0400 0000 0400 0000 0400 0000

batchnorm2.weight f4 [75]
2.7845027 -1.0577545 2.9203863 2.2818606 3.079611 1.159144 -0.8129844 2.9935782
-4.686595 -3.1784978 6.148595 5.1746125 -2.1604242 2.5171206 3.3923898 0.9296667
1.6864482 5.716648 0.7356574 -0.4258614 0.96108836 -5.1614885 0.44380093 4.7142577
2.092273 3.8275585 -7.4189315 -5.843091 -2.2954352 5.3246317 1.16696 4.019025
-0.73804265 4.3878818 -4.316935 2.5218036 2.1400235 6.3929434 -4.0330205 10.293142
1.6238729 1.1049119 1.9132416 -4.588487 1.1655185 1.2770041 -5.2652364 1.0434675
-5.639782 3.4879284 4.9436145 3.1926386 1.5620841 0.5235513 4.4251213 2.1219864
1.250271 -6.006667 4.1038747 3.6082084 -4.8280463 0.22177987 -3.3386045 -0.35258183
-3.1051478 6.9317746 0.33861607 1.3258474 1.2973261 3.7787707 1.2215419 4.22436
-0.19704954 -1.6673563 0.50245017
00000000: 4b35 3240 8064 87bf 9ce7 3a40 010a 1240
00000010: 5918 4540 d55e 943f bf1f 50bf c996 3f40
00000020: 96f8 95c0 826c 4bc0 4ac1 c440 6d96 a540
00000030: 6444 0ac0 8118 2140 ea1c 5940 a3fe 6d3f
00000040: 89dd d73f c8ee b640 0b54 3c3f 810a dabe
00000050: e309 763f ea2a a5c0 e039 e33e 33db 9640
00000060: cde7 0540 b8f6 7440 e367 edc0 9afa bac0
00000070: 69e8 12c0 6263 aa40 f25e 953f da9b 8040
00000080: 5df0 3cbf 8769 8c40 5524 8ac0 3b65 2140
00000090: 25f6 0840 fe92 cc40 810e 81c0 b6b0 2441
000000a0: 11db cf3f c16d 8d3f 1ae5 f43f e3d4 92c0
000000b0: b62f 953f df74 a33f d17c a8c0 5890 853f
000000c0: 1879 b4c0 383a 5f40 1732 9e40 3154 4c40
000000d0: 5ff2 c73f 7507 063f 989a 8d40 a0ce 0740
000000e0: e108 a03f 9e36 c0c0 f152 8340 e3ec 6640
000000f0: 5b7f 9ac0 431a 633e b2ab 55c0 9b85 b4be
00000100: beba 46c0 19d1 dd40 165f ad3e 5eb5 a93f
00000110: c80e a63f 61d7 7140 7c5b 9c3f f52d 8740
00000120: 5bc7 49be ee6b d5bf 93a0 003f

batchnorm2.bias f4 [75]
-1.6786418 0.5821487 2.5487082 6.4748416 1.2026217 -0.98583925 -2.1786804 0.23734592
-4.341541 -1.2282951 6.945272 4.2007575 2.4012804 -2.8424854 0.05557093 1.1581312
1.6268044 -13.090871 1.6280725 3.019553 -0.1385077 -2.5477471 2.058572 4.084481
-1.2385433 5.764345 -2.8164606 -10.689381 4.744927 9.820074 -0.5857786 0.1590475
-1.0616785 6.0386868 1.8549442 3.4117618 4.41326 7.4794097 4.989647 7.2475185
1.0382245 1.436536 0.7694055 -3.225041 0.3741826 -8.117048 0.6591521 0.49811548
3.7448523 -1.0176417 4.4370885 2.5338264 0.84479845 -0.86813515 1.67615 3.0929039
0.22759487 -1.5028062 -1.5441695 6.6159644 3.9780803 7.592873 8.386953 -9.903663
-4.566119 6.1266117 0.1866535 -0.53276765 10.8496065 -0.0111920815 0.6811303 7.8672047
-1.1210021 3.1841943 1.7846028
00000000: bcdd d6bf b207 153f 091e 2340 e731 cf40
00000010: 82ef 993f f65f 7cbf 806f 0bc0 cf0a 733e
00000020: e7ed 8ac0 c638 9dbf ab3f de40 9b6c 8640
00000030: 94ae 1940 48eb 35c0 589e 633d a53d 943f
00000040: 203b d03f 3574 51c1 ae64 d03f 5b40 4140
00000050: f6d4 0dbe 4a0e 23c0 a5bf 0340 11b4 8240
00000060: 9688 9ebf 8475 b840 e440 34c0 b407 2bc1
00000070: 71d6 9740 061f 1d41 96f5 15bf 59dd 223e
00000080: 15e5 87bf ec3c c140 d06e ed3f 4e5a 5a40
00000090: 6d39 8d40 5357 ef40 30ab 9f40 aceb e740
000000a0: 8ae4 843f 69e0 b73f c2f7 443f 1267 4ec0
000000b0: dd94 bf3e 6edf 01c1 31be 283f fe08 ff3e
000000c0: a9ab 6f40 1542 82bf a1fc 8d40 362a 2240
000000d0: b644 583f 1b3e 5ebf 158c d63f 23f2 4540
000000e0: a10e 693e f45b c0bf 59a7 c5bf fbb5 d340
000000f0: de98 7e40 d1f8 f240 f630 0641 6775 1ec1
00000100: a61d 92c0 340d c440 1822 3f3e 7663 08bf
00000110: fd97 2d41 fe5e 37bc 8e5e 2e3f 24c0 fb40
00000120: ff7c 8fbf d7c9 4b40 dd6d e43f

batchnorm2.running_mean f4 [75]
0.0006402417 6e-45 184.66006 923.6912 23.670597 6e-45 250.15381 82.659164
64.00741 84.94979 115.842834 42.40659 6e-45 6e-45 237.03224 6e-45
6e-45 52.381184 6e-45 120.413864 4.969175 1.0330273e-10 6e-45 27.926727
6e-45 465.58463 37.225956 53.390636 294.54178 6e-45 6e-45 6e-45
454.0092 65.5301 139.62447 6e-45 312.5095 45.40009 332.02203 42.97471
6e-45 6e-45 6e-45 38.478916 6e-45 339.9513 22.792995 6e-45
1195.2694 81.07747 46.956158 1503.4845 51.7825 318.38916 51.665237 314.15997
6e-45 33.56426 126.908936 704.1659 31.933533 270.93066 46.814365 477.16837
41.94143 277.7957 6e-45 6e-45 6e-45 340.49985 6e-45 48.151535
6e-45 513.89276 91.25732
00000000: e5d5 273a 0400 0000 faa8 3843 3dec 6644
00000010: 625d bd41 0400 0000 6027 7a43 7e51 a542
00000020: cb03 8042 4be6 a942 88af e742 59a0 2942
00000030: 0400 0000 0400 0000 4108 6d43 0400 0000
00000040: 0400 0000 5586 5142 0400 0000 e6d3 f042
00000050: 7b03 9f40 442a e32e 0400 0000 f069 df41
00000060: 0400 0000 d5ca e843 61e7 1442 0390 5542
00000070: 5945 9343 0400 0000 0400 0000 0400 0000
00000080: 2d01 e343 690f 8342 dd9f 0b43 0400 0000
00000090: 3741 9c43 b199 3542 d202 a643 1ae6 2b42
000000a0: 0400 0000 0400 0000 0400 0000 69ea 1942
000000b0: 0400 0000 c4f9 a943 0e58 b641 0400 0000
000000c0: 9f68 9544 aa27 a242 1bd3 3b42 81ef bb44
000000d0: 4821 4f42 d031 9f43 34a9 4e42 7a14 9d43
000000e0: 0400 0000 cd41 0642 60d1 fd42 9e0a 3044
000000f0: e077 ff41 2077 8743 e941 3b42 8d95 ee43
00000100: 06c4 2742 d9e5 8a43 0400 0000 0400 0000
00000110: 0400 0000 fb3f aa43 0400 0000 2c9b 4042
00000120: 0400 0000 2379 0044 bf83 b642

batchnorm2.running_var f4 [75]
0.015973875 6e-45 211593.83 2.342097e+06 5207.2407 6e-45 226629.77 25327.465
15565.858 65271.13 150679.08 16052.264 6e-45 6e-45 173306.58 6e-45
6e-45 11946.733 6e-45 49014.22 229.76306 3.3749685e-09 6e-45 5923.764
6e-45 1.1406649e+06 11749.815 24583.129 143847.94 6e-45 6e-45 6e-45
86906.55 21647.26 38961.06 6e-45 188432.89 16964.56 415548.38 17692.285
6e-45 6e-45 6e-45 11046.993 6e-45 64983.715 4018.3774 6e-45
4.383454e+06 43253.164 14849.484 5.0186945e+06 14730.086 257342.08 12406.226 556543.2
6e-45 6118.05 102416.07 2.7185878e+06 5309.9487 47831.332 21786.436 208336.3
30334.695 304667.2 6e-45 6e-45 6e-45 385002.3 6e-45 19945.473
6e-45 677817.9 20477.016
00000000: a5db 823c 0400 0000 75a2 4e48 44f3 0e4a
00000010: edb9 a245 0400 0000 7151 5d48 eede c546
00000020: 6f37 7346 21f7 7e47 c525 1348 0ed1 7a46
00000030: 0400 0000 0400 0000 a53e 2948 0400 0000
00000040: 0400 0000 efaa 3a46 0400 0000 3876 3f47
00000050: 58c3 6543 13ed 6731 0400 0000 1d1e b945
00000060: 0400 0000 c73d 8b49 4397 3746 420e c046
00000070: fc79 0c48 0400 0000 0400 0000 0400 0000
00000080: 46bd a947 851e a946 0f31 1847 0400 0000
00000090: 3904 3848 1f89 8446 8ce7 ca48 9238 8a46
000000a0: 0400 0000 0400 0000 0400 0000 f99b 2c46
000000b0: 0400 0000 b7d7 7d47 0a26 7b45 0400 0000
000000c0: bcc5 854a 2af5 2847 f005 6846 8d28 994a
000000d0: 5828 6646 854f 7b48 e7d8 4146 f3df 0749
000000e0: 0400 0000 6630 bf45 0908 c847 efed 254a
000000f0: 97ef a545 55d7 3a47 df34 aa46 1374 4b48
00000100: 64fd ec46 66c3 9448 0400 0000 0400 0000
00000110: 0400 0000 4afd bb48 0400 0000 f2d2 9b46
00000120: 0400 0000 9e7b 2549 08fa 9f46

batchnorm3.weight f4 [75]
1.6022993 -5.023632 0.9321335 1.721202 -2.8256886 4.836613 1.070185 1.7632791
5.266755 1.245505 -0.21785904 1.6204432 1.7226087 -2.2752626 4.600335 0.1628621
1.7214319 0.84833276 -2.0963724 -1.1112688 2.003386 2.0986269 1.2568488 0.64738196
1.273313 2.8823848 3.4168458 -0.8332686 0.66855156 0.8290503 10.189076 0.676552
-2.6284134 3.6065288 -1.668431 -3.3900628 3.060299 -5.6498013 -1.7258097 5.401986
2.5608904 2.2216468 0.45953912 -1.7991788 -0.09855851 0.7110145 0.62634385 2.8555968
1.2724888 3.8072846 0.27308112 -2.1113133 7.44134 0.1880916 5.282173 1.152638
0.3819588 -1.2644515 -2.9943914 1.928572 2.012626 1.1878358 1.354311 1.6989095
-5.2109466 0.3476451 3.5288026 2.652235 -1.3259479 -2.7219121 1.225084 1.0058923
0.31310022 -2.176026 0.049291715
00000000: 2518 cd3f 98c1 a0c0 4da0 6e3f 5950 dc3f
00000010: 15d8 34c0 89c5 9a40 d2fb 883f 21b3 e13f
00000020: 4289 a840 b56c 9f3f 7116 5fbe af6a cf3f
00000030: 717e dc3f e79d 11c0 f235 9340 53c5 263e
00000040: e157 dc3f 562c 593f f72a 06c0 0e3e 8ebf
00000050: 7a37 0040 e74f 0640 6ce0 a03f d3ba 253f
00000060: ecfb a23f fe78 3840 9aad 5a40 1751 55bf
00000070: 3226 2b3f a43c 543f 7506 2341 8332 2d3f
00000080: ed37 28c0 5ed1 6640 268f d5bf caf6 58c0
00000090: f0db 4340 2ccb b4c0 55e7 dcbf 12dd ac40
000000a0: a1e5 2340 762f 0e40 b648 eb3e 7e4b e6bf
000000b0: 0bd9 c9bd 0c05 363f 1258 203f 19c2 3640
000000c0: eae0 a23f 8daa 7340 4ad1 8b3e c21f 07c0
000000d0: 751f ee40 169b 403e 9007 a940 a489 933f
000000e0: 1b90 c33e 8cd9 a1bf 1ca4 3fc0 73db f63f
000000f0: ddce 0040 010b 983f 105a ad3f de75 d93f
00000100: 13c0 a6c0 8afe b13e e7d7 6140 38be 2940
00000110: a9b8 a9bf cf33 2ec0 8dcf 9c3f 14c1 803f
00000120: ac4e a03e 0344 0bc0 1ce6 493d

batchnorm3.bias f4 [75]
-2.5975888 -6.232625 6.01646 -1.627313 1.4714731 2.0568337 -4.51688 0.54926825
1.553183 3.870693 -0.4532753 0.6103802 -2.4715316 -2.6560185 -0.7840303 1.1377252
0.16844697 2.9541948 -2.6571352 -0.45741576 -2.9377046 -0.72234344 2.3933756 -5.273413
-0.4854192 3.152765 -1.0034301 -1.0303327 -3.3959212 -0.21366139 4.8251076 0.026261292
-2.7791855 2.0522552 -2.926491 -8.376199 -0.78880715 -6.807081 0.7196118 0.91301197
4.670409 3.1636147 5.186202 -5.8503413 -1.7591898 0.5118184 1.3806686 0.59111285
1.2796333 -0.6881977 -0.5319767 -4.130561 0.73924536 0.20648818 3.9996574 -1.3441188
0.8722922 -1.1401191 -3.3982434 2.2047021 -2.321875 1.4290282 -0.21979226 6.1834044
-13.103288 -5.2281013 5.5569096 2.4128702 -0.3578632 -4.955655 1.3824006 6.3864484
-2.8880918 -0.4826054 -4.7014494
00000000: e53e 26c0 aa71 c7c0 d786 c040 cb4b d0bf
00000010: 3b59 bc3f 2aa3 0340 488a 90c0 d89c 0c3f
00000020: b3ce c63f 6fb9 7740 b313 e8be e041 1c3f
00000030: 932d 1ec0 35fc 29c0 36b6 48bf fba0 913f
00000040: 5d7d 2c3e 8711 3d40 810e 2ac0 6632 eabe
00000050: 5a03 3cc0 80eb 38bf 112d 1940 cdbf a8c0
00000060: de88 f8be e7c6 4940 6670 80bf f1e1 83bf
00000070: c656 59c0 0dca 5abe 4867 9a40 ec21 d73c
00000080: 2dde 31c0 2658 0340 a14b 3bc0 e904 06c1
00000090: 44ef 49bf 9cd3 d9c0 7b38 383f 27bb 693f
000000a0: fe73 9540 aa78 4a40 5ef5 a540 ff35 bbc0
000000b0: 222d e1bf 8806 033f c0b9 b03f 2c53 173f
000000c0: 06cb a33f b92d 30bf a02f 08bf 8e2d 84c0
000000d0: 2f3f 3d3f a371 533e 63fa 7f40 160c acbf
000000e0: 8b4e 5f3f 6cef 91bf d27c 59c0 d719 0d40
000000f0: 9a99 14c0 65ea b63f 3911 61be 73de c540
00000100: 11a7 51c1 9b4c a7c0 34d2 b140 776c 1a40
00000110: d839 b7be ba94 9ec0 81f2 b03f c95d cc40
00000120: 7fd6 38c0 0e18 f7be 4672 96c0
