model_weights_7.pth (torch, 154513 bytes, 37 tensors)

layer1.weight f4 [75, 68]
00000000: eed3 33bc 0032 d03d 621e 7cbd 0ca1 82bd
00000010: 1ba0 a83d 7ce9 a9bd 34f9 f63d 2d13 013d
00000020: 746f e43d 11f3 9ebd 9365 9a3c f803 503d
00000030: e738 8e3c 8806 693d 306a f2bd 5b86 cebd
00000040: 0732 f2bd b99a 983d d706 e3bd ec1d 3b3d
00000050: 11bc acbd 89d6 dbbd f281 bdbc 4ff5 3f3d
00000060: 4b11 ab3c 6d80 d5bd 44e5 6ebd c573 ed3d
00000070: 53f2 8dbd c767 be3d 0c48 cabd a90a a13c
00000080: 07cb b03c b790 1abb fb4e 8e3d cb80 d6bd
00000090: ad6c 293d 693b c8bd 30c7 bdbc d7b0 3b3d
000000a0: 3770 8abd bdf4 c63d 57b9 443d e609 22bc
000000b0: 2a27 02bd aa00 963d b927 dc3d e13f 4bbd
000000c0: e593 8b3d 4fbd eabd cb03 e73d 61bb b93d
000000d0: df36 c83c a9be c4bd 6d5b 88bb 2cdf b8bd
000000e0: b91f 7a3d 5f16 9f3c ed87 cd3d a2f5 253c
000000f0: 8197 b6bd c771 db3d 60ce c9bd 3c4f 703d
00000100: e3fa 893d 0d2d 333d 208f b9bd d349 b63c
00000110: 9011 8bbb 2dcd 6bbb e3a9 bf3d 8b61 c63d
00000120: 883c af3d 0b8d 033c 2505 10bd 21a9 8e3d
00000130: d3ff acbc 04db 143c b562 763d f680 d63d
00000140: 39f0 87bc 29fe 903d d63c 78bd 863c c03d
00000150: 79ba e2bd b91c ab3d ebea eb3d d9d9 a5bd
00000160: aa76 5bbd fb50 f0bd f2fa d93d 7b17 b93d
00000170: 8037 d2bb 620f ed3d 3619 ec3c 3b6e 893d
00000180: 0d82 de3d 7ee5 b63d 0a0e f0bd d152 81bd
00000190: 2387 9a3b 5723 c43d 361c e2bd 3fe7 683d
000001a0: d061 30bd f374 32bd 9c26 4b3d effd 92bd
000001b0: ad2d cabc 1c1a 10bd b0e2 bb3d fc68 8abd
000001c0: 6cfb 4abd 8d54 bcbd 1eef f53d 54e2 3c3c
000001d0: 3623 40bd b08b c0bd 4e3f 1dbd 62c6 f2bd
000001e0: 8d7b 55bd cb60 20bc a8fb 023d 43df 87bd
000001f0: 1518 e6bd d977 be3b e6f1 bfbc 1a67 1f3a
00000200: aaff a03d 1dd6 543c 5b36 1f3c 2696 4a3d
00000210: fefe 1b3d 82dc 693d 80cb cc3d f940 143d
00000220: 2a05 cdbd 3098 9f3d 4ec5 99bd 9961 d8bd
00000230: d7cc b0bd 9d26 253d 29bd ccbb 7908 cc3c
00000240: 91eb d7bd 9896 8a3c 8d51 05bd 0e9e d4bd
00000250: 1953 503d 25ec 0cbd 6898 e1bd 6842 693d
00000260: 1495 2c3c a92c 463d 7e78 483d a12a 463d
00000270: e516 6f3d 5857 97bd 43e3 e33d 9123 dfbb
00000280: d986 85bd a0a5 74bd e96a abbc 7932 86bc
00000290: c264 223d 246b da3d 6e77 5dbc 33e5 153c
000002a0: d77b 88bd f2e8 5bbc 2031 9bbc 303d ecbd
000002b0: 0bdd a13d 0320 efbd 0434 31bd 0a17 d0bd
000002c0: 720d d43d b2bb 99bd 9a52 823d d06d dd3d
000002d0: da88 acbd 0235 dcbc fdbe 91bd a492 61bc
000002e0: 44d3 74bd eb36 8bbd 4d65 ab3d fa7c 513d
000002f0: d7d0 da3d 0daa 82bd e05d dc3c f4ad be3d
00000300: a16e 213d dac2 ba3d 0007 b83c 6411 183b
00000310: 28f5 09bd b1aa e6bd 92a4 c53b 5976 5abc
00000320: 740b d83d d3bc 61bd 4dd2 c7bd 6151 b2bd
00000330: 3c0c 483e 19db d53e 6e88 893f e57a b63f
00000340: 2b20 f240 040c 503d 021d 963c ee16 56bd
00000350: 3156 89bd f3d8 d5bd 33f2 2fbe 31af 06be
00000360: 8c80 08be 8dd2 0e3d 9e07 0fbe 88c1 74be
00000370: 0480 043d 64de 2dbe 571a a2be 1b5e 95be
00000380: 3edd 04be 8c9a d93c 4429 893d dedc 0ebd
00000390: d398 25be 9e1c 65be 1362 e6bc 2ec8 5abd
000003a0: 8f30 903c 5424 a13b ee36 983d 7e83 85bc
000003b0: cd44 c7bc a5c3 be3c 12f7 de3c bc19 a8bd
000003c0: 9d0b 613d 9855 163e 7047 203e 3c3a b53d
000003d0: 0f97 7b3d 0953 1fbe 97d2 e2bd 6fee efbc
000003e0: 2c96 2f3e 4e3a e6bd cb30 cabc 5b03 89bd
000003f0: 74b6 b9bd d43b b7bd 57eb 76bd bb51 81bd
-0.010975821 0.10165787 -0.061552413 -0.063783735 0.08233663 -0.08296487 0.120592505 0.031512428
0.111540705 -0.07761205 0.018847262 0.050785035 0.017361118 0.056890994 -0.1183666 -0.1008422
-0.11825948 0.07451386 -0.11085289 0.045682833 -0.08434308 -0.10734279 -0.023133252 0.046864804
0.02088227 -0.10424886 -0.058324113 0.11594347 -0.06930985 0.09297138 -0.09877023 0.019658403
0.021581186 -0.0023584792 0.06948658 -0.10473784 0.041363407 -0.097769566 -0.023166269 0.045822944
-0.067596845 0.09714649 0.048028316 -0.009890055 -0.03177563 0.073243454 0.10749764 -0.049621467
0.06815318 -0.11461889 0.1128002 0.09068943 0.024440227 -0.09606678 -0.0041612894 -0.09026942
0.06106541 0.019419847 0.100356914 0.010129364 -0.08915616 0.10715061 -0.09853816 0.058669314
0.06737306 0.043744136 -0.09060502 0.022251999 -0.004244037 -0.0035980449 0.09358575 0.096865736
0.08556467 0.008029233 -0.035161156 0.069658525 -0.02111808 0.0090854205 0.060152728 0.10473816
-0.01659404 0.07079727 -0.060604893 0.09386544 -0.11070723 0.08355088 0.115194164 -0.08098192
-0.053579964 -0.11734196 0.10643567 0.09037682 -0.0064153075 0.115752 0.028820615 0.06710478
0.10864649 0.08930491 -0.11721428 -0.06314624 0.0047158166 0.09577053 -0.11040537 0.05686116
-0.04306203 -0.043568563 0.049597368 -0.0717734 -0.024679983 -0.03518115 0.091740966 -0.067583054
-0.04955618 -0.09195814 0.120084986 0.01152857 -0.04690858 -0.09401643 -0.03839045 -0.11854245
-0.05211978 -0.009788702 0.03197828 -0.06634381 -0.11235062 0.005812627 -0.023430776 0.0006080732
0.07861264 0.012990502 0.009717549 0.0494596 0.038084976 0.05709506 0.09999752 0.036194775
-0.100107506 0.07792699 -0.07508336 -0.1056549 -0.0863282 0.040320028 -0.0062481356 0.024906384
-0.105429776 0.016917512 -0.032548476 -0.10381709 0.050860498 -0.034404892 -0.11015397 0.056948096
0.01053359 0.048382435 0.048943035 0.048380498 0.058371443 -0.073897064 0.11127331 -0.00680966
-0.06519861 -0.059728265 -0.020925002 -0.01638149 0.03964687 0.10664967 -0.013517244 0.009148884
-0.066642456 -0.013422238 -0.018944323 -0.11535108 0.07903489 -0.116760276 -0.043262497 -0.10160644
0.10354127 -0.07506503 0.06363411 0.10811961 -0.0842454 -0.026880745 -0.07116506 -0.013767872
-0.05977179 -0.06797584 0.08368931 0.051144578 0.10684364 -0.06380091 0.026900232 0.09310523
0.039412145 0.09119196 0.022464275 0.0023203725 -0.033681065 -0.112630256 0.006031581 -0.01333388
0.105490595 -0.055111717 -0.097569086 -0.08706928 0.19535917 0.4176872 1.074476 1.4256254
7.5664268 0.05079271 0.018324379 -0.05226796 -0.06705893 -0.104417704 -0.17182235 -0.13152768
-0.13330287 0.034868766 -0.1396775 -0.23901951 0.032348648 -0.16979367 -0.3166072 -0.2917336
-0.12975022 0.026562952 0.06697324 -0.034878604 -0.16171579 -0.22374198 -0.028122937 -0.053413562
0.01760128 0.0049176607 0.07432352 -0.016298052 -0.024324799 0.02328665 0.027217422 -0.082080334
0.054942716 0.14681089 0.15652251 0.08848998 0.061423358 -0.15559019 -0.11075323 -0.029288499
0.1714713 -0.112415895 -0.02468147 -0.06690093 -0.09068003 -0.08946958 -0.06028303 -0.06314417

layer1.bias f4 [75]
00000000: fb31 803c 0b22 a7bd efc6 17bb 3e36 c83c
00000010: afd2 34bd 44bf 933d d130 d6bc 47e6 33bd
00000020: c736 62bc a54b a3bd eab3 9cbb 745c 583d
00000030: 93b1 93bd 9649 2fbc 83d7 84bd 8810 7f3c
00000040: dde9 67bd cd64 d93c d411 68bb 7ec3 dcbd
00000050: b0dd adbd 5fbd 92bd fde3 e73d 2dbe 503c
00000060: 6545 f7bd d2a2 803d b455 84bd 9d12 c53d
00000070: 244f f13d 30f6 85bd 3736 803d 5fe0 b73d
00000080: c5f9 ff3b d05b 9ebd 98b9 b2bd f965 f73d
00000090: 66f4 ed3d 5825 ae3b 7036 0c3d 08a0 ba3d
000000a0: e148 a3bd 561f 84bc ac40 263c 416d b4ba
000000b0: 83f7 b53c eb2e 8bbd a249 d13d 48e6 17bc
000000c0: 0cfb d13d 12bf debd a365 e43c 2a6f bbbd
000000d0: a2e8 4b3d dd46 c0bd 5777 01bd a3a5 bbbd
000000e0: 567e 9e3a 5ee8 db3c d46b bd3d ae98 91bd
000000f0: 72c7 bf3d 2f08 e33c eae5 14bd 7c42 e43d
00000100: f32b 4ebd b8aa bfbd c3e8 fe3c fdbd ffbc
00000110: ae37 09bb bf9a 303c f966 803c 3809 c4bd
00000120: 5b1b b43c 26b3 033d f037 ee3c
0.015648833 -0.0816079 -0.0023159345 0.024439927 -0.044146236 0.072142154 -0.026146324 -0.04392078
-0.013807005 -0.079734124 -0.0047821896 0.052822545 -0.07211604 -0.010698697 -0.06486418 0.015567906
-0.056619514 0.026537323 -0.0035411017 -0.10779475 -0.08489549 -0.07165026 0.11322782 0.012740654
-0.12073783 0.062810555 -0.06461659 0.09622691 0.11782673 -0.06541097 0.06260341 0.08978342
0.0078117573 -0.077323556 -0.087268054 0.120799966 0.11618881 0.0053145103 0.034231603 0.09112555
-0.07972885 -0.016128223 0.010147255 -0.001376547 0.02221275 -0.06796058 0.102191225 -0.009271212
0.102529615 -0.108762875 0.027880495 -0.09152062 0.049782403 -0.09388516 -0.031607952 -0.09162452
0.0012092094 0.0268442 0.09249082 -0.071091995 0.09364213 0.027713863 -0.036352076 0.111454934
-0.050334882 -0.09358734 0.031116849 -0.031218523 -0.0020937729 0.010779082 0.015674101 -0.09572071
0.0219857 0.03215327 0.029079407

layer2.weight f4 [75, 75]
00000000: 235b 43be 4196 e73e 5cfe afbc 8e63 663f
00000010: d91b 15c0 8685 8d3e a869 80be c572 203f
00000020: baa9 463f 47d9 c33f f04a 063f c4b6 2e3f
00000030: 5a9e b3be 4869 843f aa04 67bf 7f01 233e
00000040: 1913 1f3f 0f95 98bf 51be 2dbe b896 c23e
00000050: 7143 b63f ea95 02bd 316c 30bf 3a91 9a3e
00000060: 5065 373f ec72 8fbe b838 b2be 6f2c 873f
00000070: ccf6 9ebd c41c 1fbf 1a41 08bf 4486 2dbf
00000080: 7f8b bc3e 4399 11bf 65d8 a8be 8443 d33d
00000090: 8cb8 0dbf cafc e7bf a166 9c3f 2c4d 4bbe
000000a0: debb 8f3e 3df2 823f 3f58 233f f0a1 ad3f
000000b0: 2c5f 143f 6011 7fbf c36f 543f 55db 5ebf
000000c0: 34a3 00c0 22b4 b8bf 6dad 07bf 1040 35be
000000d0: 287c e13f 8e92 a23f 8959 203f 9366 5abf
000000e0: c810 9fbd 9a67 a53d 8db0 303e a69f c83f
000000f0: ca50 b53f e3ed fd3f 90fd b13e 1f0c c43f
00000100: 157a f23e 1ce5 48be 8120 593f 84e8 19bd
00000110: 04df e83e 2945 4e3f 4a41 623f 5c71 23bf
00000120: cdc1 143f 26f5 f6be 4aff d23e 539e b3bc
00000130: 6124 463e 5673 9b3d ddf3 843e 6369 0cbf
00000140: 4d0a 083f 333f 2ebe 5f35 903e ec93 cd3d
00000150: 6ab0 b13e 7346 c73d 8a18 b53e e8c3 d2bd
00000160: 6a64 803e 526b d6bd 4f9a 4a3e 87a5 473f
00000170: a0d5 80be c536 b4bd e091 e83d 2171 593f
00000180: f393 c73b 5587 b1be b020 f63d baab e03e
00000190: f6dc a2bd 10e7 1bbc 3cff 2b3e 3ca9 783d
000001a0: 456c de3c 520e 48bd 766f b0be 1130 d63d
000001b0: 5cdb f3bd 342a 78bd 46e7 623f d974 cbbe
000001c0: 1d5b abbe bba0 3b3f 96f7 8bbe 0d38 4bbf
000001d0: dc2c 863e 418e 4e3f ad4c cc3f 1eeb a13d
000001e0: 63eb b6be 5680 f93e 5314 56be 64ea e5be
000001f0: 200a f1bc 1d32 f3bd 6180 d8be 56a8 1b3e
00000200: 5ed7 683f c78f 4a3e 9e46 0c40 f7c1 c13d
00000210: c728 26bd db27 a63d 85c4 4d3f ef08 bc3f
00000220: 3d1a 223e fd5d ac3d e203 463e 02c2 103d
00000230: 8a9e 543e 523a 373f 0eb6 853d 8584 003e
00000240: e2be 2b3f ea33 863e b20a 7bbe 7203 ce3d
00000250: 7fe4 9bbd 554a 3c3f 2122 843d 1005 cd3d
00000260: c868 f43b b3b9 aabd eb5f 32be 7f0c 053f
00000270: 68ae d6bd 30de 063e 8a4a 50bd 6526 cf3c
00000280: bcb9 0dbe 3728 9d3e 1b9b ffbb 764c ea3d
00000290: 050a e2bd eb82 94bc a1f4 c0bc c693 863b
000002a0: 2333 d1bd 7c2b 083e 662e 833e d1dc 70bd
000002b0: 9eff 343f ce0f 8a3c a3f1 e23c 52d0 413d
000002c0: 8da6 92bd 551f 033e 44c0 05be f4fc a8bd
000002d0: 2886 07be 1cc6 033e bc6f dbbc 170b 173d
000002e0: 179a 0b3d 7b53 09bc e86e 07bd 2c09 1cbe
000002f0: b0f9 c93c ff2c a8be 4dc6 923f aa49 efbc
00000300: d47b f93d 9a45 943f 91d9 2f3d c19f 83be
00000310: 0c3c f33d 36fe 213d e443 70bd 51bf 9cbd
00000320: a42f eabd 3ecf 27be b5d6 2ebe f760 653e
00000330: 1321 aebd 7dc6 0ec0 8cc0 3d3d 59d7 853d
00000340: 80e4 903b c268 c03e f82a ed3e 0ad3 083d
00000350: 8e4e 94bc f2f6 8d3d 6c20 0c3d 2199 dbbd
00000360: 6355 1c3d f9cf 4abe 91ba 80bd d827 bebd
00000370: 540e 633d 4b18 a0bc 97d1 013d 8202 41bc
00000380: 579a 3a3e 8fa2 c93c 4f29 f33d abe4 c03d
00000390: bd32 c53e 2487 c6be e803 013f 9181 74be
000003a0: ccc4 9e3e ce1e d53d bcd6 8d3e 26ea a83c
000003b0: ab6d 973e 7903 983b b640 bb3e 4d1a 74be
000003c0: defa 493e c9c7 273f 3d36 81be 722c 4f3c
000003d0: b29d a03c 3900 4a3f d232 ef3d 1aee febe
000003e0: 62fe 72bd b1ec a13e 0c90 b0bd d288 6abe
000003f0: 2ed2 823e f829 c7bd 7d5f 90bc 2b3c c5bd
-0.19077735 0.45231822 -0.021483593 0.8999566 -2.3298247 0.27640933 -0.2508061 0.62675124
0.7760273 1.5300683 0.52458096 0.6824763 -0.3508175 1.0344629 -0.9024149 0.1591854
0.62138516 -1.1920489 -0.16967131 0.38005614 1.4239331 -0.03188125 -0.68915087 0.30188924
0.71638966 -0.28017366 -0.34808898 1.0560435 -0.077619165 -0.6215327 -0.5322434 -0.67783
0.36825177 -0.56874484 -0.32977596 0.10315612 -0.5535972 -1.812402 1.221882 -0.19853657
0.2807302 1.0230175 0.6380653 1.3565044 0.5795772 -0.9963589 0.82983035 -0.87053424
-2.0099611 -1.4429972 -0.52999 -0.17700219 1.7616014 1.2700975 0.6263662 -0.85312766
-0.07766873 0.08076401 0.17254849 1.5673721 1.416528 1.9838222 0.34763765 1.5316199
0.47358766 -0.19618648 0.8481522 -0.03757526 0.45482647 0.8057428 0.88380873 -0.6384485
0.58108217 -0.48233908 0.41210395 -0.02192608 0.19349815 0.07590358 0.25967303 -0.5484831
0.5314072 -0.17016296 0.2816572 0.100379795 0.34704906 0.09730234 0.35370284 -0.102912724
0.2507661 -0.104696885 0.19785427 0.7798695 -0.25162983 -0.08799509 0.113559484 0.84938246
0.006090635 -0.34673563 0.120179534 0.43881017 -0.07952301 -0.009515539 0.16796583 0.06070827
0.027151236 -0.048841782 -0.34460038 0.10458387 -0.11907074 -0.060587123 0.88634145 -0.39737585
-0.3346795 0.7329213 -0.2733733 -0.793824 0.262061 0.8068581 1.59609 0.07906173
-0.3572646 0.48730725 -0.2090619 -0.44905388 -0.029423773 -0.11874793 -0.42285445 0.15200934
0.90953624 0.19781409 2.1918101 0.09460824 -0.040566232 0.081130706 0.8037799 1.4690226
0.15830322 0.08416364 0.19337419 0.03534127 0.20763603 0.71573365 0.06528865 0.12550552
0.6708814 0.26211482 -0.24515799 0.10059251 -0.076119415 0.7355092 0.06451822 0.10010731
0.00745878 -0.083362006 -0.17419402 0.5197219 -0.10482484 0.13170695 -0.050852336 0.025286863
-0.13840383 0.30694744 -0.0078004724 0.11440365 -0.11037067 -0.018128833 -0.023554148 0.0041069714
-0.10214832 0.13297838 0.25621337 -0.058804337 0.7070254 0.01685324 0.027703112 0.04731781
-0.07160673 0.12804921 -0.13061625 -0.08251372 -0.1323477 0.12868541 -0.026786678 0.03687581
0.0340825 -0.00838172 -0.033064753 -0.15237874 0.024655193 -0.3284683 1.1466767 -0.02920993
0.121818215 1.1583741 0.042932097 -0.2570782 0.118766874 0.039549075 -0.058658496 -0.07653678
-0.11434868 -0.1638765 -0.17074092 0.2240027 -0.08502402 -2.2308648 0.046326205 0.06535215
0.0044217706 0.37579924 0.46321845 0.033404388 -0.018103864 0.06931867 0.034210607 -0.107225664
0.03816737 -0.19805898 -0.06285585 -0.09284943 0.055433586 -0.019542834 0.03169402 -0.011780383
0.18222938 0.024613647 0.11873113 0.09418615 0.38515273 -0.3877498 0.50396585 -0.2387755
0.3100952 0.10406266 0.27702892 0.020619463 0.29575858 0.004639086 0.36572808 -0.23838158
0.19724604 0.6553922 -0.25236693 0.012644874 0.019606445 0.7890659 0.11679615 -0.49791032
-0.05932463 0.31625894 -0.08621225 -0.22903755 0.2555098 -0.09724802 -0.017623657 -0.09630617

layer2.bias f4 [75]
00000000: ac45 b93d c7e1 11bf e768 093d ec0a 8dbe
00000010: bbc9 64be 16bb 1cbf 197f 3dbf 3581 f1be
00000020: fe17 15bf 1f1b c5be 5016 53be 3e06 f2be
00000030: 0631 1640 fb95 43bf e1f8 a6be f45a 54bf
00000040: 2803 2fbf fcf2 bfbe 02ac e4be 32a9 10bf
00000050: e4c8 75bf 05cf 55bf 3d3d 81bf 503f 3ebe
00000060: e343 35bf 4f59 e7be 5bc6 d0be fa7e 133f
00000070: 8ad6 89bf fe8b fcbe cdd4 48bf 8ef5 10bf
00000080: 770d cfbe 5c2b 3d3f c7bd 0abd 79d8 cebf
00000090: ccd5 24bf 4f1c a5bd a2b5 81bf cf11 36bf
000000a0: 3504 a9bf b7b3 0bbf 393c c73e cf16 0e3e
000000b0: 109a efbe 7ce4 d1bf 84ae ae3c d111 1dbf
000000c0: 7707 2fbe b322 cdbd e1bb 48bf 6f07 193d
000000d0: df20 95be bb0c 733d b1df 0fbf fbaa 36bf
000000e0: 6ff2 4140 31ac 3a3e f815 19bf 80fa 183c
000000f0: e32b 91bf e1b0 99bf ff20 00bf 56ea f33d
00000100: d423 adbe debf 0abf df66 04bf 6c2a 7b41
00000110: 6d02 a1c0 0713 18be cd09 e6be a455 d8be
00000120: ce4a 65bd 382a 18c0 4251 0dbf
0.09046492 -0.56985134 0.03354731 -0.27547395 -0.22342579 -0.6122297 -0.7402206 -0.4716889
-0.58239734 -0.38497254 -0.2061398 -0.47270387 2.3467422 -0.7640073 -0.32611755 -0.82951283
-0.6836419 -0.3749007 -0.44662482 -0.5650817 -0.9600966 -0.8351901 -1.0096813 -0.1857884
-0.7080671 -0.45185325 -0.40776333 0.57615626 -1.0768597 -0.49325556 -0.7844971 -0.56624687
-0.4043996 0.73894286 -0.033872392 -1.6159812 -0.6438873 -0.0806204 -1.0133555 -0.71120924
-1.3204409 -0.545711 0.38913134 0.13875888 -0.46797228 -1.6397853 0.02132345 -0.6135531
-0.17092691 -0.10016384 -0.7841168 0.037360605 -0.2912664 0.059338313 -0.562007 -0.71354645
3.030422 0.18229748 -0.59799147 0.009337068 -1.1341518 -1.2007104 -0.5005035 0.119099304
-0.33816397 -0.54199016 -0.5171947 15.697857 -5.031546 -0.14851008 -0.44929352 -0.4225284
-0.055979542 -2.3775768 -0.55202115

layer3.weight f4 [75, 75]
00000000: b8e6 17bf d302 c5bf 3af9 463d b810 8abf
00000010: 4679 233f 7ea4 1ec0 3e1d 96be 2973 863f
00000020: 5157 ccbd 42b8 93be 3553 5f3f 3d34 323e
00000030: 5de8 47bf 8680 133f 8a05 54bf c16d cabe
00000040: 1704 0a3f 7d2b 98bf 3893 c3bf 5a07 0ac0
00000050: b605 a5bf 97fc 74bf c9e9 173f e28b c53e
00000060: 22c1 4ebe 113d 183e 331b fbbe 2af5 6c3e
00000070: a1e9 74bf f4d5 11bf 4ed0 adbf bd09 39bd
00000080: ed14 0dbf 44a0 b73f 283d 263e 45b3 883f
00000090: 01c2 04bf 9a7d 333f 8d36 dbbe b069 eb3e
000000a0: a66a 443f dc85 203f 50c7 21bc d552 e2be
000000b0: dc75 3b3d 6b08 02bf 302b a6be ecec 75be
000000c0: 7252 30be c28d a6bd d9bf 43bf 600f f2bf
000000d0: 2777 3c3f 93fb c53f bf0c 173f a0a2 083f
000000e0: febe 4b3d e890 67bf a722 22bf b3af 64bf
000000f0: 0ec1 adbd 54a9 b53e 6de9 503f d188 873e
00000100: 1715 3c3e b16d 1cbe 749e 203f 41ec 8bbf
00000110: dd44 65bf 60e1 693f c201 b3bd 2b34 9c3e
00000120: 5ae0 6040 194d a43e 2427 1a40 e223 4a3f
00000130: 0418 e33e af42 9c3e 2301 793e 6d67 8f3f
00000140: 6fc8 8a3f 2763 853e 29c9 863e 9460 a53e
00000150: ebe7 a73e 69d3 cc3e 29d7 aabe 043a 4b3e
00000160: 4497 c23e dc93 b83f be98 823e 4506 2d3f
00000170: ac53 dd3e 8a0a 293f 5a6b ee3e ff2c 123f
00000180: 3aa5 ab3f 7897 1cbe 4d0c 0bbf 4736 f9be
00000190: 5ad7 fe3e d427 983f f676 b53d ea9b 0d3f
000001a0: 0572 a83d 32b5 8b3f b697 933e 0aa5 80be
000001b0: af52 d7bf ec89 ffbd 707b b03e eacf 823f
000001c0: cb82 863f 786d d03f 948c bdbe 027f 8d3e
000001d0: 526b 073f daed 28bf dcef c8bd ca43 b93e
000001e0: 48fd 073f e9ca 24be d36e 4dbf f96b a5be
000001f0: 061f 6f3f f207 c9bd 215e fa3e 80f0 2f3f
00000200: 29a3 9d3e 1b18 04bf e2e5 393d 5111 7ac0
00000210: fa78 9e3e d545 6d3e c97c a73f 492f 51be
00000220: b386 dcbe 264a d83f 5d4b e23d f850 bcbd
00000230: 1484 5aba c80e 90be 7b55 92bf 13d3 203f
00000240: 3b9f 32be 2b90 8d3e 0936 173e 57db 3f40
00000250: e17d 0f3f 38aa 04c0 f615 3d3e 9275 b73e
00000260: 339b 4fbd 26d8 da3e 0fdf 163d 5d32 ff3e
00000270: 75a3 8ebe 1e66 8bbe 7e01 40bf 9e9e a6be
00000280: 11dc 31be fd29 dcbe 65c7 ad3d 1781 433f
00000290: a77e 3c3f 569b b93d 9272 bd3e 5412 9d3e
000002a0: 20e0 afbe c18d 2740 b397 3dbc 9c50 e83e
000002b0: af8f febd e4f5 453f 5046 90be dea5 d6be
000002c0: 453d 183f e02b c43e ae67 b1be aec6 823f
000002d0: 520b 0f3f 019c f2be b9f1 80bf ee90 82c0
000002e0: f9c9 cd3e a234 483f e50c d9be 0995 403f
000002f0: 21b7 e0bf fc36 50bd f460 fdbf 9a36 ba3e
00000300: db81 1b3f 1f17 30bf 7385 b43d 8715 df3e
00000310: 9973 e83e 81ec 59be 70f0 e43f 82b0 5ebf
00000320: 472b 3dbf 1857 0d3f 69ea fa3e c3f0 053f
00000330: 1d2c 443d 80b9 86be 2f11 38c1 4599 be3f
00000340: 7245 133f 9810 4a3f 69fa d5be 8a46 e9bf
00000350: 13d4 efbf 76ba 283e 3ff7 b73d 1cc5 4f3e
00000360: 81ea d53e 053b 17c0 5d3a 783e 609f f33e
00000370: 34ef 1f3c 70f5 1ebe 87d8 e03d 3721 b93f
00000380: 7c01 903b 500b 3ebe 6539 93bb b5cb e53d
00000390: 5702 0ebe 6fd3 6ebe 8094 0a3e 99dc cabd
000003a0: a3da f93e 6044 693e 9066 143e b448 f43e
000003b0: e649 20be 5ee7 22be bc85 db3d d54a aebe
000003c0: 41c8 27be aa1f 1f3e 2318 2a3e 947d e0be
000003d0: 134c 473e 1d52 133e 8fd7 983e b515 d13d
000003e0: c744 00be bc11 95be 69b5 73be 380d d63c
000003f0: 1788 993d 591f 883e 2d65 3a3e 5e32 633e
-0.59336424 -1.5391487 0.048577525 -1.0786352 0.63856924 -2.4787898 -0.29319185 1.0503894
-0.09977592 -0.28851515 0.8723634 0.1740274 -0.78088933 0.57617986 -0.8282095 -0.3953686
0.5391249 -1.1888272 -1.5279303 -2.1566987 -1.2892368 -0.9569792 0.593411 0.38583285
-0.20190862 0.14867045 -0.4904419 0.23140398 -0.9566899 -0.5696709 -1.3579195 -0.045175303
-0.55110055 1.4345784 0.16234267 1.0679709 -0.51858526 0.7011353 -0.42815056 0.4597907
0.7672523 0.62704253 -0.00987418 -0.4420382 0.045766696 -0.50794095 -0.32454824 -0.2401616
-0.1721895 -0.08132507 -0.7646461 -1.8910942 0.7361931 1.5467399 0.59003824 0.53373146
0.04974269 -0.90455484 -0.63334125 -0.89330596 -0.08484088 0.3548075 0.8160618 0.2647157
0.1836742 -0.15276219 0.6274178 -1.0931474 -0.895582 0.9135952 -0.0874057 0.3050855
3.5136933 0.3209007 2.408639 0.78961 0.4435426 0.30519626 0.2431684 1.1203438
1.0842417 0.2605221 0.26325348 0.32300246 0.32794127 0.40005043 -0.3336728 0.1984635
0.38006032 1.4420123 0.25507158 0.6758769 0.432279 0.66031706 0.46566278 0.5709991
1.3409798 -0.15292156 -0.54315645 -0.48674223 0.49773675 1.1887155 0.088605806 0.5531603
0.082248725 1.0914671 0.28826684 -0.25125915 -1.6822108 -0.124774784 0.34469175 1.02197
1.0508665 1.6283407 -0.37021315 0.27635962 0.5289813 -0.6598793 -0.098113745 0.3618453
0.5312085 -0.16093029 -0.8024723 -0.3230894 0.93406713 -0.098159686 0.4889994 0.6872635
0.30788544 -0.5159928 0.04538525 -3.907307 0.30951673 0.2317117 1.3084956 -0.20428194
-0.43071517 1.6897628 0.11049531 -0.09195131 -0.0008335721 -0.28136277 -1.1432337 0.62822074
-0.17443554 0.27649054 0.14766707 2.9977624 0.5605145 -2.0728893 0.18465409 0.35831887
-0.05068512 0.42743033 0.03683382 0.49843112 -0.27859083 -0.27226347 -0.75002277 -0.3254289
-0.17369105 -0.43000785 0.08485297 0.7636885 0.73630756 0.09062831 0.37001473 0.30678046
-0.3435068 2.618027 -0.011571812 0.45374 -0.12429749 0.77328324 -0.28178644 -0.41923422
0.5946849 0.38314724 -0.34649414 1.0216882 0.5587665 -0.47384647 -1.0073768 -4.0801916
0.40193155 0.7820531 -0.4239265 0.7522741 -1.7555887 -0.050833687 -1.9795213 0.36369783
0.6074502 -0.6878528 0.08814516 0.43571112 0.45400694 -0.21281625 1.7885876 -0.8698808
-0.7389416 0.5521102 0.49006966 0.523205 0.047893632 -0.263134 -11.504195 1.4890524
0.5752784 0.7893157 -0.4179261 -1.8224652 -1.8736595 0.16477379 0.08982705 0.20290035
0.41780475 -2.3629773 0.24241014 0.4758253 0.00976162 -0.15523314 0.10978799 1.4463261
0.004394708 -0.18559003 -0.004492926 0.11220495 -0.1386808 -0.23322843 0.13533211 -0.09905357
0.4879962 0.22779989 0.1449225 0.47711718 -0.1565319 -0.15908572 0.10718867 -0.34041467
-0.16384985 0.15539423 0.1661077 -0.43845809 0.19462614 0.14386792 0.29851958 0.102092184
-0.12526236 -0.29115093 -0.23799671 0.02612935 0.0749666 0.26586416 0.18202658 0.22187182

layer3.bias f4 [75]
00000000: 9463 1cbf ebb5 68be 2e0c b7be 932a 0abe
00000010: ac17 053e b7d4 87be 0feb 8bbe 12fa 7ebe
00000020: 29aa 023d 1b98 59bf a4d0 3fbe 9dc1 a2be
00000030: 6047 8d3f 1c37 51bf a843 d540 37f4 4ebf
00000040: 2670 203f a157 c4be 32ab 163f 9f7c 6cbd
00000050: 9f83 233e 8949 d4bc 567a 5dbf 60c6 2dbf
00000060: cefa 043f 3a42 47bf ce3e 57bd 041e 6fbe
00000070: 7f24 13bf 5d98 bcbe 9496 42bc 0766 e53e
00000080: 46e9 713f 0896 5cc1 f4da ea3b 2542 5e3e
00000090: e03e 94be ea26 cdbe 3c7f cebe 3878 f73d
000000a0: 6078 193f f30f 0fbf 501d 8b3d 03f4 9a3c
000000b0: 08c9 04bd 8c3d 05be e128 00bf 6545 5bbe
000000c0: 3c8b 3a3e 5464 9b3e 248f 043e a4d3 5ebe
000000d0: ce49 99be 9f26 b1bd be17 46be cc15 e1be
000000e0: df48 69bf eb96 4e3f 384f 15be d9d8 f43d
000000f0: a0b4 183e 1896 21be 2722 95be fba7 543e
00000100: b82c 9cbe bd8f 303e fa9d cdbd 6abf 67be
00000110: 4c32 39be c557 23bd 00e5 6fbd 8735 48be
00000120: 17dd a43f 755a f5bb 123b d33e
-0.61089444 -0.22725646 -0.3575148 -0.13492803 0.12997311 -0.26529476 -0.27327773 -0.24900082
0.03190056 -0.8499772 -0.18731934 -0.3178834 1.1037407 -0.81724715 6.664509 -0.8084139
0.62671125 -0.38348106 0.58854973 -0.057736035 0.15968178 -0.02591397 -0.86514795 -0.6788082
0.519452 -0.7783543 -0.05255013 -0.23351294 -0.57477564 -0.36834994 -0.011876721 0.44804403
0.9449657 -13.786629 0.0071672145 0.2170492 -0.2895422 -0.40068752 -0.40331447 0.12083477
0.599493 -0.5588371 0.067927 0.018915182 -0.03241828 -0.1301176 -0.50062376 -0.2141319
0.18217176 0.30349982 0.12945229 -0.21760422 -0.2993912 -0.086499445 -0.19344994 -0.43961942
-0.9112682 0.8069903 -0.14581001 0.11955423 0.14912653 -0.15779912 -0.2912762 0.20767204
-0.30502868 0.17242332 -0.10039897 -0.22631612 -0.18085593 -0.039878625 -0.058568 -0.19551669
1.2879971 -0.00748759 0.41256005

layer4.weight f4 [75, 75]
00000000: 0878 833d afc3 033e 6255 013f 1b09 603e
00000010: d789 23bd 63b0 85be 5f6a b73d c614 753e
00000020: 8ec1 64bd 6711 523f 327f 763d bde5 823e
00000030: 84f8 3dc0 4fa6 0a3e faab 1a3d be76 7dbe
00000040: 8d2f 72be 57f4 293e 6ce6 053f 4020 19be
00000050: dfbe c13e 3335 b0be 9719 f43e 9e88 cd3e
00000060: a37a f3bd 5fd7 003f 1fe5 febe b235 0b3e
00000070: ff90 7c3e 6ed3 973e 87e5 00be a2a1 38bd
00000080: 4083 8f3d 9801 74bf 81a7 cd3e d933 b1be
00000090: b5cf d83e 5cc6 813e 8fb6 c1bd 4192 103e
000000a0: 1a34 bc3f 4e05 d13d 141d 91bc b837 62be
000000b0: 06fe ed3d 3079 c03e 223f 693d 8147 e03d
000000c0: 4093 373b 737f 663e 30c1 0ebe 4fcd d1bd
000000d0: 66b2 14bd 7a2c c9be e481 d53e a4be 533d
000000e0: 4233 f53e 5232 e3bf 9a2e bebe 841c aabc
000000f0: 22d7 343d 575f 4a3d 8ae2 c43d 8867 3cbe
00000100: c0e3 ae3e 5560 0a3e 25b1 fe3e d53f 893d
00000110: 413e d73e 8d80 1dbe f62f a93f a102 253d
00000120: 3b80 213e 2f32 b43d 8ab6 553f c463 8bbe
00000130: 4be3 7b3d 32af c63f 9255 e8be d135 0e40
00000140: 9cc6 893e 80e4 9abf ae5a 2dbe ef41 10be
00000150: 4e81 6b3f 42e4 863f 11a2 323c c430 efbf
00000160: 7734 283e 80a9 643f 58cf 233f b7bb 14c0
00000170: 6c19 733f ac08 39be 10b1 b7bf e233 fa3f
00000180: 086a 343f 953b 4b3d b39c 853f 464d 113f
00000190: d8ae 97bf 45a8 93bf abe6 113e ed2f 183e
000001a0: 8061 90be 79e5 39bf b7d9 3240 95db 3a3c
000001b0: d00a 9d40 9b63 f13f 30ff 75c0 0136 58be
000001c0: 1d30 dabe 4dfa dfbe c07d 2abf e0bd 14bf
000001d0: 1f75 aa3f 32e6 333e fd81 a03b f082 c63f
000001e0: 9cef 97bf 78c3 0140 9951 f4be bfea d4bf
000001f0: 0f98 64bf a7bf 573e 072d 9c40 29b1 18be
00000200: 0de5 72c0 1254 4cbf f5b1 b7bf a339 c93f
00000210: 9a73 d8be 290e 2540 9e41 193f d784 3b3e
00000220: ce5f 6ebf a6f8 373e 8355 683f 0f88 a1c0
00000230: 1c0e 36bf 75f6 d8bf 8a17 643f 4afa a8bd
00000240: 549d 14bf e86c 10c0 fae4 d5be bc05 223e
00000250: 138a 79bf 6532 4f40 57a6 a0bf 1edf 94bf
00000260: 2d38 e5be 6fee 8bbe 7593 2b3e 7c1b 81c0
00000270: afa4 30c0 76fb 3dbd 1b8a 1a3f 5241 d6c0
00000280: 3587 aebf 0f8a c5be bd80 eb41 bbb5 d53b
00000290: 16e1 c63e 505b 763f f409 0240 2348 ad3e
000002a0: a8f4 b4c0 0b2f 1cbf 0c49 9abf 6dc8 edbf
000002b0: 03f5 61bf 14d0 b63e 2690 20c1 5115 96c0
000002c0: e28d 873f 5c44 41bf 7ce2 d6be 3c91 31bf
000002d0: 46a1 1ebe 5c2c 6240 da1e 4540 1b0c 0041
000002e0: 22a6 c5bf 19b9 d4bf 5207 4ec0 83a7 47be
000002f0: 5d19 80be d0e8 eebf 17b9 35c1 3a95 b040
00000300: c7bc 0bbf eb08 e5bd 5a31 1ac0 cb06 06c0
00000310: 36c4 b1c0 85d9 bfbc 83a8 903e f332 943e
00000320: 437e 933e c748 1740 9901 f7be d05a 9cc0
00000330: b7b3 b7c0 4d7f 38be 86d3 ebbf c6c6 55c0
00000340: e5b7 1f41 f02c 503f e631 24bf d57b 933e
00000350: dacc 6ebd b4fe 923f 145c 1ec0 667b a3c0
00000360: a2c2 f4bf 0d69 0abf a504 0d40 686c 0d3f
00000370: 64ad dc40 1298 33be 1dea 94bf adbe c6bf
00000380: 04da c7c0 5881 c23f 1676 bd3f cde3 1740
00000390: ed55 553e 2845 5540 464b fb40 2ddc 8fbd
000003a0: 63ed 013e e3c7 b5bd 5a07 5540 d8c6 07bf
000003b0: d7be 493f c484 f6c0 3cf9 f1bf 59d8 b13f
000003c0: df0f a3bf db74 d2c0 a99f 42bf 66c8 b340
000003d0: dcf7 583f 2ef8 8c40 b0dd 6640 cef7 2340
000003e0: 0b8d 2a40 0082 a040 8edc 7740 b874 5dc0
000003f0: 3b08 e83f 499e 0a3f c0a4 5b3e 6a29 a8bf
0.064193785 0.12867616 0.5052091 0.21878473 -0.039926376 -0.26111135 0.089558356 0.23933706
-0.05584865 0.82057804 0.060179897 0.255659 -2.9682932 0.13540004 0.037761666 -0.24752328
-0.23650952 0.16597115 0.5230472 -0.14953709 0.37840936 -0.34415588 0.47675774 0.40143293
-0.118886255 0.5032863 -0.4978418 0.13594702 0.24664687 0.29653496 -0.12587558 -0.04507602
0.07007456 -0.9531493 0.40166858 -0.3460987 0.42345968 0.2534665 -0.094586484 0.14118291
1.47034 0.1020609 -0.01771406 -0.22091568 0.11620717 0.3759246 0.056944974 0.10951138
0.0028011352 0.22509556 -0.13940883 -0.10244238 -0.036302947 -0.39291745 0.4170066 0.05169548
0.4789067 -1.7749732 -0.3714493 -0.02076555 0.04415048 0.04940733 0.096135214 -0.18398869
0.34158134 0.1351331 0.49744526 0.06701628 0.42039683 -0.1538107 1.3217762 0.04028571
0.15771572 0.08798634 0.8348166 -0.27224553 0.06149606 1.5522215 -0.45377785 2.2220347
0.2690934 -1.2100983 -0.16929123 -0.14087652 0.9199418 1.0538409 0.010902897 -1.8686757
0.16426264 0.89321136 0.63988256 -2.3239572 0.94960666 -0.18069714 -1.435091 1.9547083
0.7047429 0.04961737 1.0438446 0.56758535 -1.1850233 -1.1535727 0.14248149 0.14862032
-0.28199387 -0.7261577 2.7945383 0.0114048915 4.90757 1.8858522 -3.8437004 -0.21114351
-0.42614833 -0.43745652 -0.6659813 -0.58102226 1.3316993 0.17568281 0.0048983083 1.5508709
-1.1869998 2.0275555 -0.47718504 -1.6634139 -0.89294523 0.21069203 4.8804965 -0.14911331
-3.7952302 -0.7981578 -1.4351183 1.5720714 -0.42275697 2.5789893 0.5986575 0.18312393
-0.93114936 0.17965946 0.9075548 -5.0478587 -0.7111528 -1.6950213 0.8909842 -0.08250864
-0.58052564 -2.256647 -0.41776258 0.158225 -0.9747631 3.2374508 -1.2550763 -1.163059
-0.4476942 -0.27330348 0.16755469 -4.034605 -2.7600515 -0.04638239 0.6036698 -6.6954737
-1.3635012 -0.38581893 29.43786 0.006521908 0.38843602 0.9623308 2.0318575 0.33844098
-5.6548653 -0.6100928 -1.2053542 -1.857679 -0.88264483 0.35705626 -10.0351925 -4.690102
1.0590174 -0.75494933 -0.4196967 -0.69362235 -0.15491208 3.5339575 3.080008 8.002955
-1.5441325 -1.6618987 -3.2191968 -0.19497494 -0.2501935 -1.8664799 -11.357688 5.518216
-0.54584926 -0.111833416 -2.4092622 -2.0941646 -5.5552015 -0.023419151 0.28253564 0.2894512
0.28807268 2.363817 -0.48243406 -4.8860855 -5.740688 -0.18017311 -1.8423927 -3.3402572
9.982396 0.8131857 -0.6413864 0.28805414 -0.05830083 1.1483979 -2.47437 -5.1088133
-1.9121897 -0.54066545 2.2034085 0.5524354 6.896166 -0.17538479 -1.1633946 -1.552694
-6.245363 1.5195723 1.4801662 2.3732789 0.2083356 3.332346 7.8529387 -0.07024417
0.12688212 -0.08876016 3.3285737 -0.53037786 0.78806823 -7.7037067 -1.8904185 1.3894149
-1.2739218 -6.5767646 -0.7602487 5.6182127 0.84753203 4.4052954 3.6072807 2.5619998
2.6648586 5.015869 3.8728366 -3.460249 1.8127512 0.54147774 0.21449566 -1.3137639

layer4.bias f4 [75]
00000000: e154 cdbe cfa7 023e af4a 8c3e 71d7 81be
00000010: 30c1 77bf 6fc0 1f3f e9e9 70bd 21f7 e3be
00000020: 643e 08be 81d5 fbbf dc8e b63e c694 91bc
00000030: 3fca ffbd 7e11 253e d60f abbe a6ed 18be
00000040: 3d13 b0be 0e5b b9be 98e8 31bf 0d2f 53be
00000050: 2fda c3be 28b6 893f fc44 73bd 4674 b1be
00000060: eefc 263f 3d80 22be 7acd 49bf fdae b3be
00000070: 54fd 2e3f 328a 8abd f6e1 8ebe fe3b 163f
00000080: 514a 62bf b8fa 193f 546c 13bf f281 30bf
00000090: b48b aabe 9f6a 98bf 6146 453f 720d 1bbf
000000a0: 20e8 d4bd ad1b d9bd e1ce a93e e400 90be
000000b0: 5a31 f7be 9621 233d 70e1 febe f7d9 41bf
000000c0: 70c9 e7be e030 4ebe c9e0 1bbf 5dcd 79bf
000000d0: dec9 afbf 9f28 2bbf 23a7 253f ddb7 06c0
000000e0: fbcb 9bbe 4172 9cbe c8a3 6ebe 69ad 82be
000000f0: 15de f9be 1da0 4cbe 89c6 11bf c303 babe
00000100: 4780 d23e 10d3 60bf 9267 bb3e bd8e b6bd
00000110: 2761 aebe 8ae8 b83e 7fa6 dabc b10e 063e
00000120: 7610 5abe 7697 413f 21dd 7dc0
-0.4010382 0.12759326 0.2740073 -0.2535968 -0.96779156 0.62403005 -0.058816824 -0.44524482
-0.1330505 -1.9674531 0.35655868 -0.017771136 -0.12489747 0.16119954 -0.3341052 -0.14934406
-0.34389678 -0.36202282 -0.69495535 -0.20623417 -0.38252398 1.0758715 -0.05939196 -0.34659022
0.6522969 -0.15869232 -0.7882916 -0.35094443 0.683553 -0.0676464 -0.2790677 0.5868529
-0.8839465 0.6014819 -0.5758717 -0.6894828 -0.3330971 -1.1907538 0.77060515 -0.6056739
-0.10395837 -0.10600982 0.3316565 -0.2812568 -0.4827984 0.039826952 -0.4978137 -0.7572321
-0.45270872 -0.20135832 -0.6088987 -0.97578984 -1.373348 -0.6685886 0.64708155 -2.1049721
-0.30429062 -0.3055592 -0.23304665 -0.25522926 -0.48802248 -0.19982953 -0.56943566 -0.36330995
0.41113493 -0.87822056 0.36602455 -0.08913944 -0.34058496 0.36114913 -0.02669072 0.13091542
-0.21295342 0.75621736 -3.9666216

layer5.weight f4 [75, 75]
00000000: 55e7 88bd 8547 e4be 5673 46bf 5e7a 703d
00000010: 2a8e ea3f 0660 cbbe 3908 5bbe a32a 75bf
00000020: 81f5 39ba 9f5f 65bc 41d0 85be 28af 92be
00000030: a0c9 ecbd 0929 86bf b626 873d 78ce 98be
00000040: 2e1e dcbf 0616 20bf 182c 163f 79e8 ae3e
00000050: 180e 193f ab88 283e e278 493f 3fe6 633d
00000060: 189b 9d3c 5680 873d 4e97 8e3f d4e2 8b3f
00000070: aa9c d2be a44c b43d 6301 8c3e c4f1 b1bd
00000080: 2f6c 103e 2bfd a93e 6f13 a7bd 9a5d b5be
00000090: d9b9 04bd 82d3 ee3e ae9a 59be ff1b c0bd
000000a0: 0816 7d3e 2a9e 8bbc 9435 bd3e f97f 4f3e
000000b0: 9f9b f63c 7a3e 2d3f ca0c 8b3f 3bb0 5b3e
000000c0: a5b9 50be 84c9 e03d bd68 3f3f 5bbf 84be
000000d0: 848f dc3e d40b a4be 2020 d7bf a5d2 ab3d
000000e0: 5cab f9bd a273 b9be 3902 9d3f 915c c93d
000000f0: f440 923d 3a50 fcbe 0e04 273e 0fc4 03bf
00000100: 191f 1b3f c528 7e3f 85b0 653f 3d5c 773e
00000110: e046 7a3d 413a 7c3e ae62 303f 6d44 04c0
00000120: af56 b3be 1969 b7be a06a c93d b6f6 dfbe
00000130: ec83 dbbd 3132 0340 f3a0 e9bd a78d 2e40
00000140: 27f1 19bf 4be8 e0bf 4589 a33f 43bf f93c
00000150: 8b68 8d40 35e5 4cc0 7ff9 003f ae3f 0f3f
00000160: 808c d4c0 bd58 9440 3978 d9be ab4a 93c0
00000170: e8e6 73bf 047a 3541 2ca0 893e 2c43 713f
00000180: e9dc d53f 12dc 1a3f 56b4 b43f f917 49bf
00000190: 7601 9440 bb17 ca40 c95f d741 549f 3f3f
000001a0: 133f 25c0 a5ea 3e3f 23fe 82c0 314c b340
000001b0: 8a79 ee3e 0dcb 283f b9ed 1fbf 1895 dc3f
000001c0: 5764 d13f cae6 19be f978 6240 f12d 40bd
000001d0: efb5 1dbf 0040 79bf 93cf a13f 15cd ae3f
000001e0: 01a7 2e3e b7a9 293f d4b6 53bf 38ef aebf
000001f0: b5d3 603f 864d df3f d0a2 1bc0 a6b2 4ac0
00000200: d1b2 32bf 95a3 efc0 e8b9 45c0 baf4 cbbe
00000210: 7f14 c9bf ebcb e13f 197e 0d3f f48d 82bf
00000220: 85b7 dcbf 1c94 f2be e8b5 c5bd 221e 9a3b
00000230: 1d93 2440 81a6 81be b5dc 60bf d8d1 24c0
00000240: 1c9c 7a3f 091e dfbf ee31 68c1 3558 cbbe
00000250: 38b4 8e3c 77d7 30bf e3a6 da3f b2a6 0e41
00000260: c9ed 1c41 d4b9 97c0 c4b7 61c0 6000 10c0
00000270: fc76 3d40 b2ca 9ebf 9dde 7abf f4e7 9dc0
00000280: 0539 c341 597e a140 9f3d 953f 45db b041
00000290: d73d 9340 cd16 4ac0 150f 6041 2b42 cebf
000002a0: eea4 e73f 8edb d6bf 299e 12c0 1580 80c0
000002b0: a29c 5bbf 211e 22c0 4ad0 84bf c51f e740
000002c0: 2e3a 4cc0 71ed 1041 fc3e bcbf 34e7 84c0
000002d0: 138f 0fc0 072a 2dbe e442 1b41 a1da 0540
000002e0: e7cc 0fc0 e182 58c0 bc30 b540 88e0 ebbe
000002f0: 6d0f e9c0 5add 0ebf c46f f73e bd53 2440
00000300: 1eb4 2ac0 5447 1a40 b6ca 80c0 649b 84c0
00000310: 4933 3cc0 0dfb 1b3f 1981 19c0 a38b adbf
00000320: 7f84 9ebf de5a 0dbf 6562 6141 a0d3 a5bf
00000330: 1918 9b41 51c1 2d41 027f 9a3f 6b10 a43f
00000340: 7d3c a0bf 2d98 45c0 3bff 6dc0 1ae8 56c0
00000350: 5ee4 12c0 8c70 2942 d28d 5bbf 486c 94c0
00000360: 77af 5e41 ac1c 93c0 7e1a 993f 4e38 5b3e
00000370: f8e5 7940 c55a c840 ee13 5dc0 522e 9b40
00000380: 81fc 76bf 53dd a13f f8ba 9b3f dfba f03e
00000390: b0ee 8ec0 6dfa 48c1 1c14 1ec0 4950 2ec0
000003a0: 5592 9340 d9d6 c7bd 6c88 ba3f d394 953f
000003b0: 540b ebbf 2467 b93f 7852 aa40 acd4 6bc0
000003c0: 6b90 5dc0 e137 5bc0 34d1 58c0 eee2 b0c0
000003d0: 4d9c 8b3e 8c26 b8c0 0b76 c8bf ea8e c0bf
000003e0: 6007 3a3e 3122 51c0 2c55 53bf faf4 a9c0
000003f0: 6769 50c0 ad22 1ebf 712b 03c0 96a0 8940
-0.06684748 -0.44585815 -0.7751974 0.05871045 1.8324635 -0.39721698 -0.21389855 -0.95768183
-0.0007093773 -0.013999849 -0.26135448 -0.2864926 -0.115618944 -1.0481273 0.065991804 -0.29845023
-1.719671 -0.62533605 0.5866103 0.34161738 0.5978713 0.16458385 0.7870008 0.0556395
0.019238994 0.06616275 1.1139925 1.0928597 -0.4113515 0.088036805 0.27344808 -0.08688691
0.14103769 0.33200964 -0.081580035 -0.35422975 -0.0324038 0.46645743 -0.21250412 -0.0938034
0.24715436 -0.017043192 0.3695494 0.20263661 0.030103503 0.67673457 1.0863278 0.21453945
-0.20383318 0.10975936 0.7476919 -0.25927243 0.43078244 -0.32040274 -1.6806679 0.08389787
-0.12190887 -0.36221033 1.2266303 0.09832109 0.07141295 -0.49279958 0.1631014 -0.51471037
0.60594326 0.9928096 0.8972247 0.2415628 0.061102748 0.24631597 0.68900573 -2.0666764
-0.35027072 -0.3582237 0.0983479 -0.43742913 -0.107185215 2.0499384 -0.11407652 2.7273958
-0.60133594 -1.757089 1.2776266 0.030486709 4.4190116 -3.2014897 0.503807 0.5595654
-6.642151 4.6358323 -0.42474535 -4.6028647 -0.9527421 11.342289 0.26880014 0.9424312
1.6708041 0.6049205 1.4117534 -0.78552204 4.6251783 6.315397 26.92177 0.7485249
-2.5819747 0.7457679 -4.0935225 5.6030507 0.46577102 0.6593483 -0.6247211 1.7233
1.6358746 -0.15029445 3.5386336 -0.046918813 -0.61605734 -0.9736328 1.2641472 1.3656336
0.17055894 0.6627459 -0.8270085 -1.3666754 0.8782304 1.7445533 -2.4318123 -3.1671538
-0.698041 -7.4887185 -3.0894718 -0.3983515 -1.570938 1.7640356 0.55270535 -1.0199571
-1.7243506 -0.47378623 -0.096538365 0.004703299 2.571479 -0.25322345 -0.8783677 -2.5753078
0.97894454 -1.7431041 -14.51219 -0.39715734 0.01741992 -0.69078773 1.708218 8.915697
9.808053 -4.741434 -3.5268412 -2.250023 2.9603872 -1.2405608 -0.9799593 -4.9345646
24.402842 5.0466733 1.165943 22.107065 4.601299 -3.1576416 14.003682 -1.6113943
1.8097208 -1.6785753 -2.2909033 -4.015635 -0.8578588 -2.533089 -1.0376065 7.222628
-3.191051 9.057969 -1.4706721 -4.153223 -2.2431076 -0.16910563 9.703831 2.091469
-2.2468812 -3.3829882 5.662199 -0.4606974 -7.283133 -0.55806506 0.48327458 2.567611
-2.6672435 2.4106035 -4.024745 -4.1439686 -2.9406302 0.6092995 -2.3985045 -1.3558239
-1.2384185 -0.5521678 14.086522 -1.2955208 19.386766 10.859696 1.207001 1.281751
-1.251846 -3.087413 -3.718703 -3.3579164 -2.2951884 42.35991 -0.85763276 -4.638218
13.917838 -4.59725 1.196121 0.21408197 3.9046612 6.2610803 -3.4543414 4.8494043
-0.9647904 1.2645668 1.2166433 0.4701757 -4.4666367 -12.561139 -2.4699774 -2.7236502
4.611613 -0.09757776 1.4572883 1.1686043 -1.8362832 1.4484601 5.322567 -3.6848555
-3.4619396 -3.4252856 -3.3877687 -5.5277014 0.27267686 -5.7547054 -1.5661024 -1.5043614
0.18166876 -3.2677119 -0.82551837 -5.3111544 -3.2564332 -0.6177166 -2.0495265 4.300853

layer5.bias f4 [75]
00000000: 06f0 b53c b297 393e f6fd aa3e 5b09 af3f
00000010: fd0c 6fbc c64a 893f 428a b43e f153 54bd
00000020: 4f7a 223e 43a9 5dbd 20e9 1cbe 6cd0 763e
00000030: b8d7 733f 6ea6 acbc 2d8d 1abe c956 d63d
00000040: b735 8ebe 0270 9d3e eae4 93be dd35 a53d
00000050: 1805 383e ae55 6d3e 2b25 7a3e 1e69 123c
00000060: b9db 703e 1b18 3eba 4e3a 633d f037 943e
00000070: df10 dabd 41e9 fc3d e686 8cbe c435 4b3e
00000080: 6734 e73d 331b 1e3d 06e0 62bd e3ff 963e
00000090: cbca a83e 7eac 9940 d7ad b63e c6e2 213e
000000a0: 3c5c a03d 244a 7dbd 5020 583d d480 783e
000000b0: 56a6 263e 8f2b 31bd 5feb 2e3e ae9c babc
000000c0: e7cc 38bf ba79 0fbe 927e 19be 546b 803a
000000d0: 4035 10bd 2f73 1ebd 28ed cb3e 9c3c 8dbf
000000e0: ea8d 4cbe c304 8d3e 47fa c93e 531e fcbc
000000f0: 5e27 cc3e 8b7c 41be bcf2 14be a2b4 80bd
00000100: c123 b6be 53bb 6dbd e007 263e 6482 7c3e
00000110: ea89 323f fa26 8cbf ee17 8d3f 313c abbe
00000120: 3e6f 2c3e 7745 45be c158 c53e
0.022209179 0.18124273 0.33396882 1.367473 -0.014590499 1.0725944 0.35261732 -0.051837865
0.1586697 -0.0541165 -0.15323305 0.24102944 0.95251036 -0.021075454 -0.15092917 0.10465772
-0.27775356 0.30749518 -0.28885585 0.08066914 0.17970693 0.23177215 0.24428241 0.008936195
0.23521318 -0.0007251517 0.055475526 0.28948927 -0.10647749 0.12349177 -0.2744667 0.19844729
0.11289292 0.038600158 -0.055389427 0.294921 0.3296722 4.802306 0.35679504 0.15809163
0.07830092 -0.061838284 0.05276519 0.24267894 0.1627439 -0.04325443 0.17081974 -0.022779789
-0.72187656 -0.14011279 -0.14989689 0.0009797611 -0.035207033 -0.038684066 0.39829373 -1.1034122
-0.19976011 0.27542695 0.3944876 -0.030776178 0.39873785 -0.18895166 -0.14545721 -0.06284453
-0.35574153 -0.058039974 0.16213942 0.24659115 0.6974169 -1.0949395 1.1022928 -0.3344436
0.1683931 -0.1926478 0.38544276

layer6.weight f4 [75, 75]
00000000: 4817 10bc e8ff 943e aae5 733f 6363 2dbf
00000010: 9c1e 82bc 6417 d6bf 3918 d33e f746 333c
00000020: 1dfb 9ebe 17c9 dcbd 1e56 74bf a45a 2b3e
00000030: 0a72 5abf e523 79be 360f d0be d68a 2cbe
00000040: e666 e6bf a79a 30c0 18b6 d63e 1e2b 62bf
00000050: 2cc7 77bd cf33 e2be 706d 8bbf 7d77 59bf
00000060: 8112 e3be a7a0 9ebe 56a1 e83e 9345 cd3f
00000070: 7ff2 d43e 2cf5 cfbe b460 bb3e cd5e 76bf
00000080: 06ad 6b3d 7c47 3fbe 3619 de3d d193 023d
00000090: 3978 be3e d3c1 c3c0 391f 983f ac0b cb3d
000000a0: 7e82 38be 2013 6cbf be51 b1bd 4b9a 46bc
000000b0: cfe0 ca3e cfaf 2b3f f1f2 433d 47c9 7bbe
000000c0: 6789 c4bd cd2c 3dbf 5c37 83bf bc55 15bf
000000d0: 1c83 4fbf 512a ca3e 9653 1740 96b4 4cbf
000000e0: 279e 29bf 4201 8e3f ab52 b1bf fec2 683e
000000f0: 5a90 35bf 77e3 99be 5625 9cbf 37c1 6dbe
00000100: 61f9 b940 c2a8 133e f55b 92bd 7806 a4bf
00000110: 1004 b4bf 8aa4 2041 6aaf 87c0 2660 17be
00000120: 0bb3 9c3e 7054 89bf 848b a33d 6c95 443f
00000130: d396 3b3f 09c1 873f 1ee7 3cc0 1a8d 0e3f
00000140: 5ea9 983f 16e3 0cbf 6798 c4be b84e 9e3e
00000150: 59e1 463e e7ce 4ebf 4ae4 0b3f 36be d8bc
00000160: 2614 31bf e03e e43e 6b3f b1bc 6b66 b4bd
00000170: b8d6 88bf b2fa b9be c0a8 5b3e 4932 173e
00000180: ce93 3c3e 6292 553f 01fd f1be d857 0e3e
00000190: 29fa 2d40 4f86 e93e 06f7 dd3f 3858 5c3e
000001a0: 9543 df3d 98cc 7c3f c1a8 e63e 068f e03e
000001b0: 314f 1bbf be40 11be 83dd 67bf 99b9 043f
000001c0: 48cf b5bf a2a7 92be 64dc 0fbf 6615 123e
000001d0: 4eb5 13bd 477b bd3e ce13 af3e 0deb f03e
000001e0: faf9 71be 99ee 9abe 4526 ddbe ff32 683e
000001f0: 5f3a c33e d6ad ae3e 6e8e 083e 90eb f7be
00000200: 068a e8bf 230f 893f 30a7 5ebf 67f8 773f
00000210: ecb4 883f 444b 8fbf a620 de3e 9ac9 2dc0
00000220: 950d 463d 3e82 963d 7d01 6c3c e0c2 3d40
00000230: 39cc 51bf a0c9 d53c 97be 153f 3c9b 723e
00000240: fb58 febf 78f7 aebe fb02 debc 461c 3f3f
00000250: 8ec7 843e 563d 9c40 9776 aebe 7add 40bf
00000260: bcdb 8b3f 5eb8 9fbf 6c0d f5bd df5d 053f
00000270: cadb ecbd c724 76be 7e50 8fbe ad8b 88be
00000280: c711 96bf 1332 1dbc ec75 c1bf b73d b3bf
00000290: 625d 42be 530e 0cbf 2b01 2940 51a5 d2be
000002a0: b7b7 6dbc 6dd1 39bf 9c01 96bd 55db 4fbf
000002b0: 9fb7 4cbf 0aba 08be 8ab9 b1be 19e0 8abe
000002c0: f1e5 283f 6691 ad3f 5d6f a23e 737f 1ebd
000002d0: 4869 003e 2253 abbd 8218 1cbf b212 3dbf
000002e0: dd54 dfbe 15e2 f2be 8e57 db3e 401f 5fbf
000002f0: b2d6 5dbb 14a2 13be ba77 a6bd 70c8 abbe
00000300: a38c 0c3b 0151 a4bd ea19 cd3e e262 a73e
00000310: 9bac 64bc 0931 5dbe 5a12 04bf 92b9 47be
00000320: aa37 09bf c1a2 aebc 7def 9dbf a490 063f
00000330: f61c df3e 9504 0fbf 1988 edbe ec70 8a3f
00000340: 57b1 c6be 45dc 273e 14a3 ffbe c149 bdbe
00000350: 97bb cebf e865 f8be 2527 ab3e 766c eebe
00000360: 7156 3ebe 9eca 48bf 33ea efbf b246 c8bf
00000370: 6ac2 50bf 9a71 20bd c0e3 573e a4be 72be
00000380: 1150 883e 02a6 f43d eaf7 3c3f 9fdf 973e
00000390: 6fa2 40bd a68b e93c fb24 493f 701d c83d
000003a0: 7461 243e 7f20 e3bc 0cfe f13c b762 65be
000003b0: d0e9 94bd d70e b2bd 3053 c53e e314 683e
000003c0: 7107 f73e 2283 ef3e 4522 b13f ec72 67be
000003d0: f26d 1e3f 0a3f eebd b824 01be b4a1 9b3f
000003e0: d4ee d83e c331 093c fb3e 033f 3b0a 003f
000003f0: 72db 6c3f 44f9 8c3e 463c 213e 98ec dc3e
-0.008794613 0.2910149 0.95272315 -0.6772978 -0.015883736 -1.6725888 0.41229418 0.010942212
-0.3105096 -0.10780542 -0.95443904 0.16733795 -0.8533026 -0.24330099 -0.40636605 -0.16849837
-1.8000152 -2.7594392 0.41935802 -0.8834704 -0.06049268 -0.44180152 -1.0892773 -0.8494795
-0.44350055 -0.30981943 0.4543559 1.6036857 0.4159126 -0.4061674 0.36597216 -0.96238405
0.057538055 -0.18679613 0.10844652 0.03187925 0.37201098 -6.11741 1.1884528 0.099143356
-0.18018529 -0.9221668 -0.08658169 -0.012121747 0.3962464 0.6706514 0.04783911 -0.245885
-0.0959652 -0.73896486 -1.0251269 -0.58333945 -0.8105943 0.3948541 2.3644767 -0.7996305
-0.66256946 1.1094134 -1.3853353 0.22730634 -0.7092339 -0.30056354 -1.2198894 -0.23218237
5.8116918 0.14419845 -0.07146446 -1.2814474 -1.406374 10.040171 -4.240163 -0.14782771
0.3060535 -1.0728893 0.07985595 0.767905 0.73277014 1.0605785 -2.9516063 0.55684054
1.1926687 -0.55034006 -0.38397524 0.30919433 0.19421901 -0.8078446 0.54645216 -0.026457887
-0.6917137 0.4457922 -0.021636685 -0.08808597 -1.0690527 -0.36324078 0.21451092 0.14765276
0.18415758 0.8342649 -0.4726334 0.13900697 2.7183936 0.45610282 1.734101 0.21518028
0.10901562 0.98749685 0.45050624 0.43859118 -0.6066771 -0.14184853 -0.90572375 0.518457
-1.4203882 -0.2864352 -0.56195664 0.14265975 -0.036061577 0.37008116 0.34194797 0.4705433
-0.23630515 -0.3026016 -0.4319326 0.22675703 0.3813047 0.34117 0.13335583 -0.48421907
-1.8167121 1.0707744 -0.8697386 0.96863407 1.0680213 -1.1194844 0.43384284 -2.7154298
0.048352797 0.073490605 0.014404652 2.9650192 -0.81952244 0.026097119 0.5849394 0.2369203
-1.9870905 -0.3417318 -0.02710103 0.74652517 0.25933498 4.8824873 -0.34074852 -0.75337946
1.0926433 -1.2478139 -0.11965451 0.5209636 -0.11565359 -0.24037467 -0.27991098 -0.26669064
-1.1724175 -0.009594458 -1.5114112 -1.4003209 -0.18980935 -0.5470936 2.6406963 -0.4114175
-0.014509133 -0.72585183 -0.07324526 -0.8119405 -0.79967684 -0.13352218 -0.34711868 -0.27124098
0.6597586 1.3559997 0.31725588 -0.038695764 0.12540162 -0.08365466 -0.60974896 -0.7385665
-0.43619433 -0.47438112 0.42840236 -0.8715706 -0.0033849892 -0.14417297 -0.08128305 -0.3355136
0.002144613 -0.08023263 0.40058833 0.3269263 -0.013957168 -0.21600737 -0.515905 -0.19504383
-0.5360056 -0.021317841 -1.2338711 0.52564454 0.43576783 -0.55866367 -0.46392897 1.0815711
-0.38807175 0.1639262 -0.49929106 -0.36970332 -1.6150998 -0.48515248 0.33428302 -0.46567124
-0.18587662 -0.7843417 -1.8743347 -1.5646574 -0.8154665 -0.03917084 0.21082973 -0.23705536
0.26623586 0.11945726 0.73815787 0.29662797 -0.04702991 0.028508972 0.7857205 0.0977124
0.160528 -0.027725456 0.029540084 -0.22400938 -0.07271159 -0.08694237 0.3854003 0.22664218
0.48247865 0.46779734 1.3838583 -0.22602433 0.61886513 -0.116331175 -0.12611663 1.2158723
0.4236971 0.0083736805 0.51267976 0.5001561 0.92522347 0.27533925 0.15745649 0.43149257

layer6.bias f4 [75]
00000000: d546 c1be 26e4 903e e7c7 853e d7e1 c3bd
00000010: e010 d1bd 3a4e dc3e cadb aabe a242 1abf
00000020: 2b17 6c3d e6a7 51bf d32d 1fbf 94a0 393e
00000030: 08e5 003d a3cd d83c 57fe e8be 6e55 2ebf
00000040: 6655 233e 6aaa 2fbe bc7c 933e 092b efbd
00000050: 6666 81be e163 a6be 70ae 123e 2c1e 27bf
00000060: 8643 143e 26c8 17be e2d0 b0bd 8610 d1bd
00000070: 433d ac3e 4b5c 45be 1152 8e3c d457 3f3e
00000080: e286 d1be 8f90 0fbc 2a58 eb3e c0cc 6e3e
00000090: bee9 37be bb97 093e a678 b23c c24b 2abe
000000a0: 49c5 e8be 2aa9 dcbd e96d babd 2632 dd3c
000000b0: 07ca 5fbe 2589 38be 8808 45bf da54 203e
000000c0: e5b0 c4be a436 ed3f e8d0 5a3e fa3d 5d3e
000000d0: b7bd 4a40 a76c fbbc 9ee6 833e e9fa 48bd
000000e0: c268 703e 8308 dbbe 6ca9 33bf 4272 113d
000000f0: f4c3 b53e 6e52 e63e c874 ecbd 4526 2bbf
00000100: 875a 4a3e a330 9fbb d64e 3a3e d934 af3f
00000110: 34ab 003e b589 74c1 5c7b 903d 770a 44be
00000120: 4b22 983d 9798 423e 809f c5bd
-0.37749353 0.28299063 0.26129076 -0.0956456 -0.10208297 0.43028432 -0.3337081 -0.60257924
0.057639282 -0.8189682 -0.621793 0.18127662 0.03146842 0.026465243 -0.45506546 -0.68099105
0.15950546 -0.17154852 0.28806102 -0.1167813 -0.25273436 -0.32498077 0.14324355 -0.65280414
0.14478883 -0.14822444 -0.08633591 -0.1020823 0.3364049 -0.19273488 0.017373117 0.18685848
-0.4092322 -0.008762493 0.459657 0.23320293 -0.1796026 0.13436787 0.021786045 -0.16630462
-0.45463017 -0.10774453 -0.09102995 0.027001452 -0.21854411 -0.18021066 -0.7696614 0.15657368
-0.3841621 1.85323 0.21368754 0.21605673 3.1678293 -0.030691458 0.25761884 -0.04906741
0.23477462 -0.4277993 -0.7018039 0.035509355 0.35501063 0.44984764 -0.11545712 -0.6685527
0.19761096 -0.004858093 0.18194136 1.3688003 0.12565309 -15.28362 0.07054779 -0.19144617
0.07428416 0.19003521 -0.09649563

layer7.weight f4 [1, 75]
00000000: 677f 15b6 2bf5 a4b3 bd3b 3bb7 0bdf 313b
00000010: 2ca0 4d35 b1cf 0ab8 6ccc bdbd e733 20b0
00000020: fb1c 40b4 6433 47bd 60fd 02b5 225b e5bc
00000030: 1a14 81bb 08d7 eebc 8560 04c0 65c9 a6bf
00000040: e190 82b1 c2f1 83bb 7341 3ab7 bcf6 9e35
00000050: 42a6 01b8 a95b d53a b2ae 2240 befe 9934
00000060: 31bd 973c a40f 1139 89ab 13b9 9d99 a2bc
00000070: 5817 b23a 0895 80b1 76f5 82bc 56f2 322f
00000080: db8f d4b5 97d1 a635 c571 4139 b802 183c
00000090: 2f19 2532 fc97 98bc 79ed 203b 631a 20bc
000000a0: f7fa 19bd 6021 f3b7 b164 1b3b 599a 5cb5
000000b0: 05fa 483b 83a2 033c 4295 83c0 f5b5 f93a
000000c0: 0340 a036 28d8 5dbd acdb cdbc 061f c238
000000d0: e8b2 07ba 1b96 9cc1 7843 7bbf 431b 3dbe
000000e0: ddb7 b2bf 4fd7 a9b6 5e22 44bf d7b0 fcbb
000000f0: a419 0db0 d2b4 4cb9 c117 373b f384 a8bd
00000100: 4814 b53e 9840 a637 6d43 72c0 1da7 3fbe
00000110: aad0 73ba ad3f 54bb d446 0f40 abfb d5b9
00000120: e689 a0b9 7294 12bb 80fc a9b8
-2.2276888e-06 -7.681441e-08 -1.11599775e-05 0.0027141 7.660153e-07 -3.309519e-05 -0.09267506 -5.828142e-10
-1.7891936e-07 -0.048632994 -4.8797483e-07 -0.027997557 -0.003939164 -0.02915527 -2.068391 -1.3030211
-3.799969e-09 -0.0040266225 -1.11017025e-05 1.1843726e-06 -3.0910836e-05 0.0016277927 2.5419126 2.868382e-07
0.01852283 0.00013834104 -0.00014082914 -0.01984864 0.0013587279 -3.742233e-09 -0.015986186 1.6275101e-10
-1.5837098e-06 1.2428962e-06 0.00018448297 0.009277992 9.60999e-09 -0.01862716 0.0024555607 -0.009771916
-0.037592854 -2.8983399e-05 0.002371114 -8.218099e-07 0.0030666601 0.008034351 -4.11197 0.001905142
4.7758235e-06 -0.05416122 -0.025129162 9.2564194e-05 -0.00051765004 -19.573294 -0.98149824 -0.18467431
-1.3962361 -5.0616577e-06 -0.7661494 -0.0077115106 -5.133194e-10 -0.00019522317 0.0027937742 -0.08228483
0.35367036 1.981882e-05 -3.7853653 -0.18716092 -0.0009300808 -0.0032386587 2.238698 -0.00040814033
-0.0003062032 -0.0022366312 -8.10558e-05
