model_weights_3.pth (torch, 120110 bytes, 31 tensors)

layer1.weight f4 [75, 68]
0	0xc0c2fe8a	-6.0935717
1	0x3f5661c6	0.8374294
2	0x3d6638e6	0.056206606
3	0x3f531a1c	0.82461715
4	0xbc6dc790	-0.014512911
5	0xbda8f97f	-0.082507126
6	0x3dd112f2	0.10208692
7	0x3df048cb	0.11732634
8	0x3d6156cf	0.055014428
9	0x3ddbfcf8	0.10741609
10	0x3da20aea	0.07912238
11	0xbcf9b589	-0.03048207
12	0xbd193067	-0.037399676
13	0x3d8cf166	0.068819806
14	0x3c8fd2eb	0.017556628
15	0xbd9bad00	-0.076013565
16	0xbd90bb6c	-0.07066998
17	0x3cc50ebd	0.02405488
18	0x3d4719d7	0.048608627
19	0xbd10dde3	-0.035367858
20	0x3b057d4f	0.002036888
21	0xbd78bd27	-0.060727265
22	0xbdc6fdbe	-0.09716366
23	0xbb93ef78	-0.004514631
24	0x3dc3dd90	0.09563744
25	0x3dbc94b8	0.09208053
26	0xbd4db40a	-0.050220527
27	0xbbd69cbf	-0.0065494473
28	0x3c2b8cc7	0.010470576
29	0x3c384cf8	0.0112488195
30	0xbd9e5191	-0.07730401
31	0xbe0dc68b	-0.1384527
32	0xbda75236	-0.08169977
33	0x3d2cb31b	0.042162996
34	0x3e08330e	0.13300726
35	0xbd0a56ac	-0.033774063
36	0xbd519d35	-0.051175315
37	0x3c9ce6a1	0.019152941
38	0x3e0fa6ea	0.14028516
39	0xbc903903	-0.01760531
40	0x3dc32091	0.09527696
41	0x3d46f1c4	0.04857041
42	0x3df628aa	0.12019475
43	0x3bb4c276	0.0055163456
44	0xbd9d6f23	-0.07687213
45	0xbdbd1686	-0.09232812
46	0x3dd41e14	0.103572994
47	0x3dcbd13e	0.09952019
48	0xbdf00387	-0.11719423
49	0xbd6e1d3b	-0.058133345
50	0xbdf6ad97	-0.120448284
51	0x3d9822f1	0.074285395
52	0x3db7ba78	0.08971113
53	0xbc868ec2	-0.016425494
54	0x3db8445c	0.089974135
55	0xbd5c49c2	-0.05378128
56	0x3daa8863	0.08326795
57	0xbc5f99e6	-0.013647532
58	0xbdcfcfe1	-0.10147072
59	0x3d41db3f	0.04732823
60	0x3da71c93	0.08159747
61	0xbd8c3873	-0.06846704
62	0xbb22d935	-0.0024848704
63	0xbdc64c4b	-0.096825205
64	0xbdce3547	-0.100687556
65	0x3d51081c	0.051033124
66	0x3db6037d	0.08887384
67	0xbd0e2429	-0.034702454
68	0xbca6568e	-0.020304944
69	0x3c5e03ad	0.013550681
70	0x3d20665f	0.03916013
71	0xbd600d38	-0.054700106
72	0xbcb7bb54	-0.022428192
73	0xbdc7b4d5	-0.09751288
74	0x3aee162c	0.0018164567
75	0x3d19e394	0.03757055
76	0x3d95d55d	0.073160864
77	0x3b830841	0.0039987867
78	0xbdec5e69	-0.11541445
79	0x3bcecedc	0.0063112807
80	0x3db2661a	0.087108806
81	0x3c2c306d	0.0105095925
82	0xbd3b687d	-0.045753945
83	0x3d1c1e2c	0.03811471
84	0x3c9b6de1	0.018973293
85	0xbdae5ec8	-0.08514172
86	0xbc34a807	-0.011026389
87	0xbdae33d4	-0.08505979
88	0x3d1d0d1d	0.038342584
89	0x3dd33f23	0.10314777
90	0x3d23b100	0.039963722
91	0x3d5e01ad	0.054200817
92	0x3d2b49b3	0.041818332
93	0x3d0fc8ad	0.03510349
94	0x3ddb43b9	0.107062764
95	0x3de3ddf3	0.11126318
96	0x3d2dc7fe	0.042427056
97	0x3daf9d92	0.08574976
98	0x3ded3093	0.115815304
99	0x3d22689c	0.039650545
100	0x3da5ee88	0.08102137
101	0xbd5f9154	-0.054581955
102	0xbd401740	-0.046897173
103	0x3dda1f51	0.106505044
104	0x3ba517e5	0.005038249
105	0xbda601d0	-0.081058145
106	0xbcafc39a	-0.021455575
107	0xbde9fa44	-0.114246875
108	0x3bd37fa7	0.0064544263
109	0x3d8a7fd4	0.067626625
110	0x3d7c547c	0.061604008
111	0xbd6af43e	-0.057361834
112	0x3ddf70c8	0.10910183
113	0xbd471ae0	-0.048609614
114	0xbdbe40e0	-0.09289718
115	0xbdd6e40d	-0.10492716
116	0xbce2e1db	-0.027695587
117	0x3da1fba4	0.07909325
118	0x3ca0fff5	0.0196533
119	0x3d22a923	0.039712083
120	0xbdc0eeae	-0.094205245
121	0x3d86bef4	0.0657939
122	0xbdf203b0	-0.118171096
123	0x3db94478	0.090462625
124	0xbdac3edf	-0.08410429
125	0xbddcc363	-0.107794546
126	0xbdbcbe25	-0.09215955
127	0x3de5f945	0.11229185
128	0xbca67163	-0.020317739
129	0x3d382a3a	0.044962145
130	0x3d4cfa53	0.050043415
131	0xbc5912ea	-0.013249138
132	0x3d243ab0	0.04009503
133	0xbd63c501	-0.0556078
134	0xbdd1d7e2	-0.102462545
135	0x3d4274ec	0.047474787
136	0xbd564735	-0.052314002
137	0xbdcc5317	-0.09976786
138	0x3d2fe407	0.042942073
139	0x3def6c05	0.11690525
140	0xbd2296fe	-0.03969478
141	0xbdaee7c8	-0.085403025
142	0xbd0e777e	-0.034781925
143	0x3c779880	0.015112042
144	0x3d944c62	0.07241131
145	0xbd9925d8	-0.07477921
146	0x3c197d51	0.009368257
147	0x3dce3712	0.100690976
148	0xbd8dcb41	-0.06923533
149	0x3c4ed804	0.012624744
150	0xbccb9d2e	-0.024855223
151	0xbbd52f5e	-0.0065058907
152	0xbbdc8590	-0.006729789
153	0xbdeacae0	-0.114644766
154	0xbca15dd2	-0.019698057
155	0x3d7d69ea	0.061868586
156	0x3d966cd6	0.073449776
157	0xbdcddc79	-0.100518174
158	0xbd968afa	-0.073507264
159	0x3d5e1e67	0.054228213
160	0xbbec0a4b	-0.0072033755
161	0x3db0ecde	0.08638929
162	0xbd4f0f63	-0.050551783
163	0x3c17a25f	0.009255021
164	0xbd0cb377	-0.03435084
165	0xbd8d5787	-0.0690146
166	0xbd18f80f	-0.037345942
167	0x3ddfd2a9	0.10928852
168	0xbd5bbb93	-0.05364568
169	0x3c30f388	0.01080025
170	0xbdbe6385	-0.092963256
171	0xbd6ac00d	-0.05731206
172	0x3b451388	0.0030071456
173	0x3d61ecdd	0.05515753
174	0xbdd458da	-0.103685096
175	0x3de55e7d	0.11199663
176	0xbd8ff4b6	-0.07029097
177	0x3b872e8f	0.0041254233
178	0x3bc04164	0.00586717
179	0x3d5931e6	0.053026102
180	0xbd0196bc	-0.031637892
181	0x3d9cb043	0.07650807
182	0xbdc69198	-0.096957386
183	0xbd1d3258	-0.03837809
184	0xbdbb864a	-0.09156473
185	0xbd98d1de	-0.07461904
186	0x3dc26c7c	0.09493348
187	0xbbb629a8	-0.005559165
188	0xbdcecdd2	-0.10097851
189	0xbdb85108	-0.089998305
190	0xbdc7ee96	-0.097623035
191	0xbc0cefa9	-0.008602061
192	0xbdc20bc6	-0.09474902
193	0x3d3ebfed	0.046569753
194	0x3b24767c	0.0025095036
195	0x3dbd7784	0.092513114
196	0xb6ab3aeb	-5.103056e-06
197	0xbcd583c5	-0.02606381
198	0xbd212776	-0.039344274
199	0x3c0a532c	0.008442681
200	0xbcc1fd98	-0.023680493
201	0xbdf7f8c4	-0.12107995
202	0xbda905d3	-0.08253064
203	0xbd12b9e3	-0.035821807
204	0xbdf474d8	-0.11936349
205	0x3cc715cc	0.024302386
206	0x3dd2c3b8	0.10291237
207	0x3cb8ac9f	0.02254325
208	0xbc86a760	-0.016437232
209	0xbdbd873a	-0.09254308
210	0xbded6f2c	-0.1159347
211	0x3d379840	0.04482293
212	0x3d97df53	0.074156426
213	0xbdd40654	-0.103527695
214	0x3d7b28cd	0.061318208
215	0x3cf07d9b	0.029356768
216	0x3d55418e	0.05206447
217	0x3d5abb23	0.053401124
218	0xbd911c5d	-0.07085488
219	0xbda862db	-0.0822198
220	0x3d8fbbfd	0.07018278
221	0x3d6c333d	0.057666052
222	0x3c5af132	0.0133631695
223	0x3dd5b9c5	0.10435823
224	0x3ddab64c	0.106793016
225	0xbdf4c48c	-0.11951551
226	0xbd49fd85	-0.04931404
227	0xbb1a0a5a	-0.0023504705
228	0xbc581822	-0.013189347
229	0x3d917962	0.0710323
230	0xbd759034	-0.059951976
231	0xbc3404bd	-0.010987458
232	0xbd62309b	-0.055222135
233	0x3dd0079c	0.101577014
234	0xbd45dfcf	-0.048309144
235	0x3d94b1f5	0.07260505
236	0x3da347d5	0.07972685
237	0x3ca3af3e	0.019981023
238	0xbdaa74c8	-0.083230555
239	0x3bb60b38	0.0055555366
240	0xbdf74bf5	-0.120750345
241	0x3dd7e367	0.105414204
242	0xbdad139f	-0.08451008
243	0x3db8fbd5	0.09032408
244	0x3d18f273	0.037340593
245	0x3d326418	0.043552488
246	0x3da65561	0.081217535
247	0xbdebf5ae	-0.11521469
248	0x3dce1508	0.10062605
249	0x3d71cb5d	0.059031833
250	0x3d909cc4	0.07061151
251	0x3decbc0d	0.11559305
252	0x3ce0589e	0.027386006
253	0x3d8d962b	0.06913408
254	0xbdadce7e	-0.08486651
255	0xbde026f9	-0.109449334

layer1.bias f4 [75]
0	0xbd0dfa1f	-0.034662362
1	0xbdad0a1c	-0.08449194
2	0xbc8f731b	-0.017510941
3	0xbd44916d	-0.04799025
4	0x3d0c8899	0.034309957
5	0x3d22c765	0.03974094
6	0x3d1ea5c1	0.038732294
7	0x3d6402cd	0.055666734
8	0x3d9050cc	0.07046661
9	0x3c370117	0.011169693
10	0xb8f991b4	-0.000119003846
11	0x3c6389d8	0.013887845
12	0x3dcad8cb	0.09904631
13	0xbda517fa	-0.08061214
14	0x3de87043	0.11349537
15	0xbd1895cd	-0.037252236
16	0x3dacf7d7	0.08445709
17	0x3ccd2d13	0.025045907
18	0xbd1fd5f4	-0.0390224
19	0xbdee7343	-0.11643078
20	0x3db9bd9d	0.09069369
21	0x3df003b2	0.11719455
22	0x3d841dfb	0.06451031
23	0xbd49ebb1	-0.04929704
24	0xbdefcd08	-0.117090285
25	0x3ddb94df	0.10721754
26	0x3dcdd6c5	0.1005073
27	0x3df30ee4	0.118680745
28	0x3d840f4b	0.064482294
29	0x3d608707	0.054816272
30	0xbcd8fb0b	-0.026486894
31	0xbd40d6cc	-0.047079846
32	0x3d93636d	0.07196698
33	0x3daeacd1	0.08529056
34	0x3d16d2b7	0.036822047
35	0xbdac6e97	-0.08419531
36	0x3c3702ca	0.011170099
37	0xbbaf6b65	-0.0053533786
38	0x3db5b640	0.08872652
39	0x3ddde3ad	0.10834441
40	0xbdd2fab6	-0.103017256
41	0xbdb521d1	-0.088443406
42	0xbdbdeae8	-0.092733204
43	0x3d12ee59	0.035871837
44	0xbd424976	-0.04743334
45	0x3d1d6976	0.038430654
46	0x3de24ea3	0.11050155
47	0x3daaff85	0.08349518
48	0x3c95a151	0.018265398
49	0x3bb851a4	0.0056249667
50	0xbda33dac	-0.07970747
51	0xbd73c05a	-0.059509613
52	0x3d6daad2	0.058024235
53	0xbd728bd1	-0.05921537
54	0x3d1d5644	0.038412347
55	0x3dcd1d88	0.10015398
56	0xbdd6dc09	-0.10491187
57	0x3c586ff6	0.013210287
58	0xbc6bf0b0	-0.014400646
59	0xbd5f7dd4	-0.05456336
60	0x3d51291b	0.05106459
61	0x3db7d913	0.089769505
62	0xbdec76fc	-0.11546132
63	0xbd9c1cf2	-0.076227084
64	0x3c32dc4d	0.010916782
65	0xbb94e405	-0.0045437836
66	0x3d25a366	0.040439032
67	0x3d59664d	0.053076077
68	0x3db6d814	0.089279324
69	0xbd4a0be0	-0.04932773
70	0xbd917508	-0.071024
71	0x3d74a3a0	0.059726357
72	0x3d9cc21c	0.07654211
73	0xbd8923d8	-0.0669629
74	0xbcc74f21	-0.024329724

layer2.weight f4 [100, 75]
0	0xbdc940e2	-0.098268285
1	0x3ebc1016	0.36731023
2	0xbe9acd5d	-0.30234805
3	0x3eeed8f7	0.46649906
4	0xbf3d7db9	-0.7401996
5	0x3dcc70b1	0.09982432
6	0xc00997f7	-2.1499002
7	0xbfda4761	-1.7053033
8	0xc0a5293d	-5.161284
9	0x3e15739d	0.14594884
10	0x3e2f6d07	0.17131434
11	0xbf6330ef	-0.8874654
12	0x3efaf78b	0.49016985
13	0x3f09a3b8	0.5376544
14	0xc0bfde84	-5.9959126
15	0x3fb5498d	1.4163071
16	0xc0c568e4	-6.169054
17	0xc09c0a66	-4.8762693
18	0x3f12bd63	0.5732023
19	0x3e62219b	0.22083132
20	0x4021cdff	2.528198
21	0xc027cef4	-2.6220064
22	0xbf4ceabf	-0.80045694
23	0xbf43ec34	-0.7653229
24	0x3e22065e	0.15822741
25	0x3f7eecca	0.9958006
26	0x3f1b8bb5	0.6076005
27	0xbf6aadd5	-0.91671497
28	0xc08f9167	-4.4864993
29	0x3fd3ac2c	1.6536918
30	0xbf096df7	-0.5368342
31	0x402d38bf	2.7065885
32	0x3f92cd46	1.1468894
33	0xbfffd3c9	-1.9986507
34	0xbe1fe119	-0.15613212
35	0xbe05e75d	-0.1307654
36	0x3cfc3fcd	0.030792141
37	0xc002d4c1	-2.0442355
38	0x3d99898e	0.074969396
39	0xbf79c380	-0.97563934
40	0xbec19a20	-0.378129
41	0x3e9a5815	0.30145326
42	0xbec4f3c0	-0.38467216
43	0xbdda4825	-0.10658292
44	0xbe8f915b	-0.28040585
45	0xbec60921	-0.3867884
46	0xbea1b094	-0.3158003
47	0x3e5153e6	0.20442161
48	0x3e9ac8b0	0.30231237
49	0x40801756	4.0028486
50	0xbed56920	-0.41681767
51	0xbe3aedb6	-0.18254742
52	0x3c81b6f4	0.01583431
53	0xbea669c8	-0.3250258
54	0x3f86e705	1.0539252
55	0xbe20a262	-0.15686944
56	0x3fe0c232	1.7559264
57	0x3ede3ddd	0.43406573
58	0x3fb04ba9	1.377309
59	0x3f8df451	1.1090184
60	0x3d8e8ec2	0.06960823
61	0x3f0a2589	0.53963524
62	0x40777dd8	3.867056
63	0xbe987c11	-0.29782155
64	0xbd81e57e	-0.063426
65	0x3fd87a04	1.6912236
66	0x3d69db54	0.057093933
67	0x3e97d8e2	0.29657656
68	0x3e5c4ba1	0.21513225
69	0xbe90a267	-0.28248903
70	0xbf2c72fd	-0.6736296
71	0x3d0fcc1d	0.035106767
72	0x3e371435	0.17878802
73	0x3fa3eff2	1.28076
74	0x3eed1467	0.46304628
75	0xbe97d183	-0.29652032
76	0x3f0c007b	0.54688233
77	0xbe124c65	-0.14286955
78	0x3f362cba	0.71162
79	0xbfa7d66e	-1.3112314
80	0x3e1aca66	0.15116271
81	0xc06d98ad	-3.7124436
82	0x3fc9f111	1.5776693
83	0xc092f067	-4.591846
84	0x3e9bf402	0.304596
85	0x3eaef7db	0.34173474
86	0xc02a05e1	-2.6566088
87	0x3f194aac	0.59879565
88	0x3f55170b	0.83238286
89	0xc03015b8	-2.7513256
90	0x401b57ab	2.4272258
91	0xc132ba97	-11.170554
92	0xc212d9a4	-36.71254
93	0xbb69f24c	-0.0035697399
94	0x3e3f1d08	0.18663418
95	0xc0195ef4	-2.3964205
96	0xc21848ac	-38.07097
97	0xbf8ef522	-1.1168559
98	0xbfb18155	-1.3867594
99	0x3e8c210a	0.27368957
100	0x3fbe37f9	1.4860831
101	0x413f93ab	11.973552
102	0x3edce2d2	0.431418
103	0xc1ba7378	-23.306381
104	0x3f16cf72	0.58910286
105	0x3ff09d25	1.8797957
106	0x40033c22	2.0505452
107	0x4006fd58	2.1092129
108	0xc04e243d	-3.2209618
109	0xbf73883f	-0.9512977
110	0xbed2abf9	-0.4114683
111	0x3ea35ae7	0.3190529
112	0xc01fb0c7	-2.4951646
113	0xbc2efb83	-0.010680082
114	0xbfbbb91d	-1.4665867
115	0xbf126b75	-0.57195216
116	0x3ee37018	0.44421458
117	0xbe7bdf97	-0.24597012
118	0x3e7a5d05	0.24449547
119	0xbea4fb69	-0.3222306
120	0xbeeefe95	-0.46678606
121	0xbed583cd	-0.4170212
122	0x3eaa6870	0.33282804
123	0x3f291ed5	0.6606267
124	0xc11dab3b	-9.854304
125	0x40011070	2.0166283
126	0xbebcfd78	-0.3691213
127	0xbe7c526f	-0.24640821
128	0xc089609a	-4.293042
129	0xc08d45b2	-4.4147577
130	0xbef6d05c	-0.4820584
131	0x405970d5	3.3975117
132	0xbf21d9de	-0.63223064
133	0xc0718e93	-3.774327
134	0x3f733bb6	0.95012987
135	0x3e83e03b	0.25757012
136	0x3f80188a	1.0007489
137	0x40bd8f74	5.9237614
138	0xbee4c074	-0.4467808
139	0xbc9eceeb	-0.019385776
140	0x3fddfec3	1.7343372
141	0x3e82fcb8	0.25583434
142	0x3f36a689	0.7134786
143	0x3eab1386	0.33413333
144	0xbeb83e67	-0.3598511
145	0xbf5866e5	-0.84532005
146	0xbda8d27c	-0.08243272
147	0x3edd7715	0.43254915
148	0x3edbaa63	0.42903432
149	0x3f1c43c5	0.6104091
150	0x40368ffa	2.8525376
151	0xc083a16d	-4.1134553
152	0x405621cf	3.3458135
153	0xc0935780	-4.604431
154	0x40eccaa5	7.399737
155	0xc0038a91	-2.0553324
156	0x417da681	15.85315
157	0x425d2335	55.28438
158	0x41f90d16	31.13139
159	0xbe8285d1	-0.2549272
160	0xbfad1037	-1.3520573
161	0x41cea350	25.829742
162	0xc05ebf78	-3.4804363
163	0xc09c5dbf	-4.8864436
164	0xbf636d71	-0.8883887
165	0xc1481e30	-12.50737
166	0x42d4ddb9	106.43305
167	0xc0f246c7	-7.57114
168	0x3b751740	0.0037397891
169	0xc00795b3	-2.118512
170	0x41feacd3	31.834387
171	0x424a5a2f	50.58807
172	0x40bb1fa6	5.8476133
173	0x40c868b6	6.262782
174	0xc03cd0cc	-2.950244
175	0xc120784f	-10.029372
176	0x3e42c300	0.19019699
177	0x41bdc750	23.72232
178	0x41947a10	18.5596
179	0x3fe44855	1.7834574
180	0xc2242190	-41.032776
181	0xc0e876d1	-7.264504
182	0xc1261c90	-10.381973
183	0x416efee4	14.937229
184	0xc13c1814	-11.755878
185	0x3fb78fce	1.4340761
186	0xbf8025b6	-1.0011508
187	0x414322e6	12.19602
188	0xbe3f439b	-0.18678133
189	0x40ed3438	7.4126244
190	0x4061ab6e	3.5260882
191	0xc04e9c90	-3.2283058
192	0x4012c8e5	2.2935116
193	0x3e58a5d6	0.21157011
194	0x3fb9ab22	1.450535
195	0x4085e542	4.1842356
196	0x4017b48b	2.3703945
197	0xbf0ad15e	-0.5422572
198	0xc072bab9	-3.7926466
199	0xbf840e42	-1.0316851
200	0xc0c27f74	-6.0780582
201	0x3f353437	0.707828
202	0x3f33f696	0.70298135
203	0x418a4e21	17.288149
204	0xc1704a51	-15.018144
205	0x3c17a563	0.00925574
206	0xc196cfaf	-18.851408
207	0x3f8cdb9f	1.1004523
208	0x420194a6	32.395164
209	0x4101ac74	8.104603
210	0xbfa1e0d4	-1.2646737
211	0xc0b5ca7b	-5.680967
212	0xc20ea747	-35.663357
213	0x405c3806	3.4409194
214	0x3eef9d01	0.46799472
215	0xc04481de	-3.0704265
216	0xbf6db1a6	-0.92849195
217	0xbff2c7eb	-1.896726
218	0xc030cfd1	-2.762684
219	0x400f0098	2.2344112
220	0x40a7ca5f	5.2434535
221	0xbdb6d6f9	-0.089277215
222	0xbfc8508e	-1.5649583
223	0x410435bf	8.263122
224	0xc0363658	-2.8470669
225	0xbe972cf3	-0.2952648
226	0x3f48c26b	0.7842166
227	0xbeb14768	-0.3462479
228	0x3f07e098	0.5307708
229	0xbf61dd2d	-0.8822811
230	0x3e9c5d67	0.3054001
231	0xc04806f2	-3.125424
232	0x3ff08eee	1.8793619
233	0xc11f7dda	-9.9682255
234	0x3e6b09f6	0.22953019
235	0x3e1db7b1	0.15402104
236	0xc0258906	-2.5864882
237	0x3ecaf156	0.3963725
238	0x3f601a7a	0.875404
239	0xbfe52634	-1.7902284
240	0x4051d9ae	3.278911
241	0x3fb90f90	1.4457874
242	0x3fc25c07	1.5184335
243	0xc017684b	-2.3657405
244	0x3cfa3bff	0.030546186
245	0xbfa110fc	-1.2583308
246	0x4045a2ed	3.0880692
247	0xbf1a7f07	-0.6035008
248	0xbf6e76ac	-0.9314983
249	0x3ec07281	0.3758736
250	0x3f96c559	1.1778976
251	0x3e940993	0.28913555
252	0xbeacf43d	-0.3378009
253	0x4034abe2	2.822991
254	0x3e873a04	0.2641145
255	0xbfa20480	-1.2657623

layer2.bias f4 [100]
0	0xbd5a719b	-0.053331
1	0xbf6b0794	-0.9180844
2	0x3f9e0689	1.2345744
3	0xbe9cae9a	-0.3060196
4	0x3f14c258	0.58109045
5	0xbee20d98	-0.44150996
6	0x3ea1fb44	0.31637013
7	0x4073a455	3.806905
8	0xc01bbbff	-2.4333494
9	0xbe931cbd	-0.28732863
10	0x3e311587	0.17293368
11	0xbf264cdb	-0.6496102
12	0xbe16d627	-0.1473013
13	0xbf0d20bc	-0.55128074
14	0x3ef9c9fb	0.4878691
15	0xbe8075e7	-0.25089952
16	0x3ed0066c	0.406299
17	0x3f314d30	0.69258404
18	0xbf309319	-0.68974453
19	0x3e1bd01c	0.15216106
20	0x408231fe	4.0686026
21	0xc05571e9	-3.3350775
22	0xbfb93069	-1.4467899
23	0x4005b214	2.088994
24	0x3fa6a5bf	1.3019332
25	0xbf4cc7f8	-0.7999263
26	0xbec86664	-0.39140618
27	0x3edc72f4	0.43056452
28	0xbee66654	-0.44999945
29	0xbce60297	-0.028077407
30	0x3f1dcaba	0.6163746
31	0x3f4b3021	0.79370314
32	0x3fe5e03c	1.7959056
33	0xbe52f6d6	-0.20601973
34	0xbeb0721b	-0.34462056
35	0xbfa737a7	-1.3063859
36	0xbe017b20	-0.12644625
37	0xbf05f196	-0.52321756
38	0x40b8c0fb	5.773557
39	0xbe92ec21	-0.28695777
40	0x3e28a38b	0.16468637
41	0xbe28b3d8	-0.16474855
42	0xc01c707a	-2.444365
43	0xbe677c35	-0.22605975
44	0x3e12d85f	0.14340352
45	0xbe906dfd	-0.28208914
46	0xbf6050e2	-0.8762342
47	0xbfa74ea5	-1.3070875
48	0x3eba1c2f	0.36349627
49	0xbe2ae7f1	-0.16690041
50	0x3e30dd3b	0.17271893
51	0xbf3144c2	-0.6924554
52	0xc024a852	-2.5727735
53	0x3f694a80	0.911293
54	0x3df0657d	0.11738107
55	0xbe67a330	-0.22620845
56	0xbdcdc3e1	-0.100471266
57	0x3f130fab	0.5744578
58	0x3f8e808a	1.1132977
59	0x3efc607b	0.4929236
60	0xbf395f66	-0.7241119
61	0xbddee1d5	-0.10882918
62	0xbf5d4388	-0.8643117
63	0x3f0f01ff	0.5586242
64	0x3d280b9f	0.041026708
65	0xbec16f64	-0.37780297
66	0x3f06d956	0.5267538
67	0xba076929	-0.00051655114
68	0xbf4d4d39	-0.8019596
69	0x3e8dc991	0.27692845
70	0xbe9d208b	-0.3068889
71	0xbbcb5028	-0.0062046237
72	0xc050abc0	-3.2604828
73	0xbebb1ba2	-0.3654452
74	0x3d42711d	0.047471154
75	0x3e7aae79	0.24480619
76	0xbeef82f9	-0.46779612
77	0x3e90e665	0.28300777
78	0x3db2d0f2	0.087312594
79	0xc02e9562	-2.7278676
80	0x3e242419	0.16029395
81	0x3f9b6f72	1.2143385
82	0x3e95eb32	0.29281002
83	0x3f189243	0.5959818
84	0xc00d45b1	-2.2073786
85	0xbf81413c	-1.0098033
86	0xbfa57a01	-1.2927858
87	0xbf041ca4	-0.516062
88	0xbf52106e	-0.8205632
89	0xbeb2b155	-0.3490092
90	0xbf049b27	-0.51799244
91	0xbef647f9	-0.48101786
92	0xbf965613	-1.1745018
93	0xbe0203d7	-0.12696777
94	0xbfbad3b9	-1.4595863
95	0x3d5a9066	0.053360365
96	0xbf5662df	-0.83744615
97	0xbf40de32	-0.75339043
98	0xbe9dba0b	-0.30806002
99	0xbed32221	-0.41236976

layer3.weight f4 [75, 100]
0	0x3fe96014	1.8232446
1	0x3e9dd36a	0.3082536
2	0x3f0fe0d0	0.5620241
3	0x3f1ba772	0.60802376
4	0xbecece6d	-0.40391865
5	0x3f3a6be9	0.7282091
6	0xbfba69bc	-1.4563518
7	0xbf0d7f5c	-0.5527246
8	0x3f210d6f	0.62911123
9	0xbf306099	-0.68897396
10	0x3f5f669a	0.8726593
11	0xbf512cf6	-0.8170923
12	0x3dabc38b	0.08386906
13	0x3ee0b195	0.43885484
14	0xbf53f09e	-0.8278903
15	0xbf6aaf15	-0.91673404
16	0x3e00ad6c	0.12566155
17	0xbf8ee620	-1.1163979
18	0xbed0128a	-0.40639144
19	0x4034717e	2.819427
20	0xc03c803d	-2.945327
21	0xbe90b1e2	-0.28260714
22	0x3ff8745f	1.9410514
23	0xbeb9e201	-0.3630524
24	0xc04dcae9	-3.2155097
25	0xbf0a0a60	-0.5392208
26	0xbf0d6931	-0.55238634
27	0x403209e6	2.7818542
28	0x3ff21201	1.8911744
29	0x3ef10cc7	0.4708006
30	0x3f449ea2	0.76804554
31	0x3ec112fb	0.37709793
32	0xbf2586dd	-0.6465891
33	0x3fa0acb6	1.2552707
34	0xbe6fd7b3	-0.23422126
35	0xbf987f33	-1.1913818
36	0xbfe132cb	-1.7593626
37	0x3f4987c3	0.7872278
38	0x3fa7841b	1.308719
39	0xbf3c20a3	-0.734873
40	0x3f23232c	0.63725543
41	0xbef6f47d	-0.48233405
42	0xbdd3a637	-0.10334437
43	0xbf0e5e03	-0.556122
44	0x3e2bd370	0.16779876
45	0x3f6c632b	0.9233882
46	0x3f55f83f	0.8358192
47	0x3e0ef90e	0.13962194
48	0xbfb94e3b	-1.4476999
49	0xbf919fb1	-1.1376859
50	0xbf844522	-1.0333598
51	0xbf2dd36f	-0.6790075
52	0xbf7421c8	-0.95364046
53	0x3f9a74c7	1.2066888
54	0x3ec25469	0.37955025
55	0xc0306c81	-2.7566226
56	0xbc9f9963	-0.01948232
57	0xbf495a78	-0.7865367
58	0xc01faedb	-2.4950473
59	0xbfce9335	-1.6138674
60	0x3e34cd37	0.17656408
61	0xbee52dd3	-0.44761524
62	0x40023242	2.0343175
63	0x3fb88be3	1.441769
64	0xc018efd2	-2.3896375
65	0xbda98a99	-0.082783885
66	0xbe569a8d	-0.20957394
67	0x3e857afb	0.2607039
68	0x3fd22547	1.6417626
69	0xbecaade9	-0.39585808
70	0xbec9c842	-0.39410597
71	0x3f3acdc5	0.7297023
72	0xbf17c216	-0.59280527
73	0xbf749947	-0.9554638
74	0x3ef38fe3	0.47570714
75	0xbf8d0556	-1.1017253
76	0x3e2aa439	0.16664208
77	0x3f1ed2b5	0.62040263
78	0xbdf751fd	-0.12076185
79	0xbff5097f	-1.9143523
80	0x400a0714	2.156682
81	0x3f1a52cc	0.6028259
82	0x3e9c0225	0.30470386
83	0xbf75c2e0	-0.9600048
84	0x3f7a7301	0.9783173
85	0xbeb902d7	-0.3613498
86	0x3f858e3a	1.0434029
87	0xbe3b2160	-0.1827445
88	0x3efe2e9a	0.4964493
89	0xbfe8fee2	-1.8202784
90	0x3fae0f7a	1.3598473
91	0x3e2732d7	0.16327988
92	0x4049fbac	3.1559858
93	0xbdc48ad6	-0.09596793
94	0x3fc4f3ad	1.5386864
95	0xbe304676	-0.17214379
96	0x3f97351e	1.1813085
97	0xbf17a31b	-0.59233254
98	0xbefe7d2d	-0.49704877
99	0xbf1900cb	-0.59766835
100	0xbcf67fe7	-0.030090285
101	0x406afa2c	3.6715193
102	0xc01452c4	-2.3175516
103	0x4098416e	4.757987
104	0xbf7a6c35	-0.9782136
105	0x4003bb70	2.0583153
106	0xbad4684f	-0.0016205403
107	0xc037cb13	-2.8717697
108	0xc0ded591	-6.96357
109	0xbf463fbe	-0.7744101
110	0xbf23ab4e	-0.63933265
111	0xc06689b7	-3.6021554
112	0xbe8ca452	-0.27469116
113	0xbf267f17	-0.65037674
114	0xbeaf1816	-0.34198064
115	0xbfe62b1b	-1.7981905
116	0x3f3a7692	0.72837174
117	0xbf78871b	-0.97081155
118	0xc0ac68a5	-5.387774
119	0xbfcbf8e0	-1.5935326
120	0x3ffba76a	1.9660466
121	0xc0d25ba9	-6.573689
122	0x414cd371	12.801621
123	0xbffb3cce	-1.9627931
124	0xbf290656	-0.6602529
125	0xbe77f048	-0.24212754
126	0xbfafee3f	-1.3744582
127	0xbcc0cca0	-0.023535073
128	0x4032f1ca	2.7960076
129	0x3f943014	1.1577172
130	0xc00865b9	-2.1312087
131	0x3e0042de	0.12525508
132	0x40166412	2.3498578
133	0x3f8e6d61	1.112713
134	0xbec97c6e	-0.39352745
135	0xbff8ca05	-1.9436651
136	0xbfefb9c4	-1.8728566
137	0xc06edf8b	-3.732394
138	0x3fe94812	1.8225119
139	0xc006b8ad	-2.1050217
140	0x4009ee58	2.1551723
141	0x3ef12e57	0.47105667
142	0xbf294224	-0.6611655
143	0x3dda1b1f	0.10649704
144	0xbf74df2c	-0.95653033
145	0xbd52a84d	-0.051430035
146	0x3fed1904	1.8523259
147	0xbde883c9	-0.11353261
148	0xbf2c4eb4	-0.6730759
149	0xc01459b0	-2.317974
150	0xc0297bc4	-2.648179
151	0x3e339279	0.17536344
152	0xbfa2d18a	-1.2720196
153	0x4002e15a	2.0450044
154	0x3f808604	1.0040898
155	0xc10c5788	-8.77137
156	0x3db6f294	0.08932987
157	0x3fbe89fd	1.4885861
158	0xc0ece4e4	-7.4029408
159	0x3f07fea3	0.5312292
160	0x3ee0e5cf	0.4392533
161	0xbf92a103	-1.1455387
162	0x40451af7	3.0797708
163	0x40daf004	6.841799
164	0xbfc2e244	-1.5225301
165	0x3f96966b	1.1764654
166	0xc0aa5f07	-5.3241
167	0x3fded95b	1.7410082
168	0x3fc5887f	1.543228
169	0xbf0514df	-0.5198497
170	0x3e3b44ff	0.18288039
171	0x3feccafa	1.8499444
172	0x400c66d6	2.1937766
173	0xbf74ff98	-0.95702505
174	0x3deefe94	0.11669651
175	0xbdf46cf3	-0.11934843
176	0xbe36d791	-0.1785567
177	0x3f563036	0.83667314
178	0xbf280e85	-0.65647155
179	0xc06985c9	-3.6487906
180	0xbf8a98ae	-1.0827844
181	0xbd16cb67	-0.036815073
182	0xbf2c1a6b	-0.6722781
183	0x4028d772	2.6381497
184	0xc01471f0	-2.3194542
185	0x41202ec4	10.011417
186	0x3eeb232e	0.45925277
187	0xbfa101e9	-1.2578708
188	0x3f21d5ab	0.63216656
189	0xbfd4c578	-1.6622763
190	0x40b50f44	5.6581135
191	0xc1210a21	-10.064973
192	0xc1569cc7	-13.413276
193	0xbe6542a1	-0.22388698
194	0x3e274fc0	0.16339016
195	0x3f8ed14b	1.1157621
196	0x3fec8b72	1.8480055
197	0x3f190723	0.59776515
198	0x3f4e60fc	0.80616736
199	0x3e394a1c	0.18094677
200	0xbfd9c190	-1.7012196
201	0xbef08776	-0.46978348
202	0xbf1023a2	-0.5630437
203	0xc04bab2c	-3.1823225
204	0xbe98f8ce	-0.29877323
205	0xbda6c7b8	-0.08143562
206	0x3f34fe83	0.70700854
207	0xbf06d8f6	-0.52674806
208	0xbef7793b	-0.4833468
209	0xbe7cf49b	-0.24702685
210	0x3e7613b3	0.24030952
211	0x4011092a	2.2661843
212	0xbe500d26	-0.20317516
213	0xbe8b3e75	-0.27196088
214	0xbf9f6bb5	-1.2454745
215	0x3f820431	1.0157529
216	0xbfbe23ad	-1.4854637
217	0x3f594702	0.84873974
218	0xbf7f4eaa	-0.99729407
219	0xbf045dfb	-0.517059
220	0xc039bff9	-2.902342
221	0xbda48399	-0.08032913
222	0xc052a50b	-3.2913234
223	0xbe9f351e	-0.31095213
224	0x3fb9ffed	1.4531227
225	0x3f41f32d	0.7576168
226	0x40115449	2.2707694
227	0xc00aa4f2	-2.1663175
228	0xc096b17b	-4.709165
229	0xbe31fbd1	-0.17381217
230	0x3fd02fb5	1.6264559
231	0xbfabb34a	-1.341409
232	0xbf9b2e8e	-1.2123582
233	0xbf39c2bb	-0.7256276
234	0xbef43912	-0.4769979
235	0x3fb127e7	1.3840302
236	0x404e495c	3.2232275
237	0xbd1052e5	-0.035235304
238	0xbf6d64de	-0.92732036
239	0x3d87202e	0.06597935
240	0xbf8b26be	-1.0871198
241	0xbc98da5a	-0.018658806
242	0x40a4f380	5.154724
243	0xbf4d0acc	-0.800946
244	0xbe952632	-0.29130703
245	0xbf174847	-0.5909466
246	0xbfde8834	-1.7385316
247	0xbe19664a	-0.14980426
248	0x40081a1d	2.1265938
249	0x40646606	3.568727
250	0x40102449	2.2522147
251	0xbf22830b	-0.63481206
252	0x40234745	2.551225
253	0x3e366fd8	0.17816103
254	0xbf1f98cb	-0.6234252
255	0x3fa57af5	1.2928149

layer3.bias f4 [75]
0	0x3ea6b951	0.3256326
1	0x3e84f040	0.25964546
2	0xbef09420	-0.4698801
3	0xbeee9c66	-0.46603698
4	0x3ec0d4b9	0.37662295
5	0x3f0ce102	0.55030835
6	0x3e116159	0.14197291
7	0x3e87acf2	0.26499134
8	0xbd12532c	-0.03572385
9	0xbd5e401f	-0.05426037
10	0x3ef0cbaa	0.47030383
11	0x3ff9adf4	1.9506211
12	0xbe8a5670	-0.27019072
13	0x3f127dbd	0.5722311
14	0x3edbec62	0.42953783
15	0x3dca331f	0.09873032
16	0x3f4fd881	0.81189734
17	0xbe4f8456	-0.20265326
18	0x3ea2eabf	0.31819722
19	0xbe8db07d	-0.27673712
20	0xbec360bc	-0.3815974
21	0x3d8b30f1	0.06796444
22	0xbd433e50	-0.047666848
23	0xbe3300f4	-0.17480832
24	0xbe93bb1f	-0.288537
25	0xbef41806	-0.47674578
26	0x3f0da7f8	0.55334425
27	0x3ec52f87	0.38512823
28	0x3da1fe3f	0.07909822
29	0xbcfc5044	-0.030799992
30	0x3e9b2dd6	0.30308408
31	0x3edab1e9	0.4271386
32	0xbe9db956	-0.30805463
33	0xbf50fd5e	-0.8163661
34	0x3e93b2ba	0.28847295
35	0xbd96fd00	-0.07372475
36	0x3dc4257b	0.09577461
37	0xbe14404c	-0.14477652
38	0xbc0f44e3	-0.008744451
39	0x3de7bfb8	0.11315864
40	0xbf07f706	-0.531113
41	0xbd1fb594	-0.038991526
42	0x3e240973	0.1601923
43	0x3eacd151	0.33753446
44	0xbde0c61a	-0.10975285
45	0x3e79c2fa	0.24390784
46	0xbec63e25	-0.38719288
47	0x3ef55cb0	0.47922277
48	0x3e3aa409	0.18226637
49	0xbf0e7d29	-0.5565973
50	0xbe0401c3	-0.12891297
51	0x3d4176af	0.047232326
52	0x3e7f532b	0.2493407
53	0x3f8801a5	1.0625502
54	0xbf2a47d6	-0.6651586
55	0x3cd65610	0.026164085
56	0xbe7c63e8	-0.24647486
57	0x3e8674ef	0.26261088
58	0xbf1a308e	-0.6023034
59	0x3ec8e768	0.3923905
60	0x3e8dac63	0.27670583
61	0x3e4c5336	0.19953617
62	0xbd76ffce	-0.060302548
63	0xbf0bcd46	-0.546101
64	0x3dc92004	0.098205596
65	0xbf06725d	-0.52518255
66	0x3d53d22d	0.05171411
67	0x3fa0d1c2	1.2564013
68	0xbe927a6f	-0.28609034
69	0x3ec31307	0.38100454
70	0xbeb39e9d	-0.3508195
71	0x3f1987c7	0.59972805
72	0x3f2fe702	0.68711865
73	0x3f4c9e16	0.7992872
74	0x3e5ae3b7	0.21375929

layer4.weight f4 [50, 75]
0	0xbdbd02dc	-0.09229061
1	0xbffd3239	-1.9780952
2	0xbe4e0971	-0.20120789
3	0xbeb3aed4	-0.3509432
4	0xc02ae1f8	-2.670042
5	0xbeba24ed	-0.36356297
6	0x3e880fd9	0.2657459
7	0x3ca89513	0.020578897
8	0xbfd26655	-1.6437479
9	0xbffd6149	-1.9795314
10	0xbbf130f0	-0.00736057
11	0xc058018c	-3.3750944
12	0xbf063297	-0.52420944
13	0x3dd30e7a	0.103054956
14	0xbc94a6d4	-0.018145956
15	0xbf451429	-0.76983887
16	0xbfd27766	-1.6442688
17	0xbe4536e7	-0.19259225
18	0x3f1c8279	0.61136585
19	0x3f02988a	0.51014006
20	0x3eabc3a7	0.33547708
21	0xbefa3036	-0.48864907
22	0x3f615131	0.88014513
23	0xbfd1b761	-1.6384088
24	0x3f09bbeb	0.53802365
25	0x3f648785	0.89269286
26	0xbf9a118b	-1.2036604
27	0x3e34ca5c	0.17655319
28	0xbfc3446b	-1.5255255
29	0x3f123b6b	0.57121915
30	0x3f1204db	0.5703866
31	0xbe028c08	-0.1274873
32	0x3f29f235	0.66385204
33	0x3fdc341d	1.7203404
34	0x3e949406	0.29019183
35	0xbf2739ed	-0.6532276
36	0x3ea7bfab	0.3276342
37	0x3ec95d3c	0.39328945
38	0x3ea0c971	0.31403688
39	0xbe57631a	-0.21033898
40	0x3eff56e6	0.49870986
41	0x3f3b1b7c	0.7308881
42	0x3fa0cc27	1.2562302
43	0xbf8109d8	-1.0081129
44	0xbc89c17d	-0.016815895
45	0x3ebea3c5	0.3723432
46	0xbfaf3e48	-1.3690882
47	0xbfb6a00c	-1.4267592
48	0x3dbb4847	0.09144645
49	0x3ed2b169	0.41150978
50	0x3e37b900	0.17941666
51	0x3e91fbd7	0.2851245
52	0xbfd837f7	-1.6892079
53	0xbf8ae627	-1.0851487
54	0xbfd7ac45	-1.6849447
55	0x3ee3f99d	0.44526377
56	0x3f2847af	0.6573438
57	0xbf2b83d9	-0.6699806
58	0xc05d0592	-3.453465
59	0x3ec968f3	0.39337882
60	0xbfc8777c	-1.5661464
61	0x3e2d8838	0.16946495
62	0x3e43da0d	0.19126149
63	0xbd80c154	-0.062868744
64	0x3e14830f	0.1450312
65	0x3f08a1dc	0.5337198
66	0xbf5f193a	-0.8714787
67	0xbf514911	-0.81752115
68	0xbfeb6085	-1.838883
69	0xbe57a4df	-0.21058987
70	0x3fcae98b	1.5852522
71	0xbec7ff2d	-0.3906187
72	0xbfb187f2	-1.3869612
73	0x3f6d4387	0.92681164
74	0x3e82824f	0.25490043
75	0x3f9b3454	1.2125344
76	0x3f2e1af7	0.68009895
77	0xbe45a369	-0.19300617
78	0xbfb391b5	-1.4028841
79	0x3fb6d5cd	1.4283997
80	0x3faaca11	1.3342916
81	0x3f59e739	0.8511844
82	0x3ec8babf	0.39204976
83	0xbedc8263	-0.43068227
84	0xbf6ac7c9	-0.917111
85	0x3f9b0893	1.2111992
86	0xc0800580	-4.0006714
87	0xbf232c15	-0.6373914
88	0x3ea7e602	0.3279267
89	0x3f4129e2	0.75454533
90	0xbee011c3	-0.4376355
91	0xbf417fc6	-0.7558559
92	0x3f83f336	1.0308597
93	0x3fa04314	1.2520471
94	0xbe1ddd20	-0.15416384
95	0x401f9be6	2.4938903
96	0x3f08f448	0.53497744
97	0x3f25674b	0.6461074
98	0xbf87adb4	-1.0599885
99	0x3f73b0a8	0.9519143
100	0x3ed97ee8	0.42479634
101	0xbfd5b156	-1.6694744
102	0x40346a00	2.8189697
103	0xc0776f66	-3.8661742
104	0xbf8f67b1	-1.1203519
105	0x3f0c3429	0.5476709
106	0xbe2d7989	-0.16940893
107	0x406bb2f9	3.6827986
108	0x3d224aa9	0.039621983
109	0x3e4e3f44	0.20141321
110	0xc00d0762	-2.2035756
111	0x3e90f614	0.28312743
112	0x3fc747a5	1.5568739
113	0x4006c539	2.1057875
114	0x3f0f0590	0.5586786
115	0x3f8efd74	1.1171098
116	0x3fdec604	1.740418
117	0x3ed0d51c	0.4078759
118	0xbf69bec6	-0.9130672
119	0x3c4233c0	0.0118531585
120	0x3fb520bb	1.4150614
121	0x3cb4c618	0.022067115
122	0xc0060d17	-2.094549
123	0x3e9635ea	0.29338008
124	0x400fa82e	2.2446399
125	0x3e09f0cd	0.13470764
126	0x3f99efd1	1.2026311
127	0xbd9c815a	-0.07641859
128	0x3fa7f465	1.3121458
129	0xc01cc20b	-2.4493434
130	0x3fa19fb6	1.2626865
131	0x3f205a43	0.6263773
132	0x3ec6c3d8	0.38821292
133	0xc038c768	-2.8871708
134	0x3f2f0a34	0.68374944
135	0xc02b943f	-2.6809232
136	0x3c9e3ae9	0.0193152
137	0x4011d2ca	2.2784905
138	0xbeec4561	-0.46146682
139	0xbdfda72f	-0.12385403
140	0x3f61d126	0.8820976
141	0xbf9645fb	-1.1740106
142	0xbf1b72d6	-0.607221
143	0xbfc0af39	-1.5053474
144	0xbea3cd5b	-0.3199261
145	0x405a0826	3.4067473
146	0x3fa403f9	1.2813712
147	0xc06b0166	-3.6719604
148	0xc028acc7	-2.6355455
149	0x3d5486d1	0.051886383
150	0xbf2b03a0	-0.66802406
151	0x4076a59b	3.8538578
152	0x3f873246	1.0562217
153	0x3efea14f	0.49732444
154	0x3f5cc3c1	0.86236197
155	0x3fa30cc5	1.2738272
156	0x3f28978d	0.6585625
157	0x406006e7	3.5004213
158	0x40d385fe	6.6101065
159	0x3fa14f72	1.260237
160	0x3f94872f	1.1603755
161	0xc02c5f5d	-2.6933205
162	0xc008dcbc	-2.1384726
163	0x3e8e5fb5	0.27807394
164	0x3d18bdbd	0.037290324
165	0x3df2e6bb	0.118604146
166	0xbf84b1df	-1.0366782
167	0x3f4a08f0	0.7891989
168	0xbeb36f7c	-0.35045993
169	0xbf9c20c7	-1.2197503
170	0x403fb0d4	2.9951677
171	0x3f9cc8f2	1.2248824
172	0x401e8712	2.476994
173	0x40e8fd64	7.2809315
174	0xbe5e2f5c	-0.21697754
175	0xbeb38e6a	-0.3506959
176	0xbe8b0ead	-0.27159634
177	0x3f82c95b	1.0217699
178	0xbfa1cd74	-1.2640824
179	0xbcdb26cf	-0.026751904
180	0xbf05bb21	-0.5223866
181	0x3fa3af23	1.2787822
182	0x405ebc72	3.4802518
183	0xbfafcedf	-1.3735007
184	0x3f4d130e	0.801072
185	0xc0013954	-2.019124
186	0x3fd99251	1.6997777
187	0xbd227ce0	-0.03966987
188	0x40270b50	2.6100655
189	0xbfce5f6d	-1.6122872
190	0x3ddab979	0.10679907
191	0xbed73c18	-0.42038035
192	0xbfd5836f	-1.6680735
193	0xbfadcd21	-1.3578225
194	0xbcaebcdd	-0.021330291
195	0xbfa2e52a	-1.2726185
196	0xbe346997	-0.17618404
197	0xbf2d46b6	-0.6768602
198	0x3e9200f5	0.28516355
199	0x407bee9e	3.936439
200	0xbef685f3	-0.4814907
201	0x3f1cb49f	0.61213106
202	0x411c7436	9.778372
203	0x3f2a185f	0.6644344
204	0x414188c5	12.095891
205	0x40450b27	3.0788057
206	0xbe5391e1	-0.20661117
207	0x3f20b28e	0.6277245
208	0x3f461361	0.7737332
209	0x3f33d216	0.7024244
210	0xc03b1e3c	-2.9237204
211	0x3ebb3a74	0.36568034
212	0x402bf88c	2.687045
213	0xbe2d6c1c	-0.16935772
214	0xbe11536a	-0.14191976
215	0x3fa96682	1.3234408
216	0xbc023e7f	-0.007949471
217	0xbf9546a4	-1.1662183
218	0x3f684cf8	0.90742445
219	0x4045f7a8	3.0932407
220	0x40a3155c	5.0963573
221	0x40aad83e	5.3388968
222	0xbf7880e0	-0.9707165
223	0xbf7733f1	-0.9656363
224	0x401d03b8	2.453352
225	0x3e843117	0.25818703
226	0xc0813067	-4.0371585
227	0x3cb0224e	0.021500733
228	0xbf1b5928	-0.60682917
229	0xc0f4ec8e	-7.6538763
230	0x3fb23f94	1.3925653
231	0x3f95476e	1.1662424
232	0x3fbd7d28	1.480382
233	0xc07152a9	-3.7706702
234	0xbef1756b	-0.47159895
235	0xbf36b3e9	-0.7136827
236	0xc057f07e	-3.3740535
237	0x4009d4a5	2.1536038
238	0x3d41c1e0	0.047304034
239	0xbfa5da75	-1.2957293
240	0x3f6dde51	0.9291735
241	0xbf5aa22d	-0.8540371
242	0x3e3bbc2e	0.18333504
243	0x3f41283f	0.75452036
244	0x3f9d0814	1.226809
245	0x3f918b5c	1.1370654
246	0xbf542522	-0.8286916
247	0x3f3f91a9	0.74831635
248	0xc02f6e1c	-2.7410955
249	0x3f4c539c	0.7981508
250	0x3f00f2af	0.50370306
251	0xbdd141a0	-0.10217595
252	0x3f4933a3	0.78594416
253	0xbfed85e7	-1.8556489
254	0xc064ee2c	-3.5770369
255	0x402112d3	2.516774

layer4.bias f4 [50]
0	0x3eeb8ae5	0.46004406
1	0x3e2cfb25	0.16892679
2	0x3d0b4824	0.034004346
3	0x3ed512d4	0.41615927
4	0xbf0649c5	-0.52456313
5	0xbf2cae38	-0.67453337
6	0x3ede7e69	0.43455818
7	0xbfa2965e	-1.2702138
8	0xbee60c97	-0.4493148
9	0xbf87d9cb	-1.061334
10	0xbf4fba67	-0.811438
11	0x3e9c72ee	0.30556434
12	0xbf4d45d3	-0.8018467
13	0x3e3cdbae	0.18443176
14	0x3f929fb7	1.1454991
15	0xbe7e9a75	-0.24863608
16	0xbb9c31c9	-0.004766677
17	0xbee7a77d	-0.4524497
18	0x3dd0beb4	0.10192624
19	0xbf1d5b93	-0.61467856
20	0x3e596146	0.21228513
21	0xbf707d14	-0.93940854
22	0xbec3791c	-0.38178337
23	0xbfa3a65b	-1.2785143
24	0xbf1a28ff	-0.60218805
25	0x3e78eda9	0.2430941
26	0x3fb5dd0b	1.4208082
27	0x3f842293	1.0323051
28	0xbdba1d3d	-0.09087608
29	0xbdb036be	-0.08604191
30	0x3e634556	0.22194418
31	0x3eebf907	0.4608843
32	0xbf4f0228	-0.80862665
33	0x3f054e15	0.5207227
34	0x3e5c52ae	0.21515915
35	0x3f643a20	0.8915119
36	0x3e2f03d9	0.17091312
37	0x3f618855	0.8809865
38	0x3fa26383	1.2686619
39	0x3eba7a0d	0.36421242
40	0xbf890403	-1.0704349
41	0x3f305568	0.6888032
42	0xbf049a55	-0.5179799
43	0x3fef491f	1.869419
44	0x3dcd48c2	0.10023643
45	0x3f348d93	0.70528525
46	0xbec17d5d	-0.37790957
47	0xbeaf5857	-0.34247085
48	0x4003ecfb	2.0613391
49	0x3eb51114	0.35364592

layer5.weight f4 [35, 50]
0	0xc07287fa	-3.7895494
1	0xc0bee5b9	-5.9655423
2	0x3fdb63c8	1.7139826
3	0x3f3d024d	0.73831636
4	0xc099595c	-4.792158
5	0x40d48d0c	6.6422176
6	0xc0f18ef5	-7.548701
7	0x3fa16561	1.2609063
8	0xc0c178f8	-6.0460167
9	0x411c6046	9.773504
10	0x3e079db4	0.13243753
11	0x40454fa5	3.082986
12	0x3f00221f	0.50052065
13	0x3de450a0	0.111481905
14	0xbefcf274	-0.49403727
15	0x3ffc6981	1.9719697
16	0xbfb8a8d5	-1.4426523
17	0x40d9eac5	6.8099084
18	0x403fdc5b	2.9978244
19	0x3ec6974e	0.3878731
20	0xbfa20d33	-1.2660278
21	0x409e63b0	4.949669
22	0x3fe7f764	1.8122373
23	0x4110a072	9.039171
24	0xbee02571	-0.43778566
25	0xc0901fe3	-4.5038924
26	0x413bad84	11.729862
27	0x3fb03610	1.3766499
28	0x40107b39	2.257521
29	0xc0c56e92	-6.1697474
30	0x4037daf1	2.8727381
31	0xc090e524	-4.5279713
32	0xbf9e10b9	-1.2348853
33	0xbf700840	-0.9376259
34	0xbfa6c6e4	-1.3029447
35	0xbe7342ec	-0.23755997
36	0x4111ae84	9.105106
37	0xc1a27f0e	-20.312038
38	0x420a15ca	34.52128
39	0x3ffabfa9	1.958974
40	0x40bf30d3	5.97471
41	0xc1c4d73c	-24.605095
42	0xc0055f9c	-2.0839605
43	0xc13dd248	-11.863838
44	0x40cfc935	6.4933114
45	0xc0712fac	-3.7685347
46	0x404c4f9f	3.1923597
47	0x40b4b98f	5.647651
48	0x40e639b3	7.1945434
49	0xc0b458b7	-5.6358294
50	0x3f52d9fd	0.82363874
51	0xbf85115f	-1.0395926
52	0xbf97ac65	-1.1849486
53	0x3e2da0b5	0.16955836
54	0xc060ddfd	-3.513549
55	0x3fa101e6	1.2578704
56	0xbf40a005	-0.7524417
57	0x4049de48	3.154192
58	0xbcaff13a	-0.02147733
59	0x4084e341	4.152741
60	0xc07cb02d	-3.948253
61	0x3f63f16a	0.89040244
62	0x3f17878a	0.5919119
63	0x3df45753	0.11930718
64	0x3e1fdbe1	0.15611221
65	0xbe581875	-0.2110308
66	0xbf059687	-0.5218281
67	0xc00cec07	-2.201906
68	0xc0d2957a	-6.5807467
69	0x3ec83865	0.39105526
70	0xbf7a610d	-0.9780434
71	0x401b75ef	2.429073
72	0x3f9ddc15	1.2332789
73	0x40229c13	2.540776
74	0xbf2192fb	-0.631149
75	0xbfa3cee8	-1.2797518
76	0x3fab9a19	1.3406402
77	0xbf92b18f	-1.1460437
78	0xbefe5328	-0.49672818
79	0x3fef2d9b	1.8685793
80	0x4017d5ed	2.372432
81	0x3f7cc153	0.9873249
82	0x3f92c2aa	1.1465657
83	0xc044de0f	-3.0760534
84	0xbf655559	-0.89583355
85	0x3f882688	1.0636759
86	0x40744f21	3.8173296
87	0x407c30d1	3.9404795
88	0xbfbd5039	-1.4790107
89	0x40c4133f	6.1273494
90	0xc0392926	-2.8931365
91	0x402287d7	2.539541
92	0xbe8e7858	-0.2782619
93	0x4047cfb1	3.1220515
94	0xbffeea51	-1.9915258
95	0xbfc465e9	-1.53436
96	0xbe821600	-0.2540741
97	0xc07314bd	-3.7981408
98	0xbfd77f2b	-1.6835684
99	0xbebd8c0f	-0.3702092
100	0x4099ae56	4.8025312
101	0xc025f9e6	-2.5933776
102	0x3f217f60	0.63084984
103	0xbfcee4b1	-1.6163541
104	0x3f0a477c	0.54015326
105	0x3f701879	0.9378734
106	0x400756d7	2.1146753
107	0xbff14355	-1.8848673
108	0xbf8be9fb	-1.093078
109	0xc0fd4295	-7.9143777
110	0x408581f8	4.1721153
111	0xbfebc4b5	-1.8419405
112	0x40490ba6	3.141336
113	0xbeeb8e26	-0.46006888
114	0xbf4cf2c2	-0.8005792
115	0x3fdb5da8	1.7137957
116	0x3f91f04b	1.1401457
117	0x3fd5ad5b	1.6693529
118	0x404b58bd	3.1772912
119	0xbf007649	-0.5018049
120	0x409c3fa1	4.882767
121	0xc06c6d64	-3.6941767
122	0xc0bd96d8	-5.9246635
123	0xbfc64420	-1.548954
124	0x3f56488e	0.8370446
125	0x40a879ab	5.264852
126	0x3fbacf78	1.4594564
127	0x4012bfb1	2.29295
128	0x3df4333a	0.11923833
129	0xc00a8bbb	-2.1647785
130	0xc0950183	-4.6564345
131	0xbf8d98f2	-1.10623
132	0x3ea1e4f4	0.3161999
133	0x3f748159	0.9550987
134	0xbfb9f32b	-1.4527334
135	0xbfcd973f	-1.6061782
136	0x3dad2c27	0.08455687
137	0x3ed5b68e	0.4174084
138	0xbed3fc5b	-0.4140347
139	0xc08277f5	-4.077143
140	0x40115c22	2.2712483
141	0xc07e12b2	-3.969891
142	0xc0c3bb16	-6.1165876
143	0xc014d99d	-2.325782
144	0x4021dfee	2.5292926
145	0xbfcd6ecd	-1.6049439
146	0xbfeed8e7	-1.8659943
147	0x3f3740f2	0.71583474
148	0x3f995f42	1.1982195
149	0x408a85f0	4.32885
150	0x4064df3b	3.576125
151	0xbf79ba8c	-0.9755027
152	0xbe731cf2	-0.2374151
153	0x3fa8ca5a	1.3186753
154	0xbfd3f033	-1.6557678
155	0x40cd4080	6.4141235
156	0xc0b95ce2	-5.792588
157	0x3f6cc967	0.92494816
158	0x400d14ca	2.2043939
159	0x3f201c32	0.6254302
160	0x3fc7c1ef	1.5606059
161	0x3dc34977	0.09535497
162	0x3bf5d1cb	0.007501816
163	0xbfb0ab3a	-1.3802254
164	0xc01794d8	-2.3684597
165	0xc09538b2	-4.663171
166	0x409fa7f3	4.9892516
167	0xbf51c3ba	-0.8193928
168	0xbe982979	-0.2971914
169	0x3f207914	0.6268475
170	0xbf36673a	-0.7125126
171	0x40392526	2.8928924
172	0x4080f6b2	4.030114
173	0xc098b923	-4.7725997
174	0x3f7fde81	0.9994889
175	0xc08799cc	-4.237524
176	0x41223d53	10.139972
177	0xc01099a2	-2.259377
178	0xc0e97cfd	-7.2965074
179	0x40763030	3.8466911
180	0x40ad99ea	5.4250383
181	0xbf85ec9f	-1.0462836
182	0xc01753f0	-2.3644981
183	0xc080198a	-4.0031176
184	0x3fa6e3da	1.3038285
185	0xc03facf5	-2.9949315
186	0x41185700	9.52124
187	0x3fc87bcc	1.566278
188	0xc01c5cbb	-2.4431598
189	0x408af675	4.342585
190	0xc107bdcd	-8.483838
191	0xc0322ca6	-2.7839751
192	0x3eb96835	0.36212316
193	0x40c87471	6.264214
194	0x403f69a0	2.9908218
195	0xc0a19609	-5.049565
196	0xc085665b	-4.1687446
197	0xc0b293c6	-5.5805387
198	0xc1a7a4df	-20.955503
199	0xc05fb0fc	-3.4951773
200	0x4063e0e0	3.5606003
201	0x3f6b3a6c	0.9188602
202	0xc0206da2	-2.5066915
203	0xc08641b1	-4.195519
204	0x40cb0a9a	6.345044
205	0xc02550e5	-2.5830624
206	0xc064a226	-3.5723968
207	0xc09723c7	-4.7231174
208	0x3ee66de5	0.45005718
209	0xc00764b1	-2.1155207
210	0x406d6f68	3.7099247
211	0x40631696	3.5482535
212	0x4088bb4b	4.272863
213	0x40576c81	3.3659976
214	0x3f53dfc5	0.8276332
215	0x40248167	2.570398
216	0xc06081a0	-3.5079117
217	0xbf978553	-1.1837562
218	0x3eeb72dc	0.45986068
219	0x403dadd0	2.9637337
220	0x40189212	2.3839154
221	0xc0b3d916	-5.6202497
222	0xc08df1f1	-4.435784
223	0xc04d1634	-3.2044802
224	0xbe2197a3	-0.15780501
225	0x3c4ac2e8	0.012375571
226	0x3fb9620a	1.4483044
227	0xbf452cf7	-0.77021736
228	0x4062e431	3.5451777
229	0xbf944794	-1.1584344
230	0x40345753	2.8178298
231	0x40349779	2.8217452
232	0xc086d1a3	-4.2130904
233	0xbf5cbf17	-0.8622908
234	0x3ea74b91	0.3267484
235	0x408d6e89	4.419743
236	0xc00df916	-2.218328
237	0x4061b6ac	3.5267744
238	0xbff00237	-1.8750676
239	0x402e9fac	2.7284956
240	0x405b4430	3.4260368
241	0xbf81a3d7	-1.0128125
242	0xc106df92	-8.429583
243	0x3eaa7965	0.33295742
244	0xbf43c954	-0.7647908
245	0xc00d1b39	-2.2047865
246	0xc02aa69d	-2.6664193
247	0xbf245026	-0.64184797
248	0xc0566c31	-3.3503535
249	0x4050e486	3.263948
250	0x3fa249c9	1.2678767
251	0x3ff8e358	1.944438
252	0xbf8e054f	-1.109537
253	0x3c75bdeb	0.014998893
254	0xbfb20a91	-1.3909475
255	0xbecb2f8b	-0.3968471

layer5.bias f4 [35]
0	0x3f13b3e2	0.57696354
1	0xbe966d99	-0.2938049
2	0xbf859eb8	-1.0439062
3	0xbfb07bfd	-1.3787838
4	0x3e154582	0.14577296
5	0xbf4d79ad	-0.8026379
6	0xbe8f7e11	-0.2802587
7	0x3de0201c	0.109436244
8	0xbf0a7feb	-0.5410144
9	0xbd128168	-0.035767943
10	0xbf3285e5	-0.69735557
11	0xbe08b7ac	-0.13351315
12	0xbea9022d	-0.33009472
13	0xc01f6714	-2.4906664
14	0xbd785346	-0.06062629
15	0xbe58782f	-0.21139596
16	0xbf0ee9c1	-0.5582543
17	0xbed359ae	-0.41279358
18	0x3dfd0915	0.12355248
19	0x3d82a810	0.06379712
20	0xc0cbb517	-6.3658557
21	0xbe413304	-0.18867117
22	0x3d59cada	0.05317197
23	0xbf959f1f	-1.1689185
24	0xbf9130d6	-1.1343029
25	0x3dd5afa5	0.10433892
26	0x3e68ee96	0.22747263
27	0xbe7c5ad3	-0.24644022
28	0xbf071367	-0.5276398
29	0xbdf1b1ed	-0.11801515
30	0xbd8875be	-0.066630825
31	0xbf272354	-0.6528828
32	0xbe615e50	-0.22008634
33	0x40f2bf1d	7.5858293
34	0xbf643043	-0.8913614

layer6.weight f4 [1, 35]
0	0x8dedc710	-1.4654175e-30
1	0xbff441d1	-1.9082586
2	0x3ea5da9d	0.3239335
3	0xbc178941	-0.0092490325
4	0x401df819	2.4682677
5	0xc02a6c21	-2.6628497
6	0xbe07bd4e	-0.13255808
7	0x3ff3b2b3	1.903891
8	0x408b90ef	4.361442
9	0xbe9ca672	-0.30595738
10	0xbf7b3b69	-0.9813753
11	0x404060bb	3.005904
12	0x3dbcd724	0.09220722
13	0xc02db3c1	-2.7140963
14	0xbfeb473f	-1.8381118
15	0xbf7d7c9c	-0.99018264
16	0xbd88e482	-0.066842094
17	0x3fe3a895	1.7785822
18	0x9ad90649	-8.975925e-23
19	0x3d99f38e	0.075171575
20	0xbd04ac04	-0.03239061
21	0xbffd8f59	-1.9809371
22	0xbe25dfa7	-0.16198598
23	0x3f326590	0.6968622
24	0xbbe54b07	-0.0069974693
25	0xc04a84d7	-3.164358
26	0xbf4d9ab9	-0.80314213
27	0xbfcfa1b8	-1.6221228
28	0xbf02c500	-0.5108185
29	0x2fc00fe0	3.4935876e-10
30	0x3b183c1d	0.002322919
31	0x3f1d1891	0.6136561
32	0x402cd05c	2.7002172
33	0x3f948d73	1.1605667
34	0xbf483db7	-0.7821917

batchnorm1.weight f4 [75]
0	0x3f7f71e0	0.99783134
1	0x3f800000	1.0
2	0x3f800000	1.0
3	0x3f800000	1.0
4	0x3f800000	1.0
5	0x3f800000	1.0
6	0xbe90049d	-0.2812852
7	0xc221a75e	-40.413445
8	0x410cb49c	8.794094
9	0x3f800000	1.0
10	0x3f800000	1.0
11	0xbf0217e8	-0.5081773
12	0x3f800000	1.0
13	0x3f800000	1.0
14	0x41ebc6d1	29.472078
15	0x3f903f07	1.1269234
16	0xc0357c27	-2.8357027
17	0x424bf028	50.984528
18	0x40d6e089	6.714909
19	0x3f800000	1.0
20	0x429e13a2	79.038345
21	0x4354d8b7	212.84654
22	0x3f800000	1.0
23	0x3f800000	1.0
24	0x3f800000	1.0
25	0x3f2d1301	0.6760712
26	0x41459ae9	12.35032
27	0xc01734b2	-2.3625913
28	0x42637876	56.867638
29	0xbe8055c3	-0.2506543
30	0x41246448	10.274483
31	0x3fe887ae	1.8166406
32	0x3f84045c	1.031383
33	0x3f8951fe	1.0728147
34	0xc09d4bc2	-4.915498
35	0x3f800000	1.0
36	0x3f800000	1.0
37	0x3f45f01d	0.7731951
38	0x3f800000	1.0
39	0x3f800000	1.0
40	0x3f800000	1.0
41	0x3f800000	1.0
42	0x3f9259bd	1.1433636
43	0x3f800000	1.0
44	0x3f800000	1.0
45	0x3f800000	1.0
46	0x3f800000	1.0
47	0x3f800000	1.0
48	0x3f800000	1.0
49	0x41e786fb	28.940908
50	0x40b3210f	5.5977855
51	0x3f800000	1.0
52	0x3f800000	1.0
53	0x3fde4f0a	1.7367871
54	0xc1cbc4ab	-25.47103
55	0x3f800000	1.0
56	0x400acda1	2.1688006
57	0x3f6e6d40	0.9313545
58	0xc1ad273e	-21.644161
59	0x3f827e04	1.0194707
60	0x3f800000	1.0
61	0x3f800000	1.0
62	0x41453f21	12.327912
63	0x3f800000	1.0
64	0x3f800000	1.0
65	0x3ffa3d14	1.954989
66	0x3f800000	1.0
67	0x3f800000	1.0
68	0x3f800000	1.0
69	0x3f800000	1.0
70	0x3f800000	1.0
71	0x3f800000	1.0
72	0x3f800000	1.0
73	0xc0a4d73b	-5.1512733
74	0x3f800000	1.0

batchnorm1.bias f4 [75]
0	0x3d0e95e9	0.034810934
1	0xbf37cfcf	-0.71801466
2	0xbf5ad45d	-0.8548029
3	0xbfaefef8	-1.367156
4	0x3fdc105d	1.7192494
5	0x3e5baac1	0.21451856
6	0x4135c64c	11.360912
7	0xc090a6a7	-4.5203433
8	0x40c2d140	6.088043
9	0xbfbf4de3	-1.4945644
10	0xbf80c701	-1.0060731
11	0xc0197592	-2.397801
12	0xbfb36559	-1.4015304
13	0xbfe76893	-1.8078789
14	0x418d108b	17.633078
15	0xc1013f4f	-8.077956
16	0xc0dbfa6c	-6.874319
17	0x41a36245	20.422983
18	0xc09ffa61	-4.999314
19	0x3e38bbec	0.18040437
20	0x4009bceb	2.1521556
21	0x427ed072	63.70356
22	0x402401d3	2.5626113
23	0x4076229f	3.845863
24	0x3f6ee710	0.93321323
25	0xbfef4b11	-1.8694783
26	0xc15fce65	-13.987889
27	0x3ecd7885	0.40131012
28	0x40e37286	7.10773
29	0xc0918dff	-4.5485835
30	0x410ff338	8.99688
31	0xc0e237af	-7.0692973
32	0xc0812790	-4.0360794
33	0x4100ad36	8.042288
34	0x416b8cdb	14.721889
35	0x3f3325b4	0.69979405
36	0xbf77db3a	-0.9681889
37	0x40a553ec	5.1664944
38	0x3e29af63	0.16570811
39	0x4053b8cd	3.3081543
40	0x3fa9326a	1.321851
41	0xbf134d8b	-0.57540196
42	0x3e03e304	0.12879568
43	0xbf51cdde	-0.81954753
44	0x3f886458	1.0655622
45	0xbf907642	-1.128609
46	0x3de82969	0.11336023
47	0xbff6282c	-1.923101
48	0xbfb50d49	-1.4144679
49	0x407a64d4	3.912404
50	0xc0cbb5d7	-6.3659472
51	0x40005fa5	2.0058377
52	0x3ee25c7c	0.44211185
53	0x3ea1cd87	0.31602117
54	0xc08c5dcd	-4.3864503
55	0x4028860d	2.6331818
56	0xc10a4ea3	-8.644198
57	0x40837fb3	4.1093383
58	0xc1171654	-9.442951
59	0xc1460890	-12.37709
60	0xbe28ac12	-0.1647189
61	0xc0101fd0	-2.2519417
62	0xc02c3f9d	-2.6913826
63	0xbcaa15bb	-0.020762315
64	0xbe8fddca	-0.280989
65	0xc14b8958	-12.721031
66	0xbf07c3e8	-0.53033304
67	0xc0087dea	-2.1326852
68	0xbe66440b	-0.22486894
69	0x3f141078	0.5783763
70	0x3f10773b	0.5643193
71	0x3fa2185b	1.2663683
72	0xbf8bc7e3	-1.0920376
73	0xc1123411	-9.137712
74	0xbfd44da6	-1.6586196

batchnorm1.running_mean f4 [75]
0	0x00000004	6e-45
1	0x00000000	0.0
2	0x00000000	0.0
3	0x00000000	0.0
4	0x00000000	0.0
5	0x00000000	0.0
6	0x00000004	6e-45
7	0x00000004	6e-45
8	0x00000004	6e-45
9	0x00000000	0.0
10	0x00000000	0.0
11	0x00000004	6e-45
12	0x00000000	0.0
13	0x00000000	0.0
14	0x458f536b	4586.4272
15	0x00000004	6e-45
16	0x48280ee5	172091.58
17	0x460ce32f	9016.796
18	0x450af7a3	2223.4773
19	0x00000000	0.0
20	0x00000004	6e-45
21	0x465f5cef	14295.233
22	0x00000000	0.0
23	0x00000000	0.0
24	0x00000000	0.0
25	0x00000004	6e-45
26	0x45f8afea	7957.9893
27	0x481ae42b	158608.67
28	0x4712bbf0	37563.938
29	0x00000004	6e-45
30	0x00000004	6e-45
31	0x00000004	6e-45
32	0x00000004	6e-45
33	0x00000004	6e-45
34	0x44d1cd1b	1678.4095
35	0x00000000	0.0
36	0x00000000	0.0
37	0x00000004	6e-45
38	0x00000000	0.0
39	0x00000000	0.0
40	0x00000000	0.0
41	0x00000000	0.0
42	0x00000004	6e-45
43	0x00000000	0.0
44	0x00000000	0.0
45	0x00000000	0.0
46	0x00000000	0.0
47	0x00000000	0.0
48	0x00000000	0.0
49	0x45a9bd4b	5431.6616
50	0x00000004	6e-45
51	0x00000000	0.0
52	0x00000000	0.0
53	0x45925956	4683.167
54	0x00000004	6e-45
55	0x00000000	0.0
56	0x00000004	6e-45
57	0x00000004	6e-45
58	0x4684636f	16945.717
59	0x00000004	6e-45
60	0x00000000	0.0
61	0x00000000	0.0
62	0x00000004	6e-45
63	0x00000000	0.0
64	0x00000000	0.0
65	0x00000004	6e-45
66	0x00000000	0.0
67	0x00000000	0.0
68	0x00000000	0.0
69	0x00000000	0.0
70	0x00000000	0.0
71	0x00000000	0.0
72	0x00000000	0.0
73	0x4670ec4d	15419.075
74	0x00000000	0.0

batchnorm1.running_var f4 [75]
0	0x00000004	6e-45
1	0x00000004	6e-45
2	0x00000004	6e-45
3	0x00000004	6e-45
4	0x00000004	6e-45
5	0x00000004	6e-45
6	0x00000004	6e-45
7	0x00000004	6e-45
8	0x00000004	6e-45
9	0x00000004	6e-45
10	0x00000004	6e-45
11	0x00000004	6e-45
12	0x00000004	6e-45
13	0x00000004	6e-45
14	0x45e77f37	7407.902
15	0x00000004	6e-45
16	0x4a60c766	3.6827775e+06
17	0x47bec4e5	97673.79
18	0x46f181dc	30912.93
19	0x00000004	6e-45
20	0x00000004	6e-45
21	0x495699dc	879005.75
22	0x00000004	6e-45
23	0x00000004	6e-45
24	0x00000004	6e-45
25	0x00000004	6e-45
26	0x488db168	290187.25
27	0x47339bd1	45979.816
28	0x47108cd1	37004.816
29	0x00000004	6e-45
30	0x00000004	6e-45
31	0x00000004	6e-45
32	0x00000004	6e-45
33	0x00000004	6e-45
34	0x4624a436	10537.053
35	0x00000004	6e-45
36	0x00000004	6e-45
37	0x00000004	6e-45
38	0x00000004	6e-45
39	0x00000004	6e-45
40	0x00000004	6e-45
41	0x00000004	6e-45
42	0x00000004	6e-45
43	0x00000004	6e-45
44	0x00000004	6e-45
45	0x00000004	6e-45
46	0x00000004	6e-45
47	0x00000004	6e-45
48	0x00000004	6e-45
49	0x461fb6ee	10221.732
50	0x00000004	6e-45
51	0x00000004	6e-45
52	0x00000004	6e-45
53	0x46f516ef	31371.467
54	0x00000004	6e-45
55	0x00000004	6e-45
56	0x00000004	6e-45
57	0x00000004	6e-45
58	0x48eb0621	481329.03
59	0x00000004	6e-45
60	0x00000004	6e-45
61	0x00000004	6e-45
62	0x00000004	6e-45
63	0x00000004	6e-45
64	0x00000004	6e-45
65	0x00000004	6e-45
66	0x00000004	6e-45
67	0x00000004	6e-45
68	0x00000004	6e-45
69	0x00000004	6e-45
70	0x00000004	6e-45
71	0x00000004	6e-45
72	0x00000004	6e-45
73	0x46349238	11556.555
74	0x00000004	6e-45
