model_weights_9.pth (torch, 154513 bytes, 37 tensors)

layer1.weight f4 [75, 68]
-2.8428892e-19 8.711004e-18 2.6907654e-18 -6.964937e-19 3.1297952e-18 -6.7840536e-19 -7.070807e-19 -1.1268525e-18
7.631822e-19 2.7507807e-20 1.0737769e-18 6.0000895e-19 9.808718e-19 -4.601898e-19 1.5359904e-19 5.557842e-19
-1.0243538e-18 -1.7670289e-20 9.431725e-19 -9.98733e-19 -6.9812136e-19 1.0086494e-18 -1.5652261e-18 7.043657e-19
-7.266794e-19 5.2254835e-19 9.945884e-19 2.809881e-19 1.2747843e-18 -2.7621364e-20 1.3077346e-18 6.535635e-19
-1.0079192e-18 1.0149403e-18 -6.029318e-19 -6.648526e-20 -1.6151989e-18 -1.898326e-18 -3.230119e-19 1.4046944e-20
1.2653271e-18 1.4182184e-19 2.679402e-19 -7.160378e-19 1.05467195e-19 1.562531e-18 -1.1243261e-18 1.2321507e-18
1.4430104e-18 5.544415e-19 -6.832989e-19 1.4779916e-19 -6.706407e-19 -1.5478784e-18 1.3370147e-18 -8.726596e-19
5.778636e-19 1.5440257e-18 -9.587601e-19 -1.6986515e-18 8.410991e-19 -1.014349e-18 1.9179678e-18 1.3078691e-18
-9.679263e-19 -1.2299632e-18 -6.331417e-19 1.675468e-18 -7.6294476e-19 9.998604e-19 6.354441e-19 -1.6816336e-18
7.697537e-19 -1.1593874e-18 1.6459829e-18 6.898216e-19 -1.5066044e-18 1.7996904e-18 3.581674e-19 3.6316923e-19
-7.1458846e-19 1.1494886e-19 1.5816813e-18 -4.5430155e-19 1.5223057e-18 -3.8765034e-19 -1.7262078e-18 3.3364868e-19
-1.4670981e-18 1.3637575e-18 -1.5624065e-18 4.209557e-19 -1.7995114e-18 -1.8026261e-18 -1.2080691e-18 1.4968965e-18
-1.7629024e-18 3.6254706e-19 9.698026e-19 -7.5411027e-19 1.3019119e-18 1.0902846e-18 6.186275e-19 -1.7565867e-18
1.6513474e-18 1.1584341e-18 -1.7780477e-20 -1.4283585e-18 -1.8356747e-18 -1.4695641e-18 -9.234554e-19 5.848225e-19
-5.5997517e-19 1.0157881e-18 8.857495e-19 4.185325e-19 1.3573105e-18 -1.8361517e-18 6.3679615e-19 2.6450527e-19
-8.0349797e-19 -1.5398817e-18 7.696488e-19 1.5740493e-18 -6.331981e-19 -1.0884242e-18 1.3628283e-18 -1.392679e-18
-7.8305823e-19 -1.4581751e-18 -1.7930345e-18 -1.2973329e-18 8.1931526e-19 -1.0763003e-18 1.2193246e-18 5.461464e-19
-9.885165e-16 7.652194e-18 1.2939206e-17 7.7196275e-18 -1.3659845e-18 -1.2564184e-18 6.560644e-19 4.382664e-19
1.3597066e-18 9.056632e-19 1.927923e-18 -5.346062e-21 1.4109135e-18 -1.7169848e-18 -2.1684568e-19 9.773808e-19
1.75639e-18 4.9378934e-19 9.15544e-19 -1.6137766e-18 1.8278754e-18 8.878726e-19 -5.593789e-20 -1.4825991e-18
1.798785e-18 2.3968584e-19 3.463568e-19 1.9159774e-18 -2.8993689e-19 -1.1653958e-19 5.153648e-19 7.3581086e-19
-1.2087858e-18 -1.7655403e-18 1.7178465e-18 -1.768873e-18 1.6446074e-18 -7.503209e-19 -1.4176742e-19 -5.777037e-19
-1.5380299e-18 -4.663137e-19 -9.7778e-19 -1.2458208e-18 -1.6138838e-18 8.2529485e-19 -9.936699e-19 3.3513409e-19
-1.0808503e-18 -8.1673337e-19 -9.311631e-20 -1.2171397e-18 1.0514409e-18 1.5267373e-18 1.1348684e-18 -1.2775343e-18
1.4209631e-18 -5.949593e-19 -2.3987253e-18 3.0661698e-19 -9.673598e-19 -7.2084525e-19 -1.7049673e-18 1.8107306e-18
1.6666966e-19 -3.0897558e-20 1.1431686e-18 1.0578205e-18 -1.0689609e-18 8.3339915e-19 -2.6314996e-19 1.0592027e-19
-1.0610432e-18 1.0109663e-18 -1.6371936e-18 -1.8034303e-18 1.259418e-18 -3.8653811e-19 1.4250085e-18 -1.7758151e-18
-1.4882652e-18 -1.1814622e-18 1.3543402e-18 -7.7806945e-19 8.035251e-19 -1.6280425e-18 4.0076653e-19 -1.2063362e-18
-4.6448906e-19 1.1315507e-18 7.9300746e-19 -1.630577e-18 -2.187159e-19 5.8522734e-19 1.2585262e-18 -3.2716648e-19
-3.859492e-19 -8.869266e-19 -1.6551656e-18 2.741273e-19 -8.220579e-20 7.0871315e-19 1.5652621e-18 8.482786e-19
-8.537712e-19 1.3890114e-18 -8.770901e-19 -1.0031564e-18 4.9680695e-19 1.3922319e-18 1.4817994e-18 1.4446056e-18
-5.61717e-19 1.0823751e-18 1.7499297e-18 1.1230143e-18 -1.3382298e-18 -3.1859042e-19 3.2617712e-19 -6.437345e-19
00000000: 87d0 a7a0 8eb0 2023 1f8b 4622 9391 4da1
00000010: 29f0 6622 dc3a 48a1 82b1 50a1 494b a6a1
00000020: 6b40 6121 e6e6 011f 2576 9e21 6517 3121
00000030: 4ac0 9021 f5d2 07a1 7656 3520 de09 2421
00000040: fe2a 97a1 23e4 a69e 0d30 8b21 1163 93a1
00000050: 8f0c 4ea1 b2d9 9421 92fc e6a1 5ee4 4f21
00000060: 587a 56a1 a33a 1a21 7dc6 9221 b9dd a520
00000070: fd1f bc21 2e70 029f d1fc c021 dde5 4021
00000080: 1cbe 94a1 5cc7 9521 3df4 31a1 e0fb 9c9f
00000090: 7d5c eea1 5d12 0ca2 2eac bea0 6dab 841e
000000a0: b5ba ba21 056f 2720 fa29 9e20 4956 53a1
000000b0: 0207 f91f c196 e621 d7eb a5a1 56d5 b521
000000c0: 64f3 d421 6aa4 2321 9bac 49a1 8e7d 2e20
000000d0: 2ef0 45a1 316d e4a1 fd4e c521 26c8 80a1
000000e0: 248e 2a21 a4db e321 ef7c 8da1 3dad faa1
000000f0: a73f 7821 06b1 95a1 6385 0d22 e601 c121
00000100: 39d7 8ea1 b282 b5a1 d6de 3aa1 6441 f721
00000110: 7a2e 61a1 a88d 9321 cc8c 3b21 522a f8a1
00000120: f230 6321 6b18 aba1 7ae7 f221 7299 4b21
00000130: e855 dea1 31cb 0422 ba6c d320 9560 d620
00000140: c7e8 52a1 29b5 0720 3b6a e921 0e16 06a1
00000150: 15a7 e021 10d4 e4a0 49be fea1 90f3 c420
00000160: 6681 d8a1 4d41 c921 0c92 e6a1 077d f820
00000170: cfc7 04a2 a502 05a2 8f47 b2a1 27e7 dc21
00000180: 4914 02a2 9002 d620 1b1e 8f21 f692 5ea1
00000190: d720 c021 cae5 a021 2c96 3621 fc9c 01a2
000001a0: 24b2 f321 67f4 aa21 8eee a79e dcc9 d2a1
000001b0: ea72 07a2 90de d8a1 2947 88a1 f09b 2c21
000001c0: 8746 25a1 64e7 9521 acb6 8221 d80e f720
000001d0: be4d c821 ed7b 07a2 f5f2 3b21 e822 9c20
000001e0: 9726 6da1 163f e3a1 0529 6321 e749 e821
000001f0: 19e3 3aa1 819f a0a1 331e c921 ed85 cda1
00000200: 351e 67a1 4c30 d7a1 774d 04a2 da73 bfa1
00000210: b6d1 7121 7ad5 9ea1 c8f0 b321 a831 2121
00000220: d275 8ea6 7728 0d23 acaf 6e23 e966 0e23
00000230: 6f95 c9a1 256a b9a1 d3a2 4121 795a 0121
00000240: 43a8 c821 fda6 8521 7041 0e22 f0f7 c99d
00000250: ce36 d021 da61 fda1 cb00 80a0 673c 9021
00000260: 4599 0122 abbd 1121 461c 8721 c226 eea1
00000270: 97df 0622 e106 8321 6114 849f 03cb daa1
00000280: 17ba 0422 4d7c 8d20 f673 cc20 ca5f 0d22
00000290: 0626 aba0 ed95 09a0 dd1b 1821 4c2c 5921
000002a0: a362 b2a1 1d46 02a2 6882 fd21 1185 02a2
000002b0: 83b3 f221 a574 5da1 935e 27a0 0f82 2aa1
000002c0: 20f9 e2a1 aba1 09a1 7c4b 90a1 c7d9 b7a1
000002d0: ce2a eea1 8495 7321 caa3 92a1 08d4 c520
000002e0: 5f81 9fa1 a10e 71a1 5bdd db9f 3d9e b3a1
000002f0: 502a 9b21 814e e121 1e7a a721 e287 bca1
00000300: 78b2 d121 db99 2fa1 a4fe 30a2 a6fe b420
00000310: d2c1 8ea1 87c1 54a1 d89b fba1 bc9b 0522
00000320: d0c4 4420 dbe8 119f b0b3 a821 541b 9c21
00000330: 33c0 9da1 dcf9 7521 1956 9ba0 e018 fa1f
00000340: 1495 9ca1 3a31 9521 6d9b f1a1 d611 05a2
00000350: 78db b921 fd2b e4a0 4d4b d221 3308 03a2
00000360: 12a1 dba1 615a aea1 87dd c721 44a5 65a1
00000370: a428 6d21 b541 f0a1 2092 ec20 1806 b2a1
00000380: cd17 09a1 c7fc a621 f30d 6a21 75a1 f0a1
00000390: 6a1b 81a0 87ba 2c21 c7b9 b921 0020 c1a0
000003a0: fed2 e3a0 24e3 82a1 6342 f4a1 f2d0 a120
000003b0: 5a1a c29f da2c 5121 eefd e621 1e5e 7a21
000003c0: 21fd 7ba1 5efb cc21 876f 81a1 2d0a 94a1
000003d0: aca1 1221 0975 cd21 ccac da21 a82f d521
000003e0: 23ca 25a1 faba 9f21 3d1f 0122 48ba a521
000003f0: e47c c5a1 0610 bca0 7e8a c020 34ff 3da1

layer1.bias f4 [75]
7.6318894e-19 -1.196118e-18 -2.2580618e-18 5.666932e-20 -1.8392367e-18 1.4036172e-18 -1.7999254e-18 -1.1206837e-18
-2.1865036e-19 6.6441323e-19 -1.3453254e-18 1.3142957e-18 -5.997449e-20 -4.2025738e-19 1.135068e-18 1.240988e-18
9.571177e-19 6.45315e-19 1.7965132e-18 8.4723106e-19 6.186876e-19 -9.641917e-19 1.0761223e-18 -1.5467169e-19
1.5150234e-18 -4.1247353e-19 -9.956198e-19 1.0641557e-19 1.8777689e-19 -3.5105853e-19 -1.6447261e-18 -1.4361526e-18
-1.4763758e-18 -8.797465e-19 1.35172e-18 -7.9862396e-19 7.976302e-19 -6.0932435e-19 5.348492e-19 5.765492e-16
1.4692214e-19 1.7526197e-18 -3.994187e-19 -1.8369047e-18 1.6771194e-18 -2.7870783e-19 1.5900292e-18 -1.194152e-18
1.374401e-18 -2.9204847e-19 -7.886085e-19 2.4343998e-19 -1.4816055e-18 -1.3769678e-18 2.0230286e-19 7.381802e-19
-2.049303e-20 1.0020294e-18 -2.0746713e-18 -1.1570565e-18 -5.516026e-19 9.361359e-19 -5.7766753e-19 -4.777437e-19
-1.7651708e-18 1.5232696e-18 -5.6114216e-19 1.0404248e-18 9.224377e-19 7.1095615e-19 1.8273137e-18 -7.626521e-19
1.8407445e-18 7.305682e-20 2.8621258e-19
00000000: ed40 6121 0f84 b0a1 959d 26a2 81ce 851f
00000010: 33b6 07a2 2923 cf21 a1cf 04a2 3c62 a5a1
00000020: 8211 81a0 a519 4421 f588 c6a1 b0f4 c121
00000030: 5b9c 8d9f 8013 f8a0 a881 a721 3323 b721
00000040: e23e 8d21 9f76 3e21 2d8f 0422 f80e 7a21
00000050: b79a 3621 224a 8ea1 c0ce 9e21 a69a 36a0
00000060: f793 df21 3d7b f3a0 74ed 92a1 4444 fb1f
00000070: 15b0 5d20 773a cfa0 ffb7 f2a1 50f0 d3a1
00000080: e7df d9a1 e2d3 81a1 8a7a c721 52b6 6ba1
00000090: 3c6b 6b21 3fd7 33a1 10dc 1d21 d22d 2626
000000a0: 7e74 2d20 0d52 0122 73c6 eba0 268a 07a2
000000b0: c87f f721 2385 a4a0 9ba5 ea21 c939 b0a1
000000c0: 67d3 ca21 1e65 aca0 93c1 68a1 9cb3 8f20
000000d0: 79a5 daa1 5f34 cba1 4ad6 6e20 52df 5921
000000e0: 1b8d c19e 9adf 9321 6f15 19a2 5cc0 aaa1
000000f0: eacd 22a1 3726 8a21 537f 2aa1 4b01 0da1
00000100: 223f 02a2 80cb e021 b49e 25a1 238a 9921
00000110: b620 8821 54d6 5121 fbd4 0622 5d18 61a1
00000120: aed2 0722 2380 ac1f 39f3 a820

layer2.weight f4 [75, 75]
1.0493135e-15 -1.4330131e-18 2.707555e-15 3.0322715e-16 -5.6770763e-16 4.2022435e-16 4.0112546e-14 1.0799425e-16
1.5269912e-13 -3.5785633e-16 1.02285244e-16 3.2756256e-17 3.246305e-16 1.0552656e-15 3.4578225e-15 9.1456875e-15
8.5897505e-16 1.9542344e-13 -3.7077322e-17 -1.043487e-15 -3.5713675e-15 5.4180357e-16 6.6146206e-16 2.2519911e-16
-3.4397035e-17 -1.549312e-14 6.8602287e-15 -3.640075e-16 3.4008193e-16 1.2795024e-16 5.270768e-16 2.4654564e-16
-7.051339e-16 -4.8743815e-15 2.147551e-15 -1.8538381e-15 -3.6261518e-13 -5.260036e-17 -7.181901e-16 1.463036e-13
2.2192251e-16 -1.1755588e-15 1.4320321e-17 5.228553e-16 1.4597389e-17 -5.0393876e-16 -4.5564724e-16 -2.323277e-16
2.7059148e-16 -2.0156894e-15 -4.0986976e-15 -4.2369986e-16 4.2861593e-16 1.5126808e-13 2.1040963e-15 -1.6017098e-16
-3.1133477e-16 7.880353e-15 2.5590318e-15 2.96045e-16 -2.484535e-16 1.5448807e-14 -2.5633392e-14 4.0454578e-17
-1.6057324e-15 -4.6221323e-16 5.271627e-16 -2.7837693e-15 -2.3399213e-15 1.3728618e-15 -4.9020365e-18 2.8617728e-13
1.5497697e-16 2.571421e-15 -4.3299586e-16 1.6199525e-16 4.2890655e-17 6.9267623e-16 1.4107545e-16 -1.3993486e-16
1.7624425e-16 9.852159e-15 3.559616e-17 2.2338725e-14 -5.921103e-17 -1.81298e-17 -1.4075465e-16 6.484224e-17
4.016982e-16 7.731866e-16 2.5413114e-15 2.4303218e-16 4.4535068e-14 -2.7242168e-17 -1.2975405e-16 -8.660824e-16
2.5359221e-16 1.8895726e-16 8.879781e-17 4.6725884e-17 -3.4701572e-15 1.7309853e-15 -1.419664e-16 3.262648e-16
4.3912183e-17 1.3561874e-16 4.958095e-17 -2.373694e-16 -1.1629626e-15 4.636206e-16 -5.530905e-16 -1.03696186e-13
-2.944172e-18 -3.1185268e-16 1.122624e-14 5.7917565e-17 -4.0339584e-16 -1.00176773e-16 2.111898e-16 -1.1127408e-16
-6.1145436e-17 -4.603796e-17 -4.441134e-18 8.665626e-17 -2.4274474e-16 -8.216064e-16 -1.191824e-16 1.5253266e-16
3.7338568e-14 5.7383825e-16 2.3421738e-17 -1.0955473e-16 2.2160247e-15 1.24286e-15 3.536256e-17 -9.423989e-17
-2.2466761e-15 -7.553053e-15 2.1622165e-17 -5.462445e-16 -3.6805573e-17 1.7182336e-16 -5.9406566e-16 -5.617826e-16
2.2237476e-16 4.358892e-17 6.5832444e-14 3.0138633e-17 7.589072e-16 -8.732828e-17 -1.3824686e-17 -8.277929e-16
-3.831053e-15 -1.4668117e-15 6.206744e-16 -1.9028784e-15 -7.890331e-14 -3.6135696e-16 -1.608441e-13 1.2404915e-16
4.5305103e-16 1.3188688e-15 -1.7287721e-16 -3.9718027e-15 -4.0323342e-15 -1.6349301e-14 -1.4732748e-15 -3.265354e-13
4.0353147e-16 -4.6128e-16 3.9203323e-15 -2.992069e-15 -1.332552e-15 -1.0579438e-15 -7.7116013e-16 2.4890399e-14
-1.1489905e-14 1.3667804e-15 -1.7855923e-15 -5.6156013e-16 -1.0868734e-15 -2.5639436e-16 2.295223e-15 5.818279e-15
-1.1923662e-15 5.4602234e-15 8.235463e-13 -1.3104468e-16 6.065748e-16 2.815101e-13 -6.4886885e-16 2.5189807e-15
-1.1717147e-15 -2.3959619e-15 3.4471787e-15 -5.0738226e-16 -4.3079397e-16 -4.1676382e-16 -7.827435e-16 -1.503952e-15
1.7321068e-15 9.443779e-16 -1.5268924e-15 -2.6092526e-13 -4.946845e-15 -7.507115e-16 9.928884e-16 -1.3208767e-14
-4.1596827e-15 2.398595e-16 1.0061665e-15 -1.5004752e-14 3.171163e-14 -9.487029e-17 2.4093168e-15 3.6459472e-16
-1.4645546e-15 5.872873e-16 4.4636044e-15 6.40113e-16 -9.070603e-16 -4.1725962e-13 -9.586699e-16 -4.402659e-15
2.7460107e-16 -1.4716811e-16 1.2750339e-16 -9.0208264e-18 1.399968e-16 4.078372e-17 1.8195786e-16 3.7647777e-15
4.2708308e-17 1.0246357e-14 3.1666e-17 -5.5589164e-17 -9.547597e-18 -3.477303e-17 3.7013275e-16 4.0381852e-17
3.1038082e-16 3.4455805e-17 1.615638e-14 -5.627161e-17 2.0066876e-16 2.0450819e-16 3.355178e-16 7.361325e-17
1.3277897e-16 8.978247e-17 -1.4205718e-15 6.481035e-16 -1.198438e-16 -1.9820104e-16 7.981651e-17 9.017042e-17
00000000: d638 9726 b479 d3a1 9319 4327 6ecc ae25
00000010: 6ea1 23a6 2b3e f225 9ea6 3429 8e04 f924
00000020: 86ec 2b2a 464a cea5 8dda eb24 c30f 1724
00000030: 0223 bb25 6e14 9826 9129 7927 0ac1 2428
00000040: 2c95 7726 f906 5c2a 2dfd 2aa4 e061 96a6
00000050: 0dac 80a7 0c2a 1c26 49a7 3e26 86d1 8125
00000060: daa0 1ea4 b48c 8ba8 712a f727 07d6 d1a5
00000070: 3c0b c425 3f84 1325 67eb 1726 b71f 8e25
00000080: b33d 4ba6 3c9e afa7 53bf 1a27 4795 05a7
00000090: 5b22 ccaa 8b93 72a4 1301 4fa6 24b9 242a
000000a0: f7db 7f25 776a a9a6 e714 8423 e9b3 1626
000000b0: 1ca3 8623 1e40 11a6 d554 03a6 84ed 85a5
000000c0: 41fc 9b25 e83e 11a7 d0ab 93a7 103f f4a5
000000d0: 8c14 f725 0e50 2a2a ba9d 1727 21aa 38a5
000000e0: e778 b3a5 b7f5 0d28 ce65 3827 88a8 aa25
000000f0: 4439 8fa5 8626 8b28 94e2 e6a8 5690 3a24
00000100: 1269 e7a6 5139 05a6 bef1 1726 7b97 48a7
00000110: ee9b 28a7 a9d9 c526 6dda b4a2 7e1a a12a
00000120: 21ad 3225 584a 3927 e99a f9a5 8fc4 3a25
00000130: 59cc 4524 7ca6 4726 20a6 2225 7b55 21a5
00000140: 1f32 4b25 107b 3128 8728 2424 9835 c928
00000150: 0688 88a4 c837 a7a3 7147 22a5 1a84 9524
00000160: 3190 e725 1adb 5e26 ec1e 3727 3819 8c25
00000170: 7091 4829 c043 fba3 a398 15a5 9aa1 79a6
00000180: 9b2f 9225 57da 5925 fac0 cc24 307c 5724
00000190: 1a0d 7aa7 1676 f926 16ad 23a5 3014 bc25
000001a0: 5b82 4a24 965b 1c25 dba6 6424 8ad5 88a5
000001b0: bf99 a7a6 2aa1 0526 e06a 1fa6 c880 e9a9
000001c0: d63d 59a2 55c5 b3a5 e53b 4a28 7f8c 8524
000001d0: b88a e8a5 eefd e6a4 3a7c 7325 504a 00a5
000001e0: e5fd 8ca4 0850 54a4 53d9 a3a2 d4d0 c724
000001f0: cdee 8ba5 dacf 6ca6 7068 09a5 b2db 2f25
00000200: 7028 2829 ca65 2526 0407 d823 b39d fca4
00000210: 71ae 1f27 711d b326 be14 2324 6a4d d9a4
00000220: dce3 21a7 4f10 08a8 e56d c723 bb71 1da6
00000230: 5abc 29a4 4e19 4625 4f3a 2ba6 3dec 21a6
00000240: b930 8025 b704 4924 d23d 9429 6bfd 0a24
00000250: 78bd 5a26 855d c9a4 3c05 7fa3 5698 6ea6
00000260: 3a07 8aa7 cd63 d3a6 b0e5 3226 e91d 09a7
00000270: a9ac b1a9 e04e d0a5 2818 35aa d904 0f25
00000280: 4495 0226 ac11 be26 5950 47a5 6a19 8fa7
00000290: b847 91a7 ec42 93a8 3f52 d4a6 b6d2 b7aa
000002a0: bc9e e825 75f4 04a6 af3e 8d27 ee99 57a7
000002b0: 7e0a c0a6 3d77 98a6 9345 5ea6 5a31 e028
000002c0: d6fb 4ea8 4cf9 c426 5daa 00a7 d3db 21a6
000002d0: 8da2 9ca6 21cd 93a5 6463 2527 27a0 d127
000002e0: 8cd6 aba6 acb9 c427 c4ce 672b 9015 17a5
000002f0: 52d5 2e26 e279 9e2a 1206 3ba6 fe82 3527
00000300: a4dc a8a6 b2a5 2ca7 3965 7827 343e 12a6
00000310: f855 f8a5 7c3f f0a5 479c 61a6 09be d8a6
00000320: 769f f926 6519 8826 630c dca6 4be3 92aa
00000330: 983a b2a7 bb60 58a6 1e17 8f26 b0f2 6da8
00000340: 4dde 95a7 0445 8a25 fe00 9126 9a26 87a8
00000350: 05d1 0e29 89c1 daa4 0d9c 2d27 af2c d225
00000360: 8710 d3a6 2746 2926 7cd1 a027 0180 3826
00000370: 9eb8 82a6 73e5 eaaa ad28 8aa6 5d9f 9ea7
00000380: f74b 9e25 5cac 29a5 5c00 1325 a667 26a3
00000390: c367 2125 eb14 3c24 7bc8 5125 f2a3 8727
000003a0: 12f5 4424 fb94 3828 9d08 1224 0d2e 80a4
000003b0: 411f 30a3 bf5c 20a4 f45d d525 7a3a 3a24
000003c0: 20ec b225 3ce6 1e24 1386 9128 e5c0 81a4
000003d0: f75a 6725 2ac8 6b25 b069 c125 98bd a924
000003e0: 6f15 1925 3706 cf24 d9b9 cca6 99cd 3a26
000003f0: a62b 0aa5 9f82 64a5 5a0b b824 39eb cf24

layer2.bias f4 [75]
-2.6232673e-14 -5.999762e-15 -1.6451544e-13 -1.1987417e-15 -1.9949196e-14 -8.310679e-15 -1.1751574e-12 -8.728269e-14
-4.0461354e-14 -6.796625e-14 1.5268234e-15 -8.544855e-15 5.1755924e-15 -9.6408214e-15 1.07340694e-16 -1.1551833e-11
-3.737358e-12 2.649801e-16 -6.5289105e-15 -1.3678825e-15 3.1144734e-14 -8.8450563e-13 -6.06981e-12 -1.0348296e-15
-1.4959894e-18 -2.3280445e-14 -8.759566e-14 -5.3468616e-15 -2.0668629e-14 -3.4953275e-14 1.6260815e-10 -2.0449281e-14
-2.9653366e-14 -2.815283e-13 -1.0565784e-13 1.0840621e-13 -6.3587577e-14 -7.7657614e-14 -7.8118874e-16 1.8268209e-13
-4.8976756e-12 -6.599222e-16 -2.4942818e-15 -2.4573336e-12 -3.3513301e-15 -1.3314572e-12 -5.2655e-15 -2.8522748e-15
7.182156e-11 -2.1241321e-14 -7.1764575e-16 -5.2009845e-16 -2.6159638e-14 -7.297705e-12 -5.0092883e-13 -8.139723e-14
-2.319047e-14 -3.4230177e-12 -2.8795315e-12 -6.356783e-16 -1.6799968e-15 8.659015e-11 -1.4802744e-13 -1.1883559e-14
-1.387964e-11 -1.196926e-13 -1.4121447e-13 -9.0061205e-12 -1.6471324e-13 -1.3194794e-14 -4.2844736e-14 -1.21993895e-14
-6.101772e-15 -8.773558e-14 -8.608317e-14
00000000: 6d48 eca8 092a d8a7 593a 39aa c3c1 aca6
00000010: b7af b3a8 3eb6 15a8 8263 a5ab 0c8b c4a9
00000020: c438 36a9 e00b 99a9 d709 dc26 30ee 19a8
00000030: 6a78 ba27 71ac 2da8 c382 f724 d538 4bad
00000040: 217f 83ac 29c0 9825 923a eba7 f521 c5a6
00000050: 6f43 0c29 59f7 78ab fd8f d5ac 7922 95a6
00000060: e2c4 dca1 0db1 d1a8 763f c5a9 18a4 c0a7
00000070: 9d2a baa8 626a 1da9 20ca 322f d530 b8a8
00000080: 018c 05a9 817c 9eaa 99eb eda9 ed1b f429
00000090: be2f 8fa9 91de aea9 8e29 61a6 87ae 4d2a
000000a0: 5752 acac aa35 3ea6 61bb 33a7 63eb 2cac
000000b0: 217d 71a7 cd62 bbab aab5 bda7 2f87 4da7
000000c0: f2ef 9d2e 2753 bfa8 e9d8 4ea6 7ee8 15a6
000000d0: 05a0 eba8 f161 00ad baff 0cab 4f4a b7a9
000000e0: 95e1 d0a8 9bdf 70ac 07a1 4aac c838 37a6
000000f0: f11c f2a6 ec69 be2e 01aa 26aa 3e13 56a8
00000100: 572c 74ad 0bc3 06aa 4dfe 1eaa f66f 1ead
00000110: 5c73 39aa 3fb2 6da8 9ef4 40a9 c1c3 5ba8
00000120: ead6 dba7 1e90 c5a9 92d7 c1a9

layer3.weight f4 [75, 75]
-2.283532e-15 2.042867e-15 -3.0677246e-14 -7.1682254e-16 4.7231324e-15 2.5064128e-15 -3.1572726e-13 -4.697234e-14
8.91244e-15 -4.38862e-14 4.3275858e-16 2.8050188e-15 -2.9490987e-14 -8.323775e-16 1.3703523e-15 -5.138915e-12
-1.1592472e-12 5.961571e-15 2.0681014e-14 -1.9931304e-15 2.927946e-15 -5.2938535e-13 8.1891037e-13 -1.6066254e-15
2.792647e-16 5.2704927e-15 -8.76443e-14 -5.2247583e-17 8.2926635e-15 -1.2410155e-14 -9.826784e-12 1.7034339e-14
-4.2937184e-14 -3.4225162e-13 6.5083396e-14 2.5813658e-14 1.3890309e-13 -2.0439247e-14 -1.3671952e-15 4.013619e-14
8.785872e-13 9.874603e-17 1.3248163e-15 1.9941472e-13 -2.6645182e-16 -1.4666189e-12 3.2263207e-14 -1.3570858e-15
-7.0698856e-13 -3.6899745e-15 4.0917899e-16 4.4568124e-17 -1.383827e-14 -1.4459793e-12 -8.1986506e-13 -5.078312e-14
1.3660521e-14 7.201892e-13 -8.0978106e-13 -7.80048e-15 -1.1494316e-14 5.6127065e-12 1.3858147e-13 -2.895122e-16
-3.5354556e-13 -3.7134523e-13 -1.6106967e-13 -1.8548729e-13 3.894833e-14 -8.843383e-15 -1.2260791e-14 -1.7828199e-14
-1.4918144e-15 -9.973653e-15 -6.345063e-14 2.12138e-12 -3.8291866e-13 -1.7309687e-13 -5.188795e-13 -1.3781404e-12
-2.1012867e-13 6.9184532e-12 4.402202e-14 -4.0405955e-12 1.3375869e-12 1.2618975e-13 1.9816386e-12 -1.7933189e-12
5.547316e-13 1.2828042e-14 1.7977407e-10 1.1954471e-11 4.8760475e-13 -3.4160408e-13 -5.579652e-14 -2.9656653e-14
-2.9113812e-11 -3.3081032e-10 -3.538743e-14 1.0620635e-14 -2.0485724e-13 -3.956042e-12 -2.6256677e-13 -1.2425161e-12
-1.067136e-12 2.0577766e-09 -2.0267971e-13 2.7214322e-12 -3.0117842e-11 5.4357435e-13 4.1105487e-12 2.5028662e-12
-8.6095985e-13 8.586304e-15 1.0804095e-11 1.3389806e-11 2.958534e-14 -1.3910119e-15 1.3308109e-11 -2.2388646e-13
-1.5866868e-10 7.457694e-13 4.4866827e-14 -9.470049e-11 -1.8039552e-13 2.984403e-14 -4.905149e-15 2.4820636e-12
3.574851e-11 1.9836967e-10 7.4845494e-12 3.932347e-13 4.5711636e-11 1.2634405e-11 -8.6810577e-13 3.0351787e-13
-7.8689066e-10 -1.3738555e-11 -5.3518144e-13 2.0040858e-11 2.8402506e-11 -1.4315944e-11 2.4594005e-12 -1.581751e-12
2.068213e-12 4.2419215e-12 -1.6553096e-13 3.2063008e-13 -7.661999e-13 -2.4250423e-13 -1.4843251e-13 -3.937606e-14
1.8439557e-14 5.9150615e-14 8.515769e-14 -1.4249869e-14 1.7850205e-14 1.6244375e-13 -1.8408743e-14 5.319181e-13
-9.9361005e-15 -1.1871136e-13 7.933229e-14 -3.792735e-14 -9.049838e-15 1.2041304e-11 -8.356864e-13 -3.2228056e-13
-7.657041e-14 1.1191864e-14 1.2207839e-13 7.493299e-13 -8.996249e-12 1.5353636e-14 -2.1049946e-15 -2.8982815e-14
5.002059e-14 -2.3908276e-14 9.757254e-14 9.306209e-14 2.2281515e-11 -5.4940288e-14 7.89293e-14 2.1476345e-12
-3.0345164e-12 2.6042642e-13 -8.462196e-13 5.856197e-14 1.1603591e-14 -9.8712115e-14 -4.709698e-13 -3.4202587e-15
-1.7533433e-15 -4.1276644e-14 2.749735e-14 -2.3441609e-12 -6.5126485e-13 1.0703257e-14 -5.7210595e-12 -1.6994e-14
-1.9008692e-15 -4.4895444e-15 -2.4745242e-13 -1.3353632e-12 7.7340483e-13 -1.2888845e-12 -2.3486104e-14 2.6314038e-12
-3.8357243e-12 1.0470979e-13 2.1225412e-14 -4.5088607e-12 2.313096e-13 3.818148e-14 -5.39761e-13 1.4927518e-12
2.2405125e-12 1.5265744e-13 7.284567e-13 -1.251538e-13 -5.961857e-14 2.8662803e-13 -6.375644e-15 5.3504567e-14
1.6206349e-12 -8.821737e-15 2.31681e-15 3.9529855e-15 1.4850537e-15 2.4486227e-15 -1.7509333e-15 6.330864e-15
-3.3350974e-15 1.053872e-14 -6.7140198e-15 1.6994842e-15 -3.648643e-15 -4.028155e-15 -8.3959875e-16 2.903211e-15
-1.4314999e-13 -2.9104503e-14 -6.344575e-16 -1.5474835e-15 6.097627e-17 -5.1421507e-15 -6.849146e-14 1.756457e-13
-7.28302e-17 1.04018e-17 1.2556104e-15 5.828741e-15 -6.916055e-16 7.24692e-16 -1.1022578e-14 -2.6421384e-15
00000000: bb8b 24a7 3f34 1327 7528 0aa9 2b9c 4ea6
00000010: 352b aa27 289b 3427 18bd b1aa 6c8b 53a9
00000020: 608d 2028 58a5 45a9 e577 f925 771f 4a27
00000030: cbd0 04a9 9eea 6fa6 147d c526 3bcf b4ac
00000040: 4826 a3ab cac9 d627 2c47 ba28 c49e 0fa7
00000050: 12fb 5227 3c02 15ab b680 662b 048a e7a6
00000060: 32fc a025 b7e3 bd27 805b c5a9 0ff3 70a4
00000070: 2963 1528 bd8f 5fa8 e7df 2cad 836e 9928
00000080: 345f 41a9 a8ab c0aa 068e 9229 3e82 e828
00000090: 1764 1c2a b219 b8a8 9a08 c5a6 e0c1 3429
000000a0: e14c 772b 5eb1 e324 18ed be26 6185 602a
000000b0: 5999 99a5 8468 ceab f24c 1129 a193 c3a6
000000c0: e5ff 46ab 02f2 84a7 29e0 eb25 c188 4d24
000000d0: c249 79a8 e580 cbab 81c5 66ab f3b4 64a9
000000e0: 0916 7628 1ab7 4a2b e0ee 63ab 5d85 0ca8
000000f0: 2d10 4fa8 c47a c52c 6407 1c2a 76e4 a6a5
00000100: 4907 c7aa 7d0c d1aa 2c59 35aa 12d7 50aa
00000110: 5e68 2f29 e84e 1fa8 ebde 5ca8 0795 a0a8
00000120: 3dfe d6a6 5bab 33a8 cce0 8ea9 6247 152c
00000130: 6590 d7aa c7e3 42aa 350d 12ab bef4 c1ab
00000140: 7795 6caa e36b f32c ef41 4629 732a 8eac
00000150: a63f bc2b b813 0e2a 0772 0b2c 1f63 fcab
00000160: a024 1c2b e716 6728 e7a9 452f 274e 522d
00000170: a03f 092b 564e c0aa 0249 7ba9 cb8f 05a9
00000180: 3d0b 00ae 6add b5af ee5e 1fa9 0953 3f28
00000190: 14a6 66aa dc30 8bac dccf 93aa 5cde aeab
000001a0: a02f 96ab ca68 0d31 7332 64aa f780 3f2c
000001b0: ad75 04ae a900 192b 88a0 902c a11f 302c
000001c0: b256 72ab 57ad 1a28 5111 3e2d 538e 6b2d
000001d0: 933d 0529 4877 c8a6 651e 6a2d e112 7caa
000001e0: 4375 2eaf 59ea 512b ee0f 4a29 a33f d0ae
000001f0: 781b 4baa d367 0629 04ba b0a7 e2a8 2e2c
00000200: 3e39 1d2e 191c 5a2f 6aab 032d 185f dd2a
00000210: ba0a 492e 4d44 5e2d 9d59 74ab 89dd aa2a
00000220: 824c 58b0 f4b0 71ad e3a3 16ab 0048 b02d
00000230: c2d4 f92d 48d9 7bad 9f10 2d2c 969c deab
00000240: 9d89 112c d53f 952c 0d5f 3aaa aa7f b42a
00000250: 85aa 57ab 8b84 88aa c21e 27aa 8255 31a9
00000260: b916 a628 0232 8529 11c2 bf29 f659 80a8
00000270: c5c7 a028 39e5 362a accf a5a8 bdb8 152b
00000280: 2dfe 32a8 38a8 05aa f4a3 b229 42cf 2aa9
00000290: 0307 23a8 36d5 532d 8d39 6bab 866d b5aa
000002a0: d66b aca9 5d9d 4928 b372 092a e9ea 522b
000002b0: 8143 1ead 134b 8a28 4cae 17a7 e986 02a9
000002c0: d045 6129 bb58 d7a8 bdb6 db29 a48e d129
000002d0: 83fd c32d d76d 77a9 a5bb b129 5820 172c
000002e0: fd88 55ac 679b 922a 8c30 6eab adde 8329
000002f0: 1e08 5128 a947 dea9 f390 04ab a374 76a7
00000300: f3ae fca6 bbe4 39a9 93ac f728 a6f4 24ac
00000310: 9450 37ab 10d0 4028 b94a c9ac 7f11 99a8
00000320: d9f8 08a7 bdc0 a1a7 a74d 8baa 88ef bbab
00000330: b1b1 592b f564 b5ab 458b d3a8 282b 392c
00000340: 22f5 86ac 16c9 eb29 782e bf28 35a4 9eac
00000350: 3a37 822a 40f4 2b29 e1ed 17ab 0d16 d22b
00000360: 7ca9 1d2c 83e0 2b2a d60a 4d2b 20e9 0caa
00000370: c43f 86a9 745b a12a f0b4 e5a7 91f6 7029
00000380: 8715 e42b 15eb 1ea8 9af1 2627 db6b 8e27
00000390: d004 d626 1e71 3027 0956 fca6 ea17 e427
000003a0: b051 70a7 45d9 3d28 e7e5 f1a7 e6eb f426
000003b0: cb74 83a7 2c21 91a7 74ff 71a6 ca32 5127
000003c0: 2d2c 21aa 3513 03a9 b3de 36a6 1004 dfa6
000003d0: 099a 8c24 f843 b9a7 a33a 9aa9 6dc2 452a
000003e0: 5def a7a4 1de1 3f23 d9f3 b426 a600 d227
000003f0: 7b57 47a6 d5e0 5026 ab90 46a8 da62 3ea7

layer3.bias f4 [75]
-2.484112e-12 -6.4552454e-11 -3.0058605e-12 -2.0914817e-14 -1.01763914e-13 3.4285054e-14 -2.5915776e-11 -9.229248e-12
1.6246158e-13 -3.277998e-13 7.502761e-12 -7.240462e-14 5.2439436e-10 -9.9001994e-11 -3.114013e-12 -2.7055667e-11
-1.1567123e-12 1.9294542e-12 -3.234802e-12 1.252968e-12 -3.4445446e-12 -1.2196079e-10 3.2909897e-11 -2.6187455e-14
-2.4308537e-12 -1.4983748e-12 4.701131e-13 -1.4483093e-11 1.06203376e-13 -1.8270748e-14 -8.315548e-12 4.0322517e-13
-9.754478e-12 -4.077064e-12 -4.435346e-12 -1.4738936e-13 -1.6580223e-13 -3.3602444e-14 5.2899677e-12 -1.441133e-12
1.7446776e-12 -3.3433103e-13 -2.2001938e-12 -1.1306523e-11 2.6226867e-14 -5.529104e-15 -6.742423e-12 8.927593e-13
-1.1694039e-12 -2.1784602e-10 -2.7441393e-13 5.554165e-12 -2.7516309e-11 1.4671743e-11 -9.680338e-13 2.3873852e-12
-2.3221117e-10 2.2905033e-14 7.512089e-12 -7.519279e-13 -3.5223617e-13 -5.050925e-11 -4.509639e-12 -1.0709352e-14
-2.5479412e-14 -1.898693e-14 4.9556357e-12 -6.223535e-12 1.857068e-14 -2.9646463e-12 -1.1651478e-12 7.457846e-15
1.1254321e-11 -7.361056e-13 -1.0686559e-12
00000000: c9cd 2eac cdf3 8dae c584 53ac 4962 bca8
00000010: e726 e5a9 fa67 1a29 24f5 e3ad d65c 22ad
00000020: 5dea 362a ee88 b8aa 6ffd 032d 6c0a a3a9
00000030: f924 1030 2bb5 d9ae 1221 5bac f2fb edad
00000040: f4ca a2ab f5c5 072c 03a1 63ac ee56 b02b
00000050: 6663 72ac e918 06af 40bd 102e 29e0 eba8
00000060: 5e0e 2bac a4e0 d2ab 3853 042b 0dca 7ead
00000070: 1426 ef29 7a91 a4a8 e649 12ad dffe e22a
00000080: 439a 2bad ee72 8fac 0c0e 9cac 17f2 25aa
00000090: 3dad 3aaa fb54 17a9 cb1f ba2c 4ad2 caab
000000a0: a38a f52b 2e36 bcaa 2bd3 1aac 0ee8 46ad
000000b0: 0a3b ec28 fc34 c7a7 593a edac 164a 7b2b
000000c0: 3794 a4ab 3486 6faf 377b 9aaa 796b c32c
000000d0: 3809 f2ad d40d 812d 183d 88ab 4fff 272c
000000e0: a251 7faf 694f ce28 7127 042d 1ea6 53ab
000000f0: 954a c6aa 5c24 5eae 38ab 9eac 2bec 40a8
00000100: 867f e5a8 e104 aba8 665c ae2c 9ff8 daac
00000110: 1345 a728 529e 50ac e0fa a3ab 3e59 0628
00000120: f5fc 452d 0032 4fab 6366 96ab

layer4.weight f4 [75, 75]
6.362198e-13 -3.626883e-11 7.622447e-13 -1.4254397e-14 1.8163287e-13 1.1501553e-14 -7.0350696e-12 1.2497845e-12
-1.918039e-12 1.4974407e-13 -4.156088e-12 2.449315e-14 -9.533562e-12 2.2475993e-11 -1.3733458e-12 -5.3724104e-12
5.672109e-14 -1.4849919e-13 -1.0024161e-12 -2.957302e-13 -1.247657e-13 2.390734e-11 -3.793282e-12 -7.324441e-15
2.5790856e-12 -9.486497e-15 -1.1138684e-12 -4.459824e-12 9.852696e-14 3.0798304e-14 5.876608e-14 3.784808e-13
5.101998e-12 4.8605174e-12 -2.1246938e-13 1.4945404e-13 9.264959e-13 -4.1254564e-14 1.7466433e-11 -2.1424457e-13
-8.513657e-13 -1.0072013e-13 -2.536981e-14 5.0134875e-12 1.116172e-14 1.648209e-14 5.4171603e-13 1.5040334e-13
-1.13270165e-13 -4.3361885e-12 5.515241e-13 1.2034042e-12 1.7713856e-12 1.3526054e-12 -1.3394029e-13 -4.1277875e-12
-9.642054e-12 -3.4896084e-14 -1.2592145e-12 6.77759e-13 4.5051796e-13 -1.6630735e-11 -1.5780397e-14 2.645086e-14
5.047091e-15 -4.644896e-14 -6.132981e-13 -2.4950452e-12 -3.1892268e-14 3.391295e-13 -1.8314172e-12 9.241082e-15
-1.6323091e-12 3.2738955e-14 2.3919275e-13 2.1819786e-14 -3.0600977e-13 2.0421776e-14 4.469538e-16 -7.424641e-15
2.8972902e-16 1.2784366e-15 5.3800483e-14 2.4400278e-14 2.839132e-15 2.7368295e-15 6.589346e-16 -6.7834044e-14
2.9068488e-13 -9.663494e-15 5.9309776e-14 4.415289e-15 3.8306194e-14 -2.7860904e-15 -1.8149057e-15 8.269665e-15
1.3132324e-13 7.4353995e-14 8.4897334e-16 -1.3280134e-14 -1.7199204e-15 3.0374554e-14 -2.0755803e-15 -2.5928682e-15
-5.95657e-16 1.5377095e-14 -5.3643205e-16 5.4492482e-14 4.862758e-14 -4.15461e-15 5.7366806e-15 -4.922823e-15
1.5825304e-15 3.4343625e-14 6.059697e-16 3.7546993e-15 -1.3548627e-15 4.1757704e-15 5.817774e-14 -6.3392803e-16
-4.6919468e-17 9.249875e-15 -6.624569e-16 2.143077e-15 5.0348167e-14 -1.578902e-15 3.0973955e-14 -2.7778852e-14
3.6114856e-14 -1.7920638e-15 -1.67702e-14 9.354726e-14 1.2961141e-16 -2.7142407e-14 7.166629e-15 -7.995586e-15
1.6067521e-13 -9.748168e-15 1.7989327e-17 -1.3339925e-16 -1.5634096e-16 -4.1901183e-15 1.8572084e-16 -6.5743733e-16
1.959705e-15 2.4687206e-14 1.0659936e-15 8.942578e-15 2.244473e-15 -1.8310318e-15 6.912796e-16 2.0336983e-13
2.5243872e-13 3.959287e-15 2.5749664e-14 3.9699054e-15 -2.994706e-13 2.5037957e-14 -8.923571e-14 1.610091e-15
-7.83196e-14 -3.7521598e-14 6.142785e-13 3.90917e-13 -2.6256937e-14 -5.5296896e-14 -2.1850111e-14 6.69595e-14
-4.7846096e-14 -2.244713e-14 1.8110157e-15 5.4590532e-15 -3.0340602e-15 -8.0664536e-17 -2.4551306e-14 5.6481123e-15
-1.3546572e-13 1.1701074e-13 -9.128644e-15 1.0877695e-14 3.2288032e-14 9.970996e-16 2.5695048e-14 5.6241836e-14
-4.7069133e-14 -2.941999e-13 8.0519115e-14 4.2628177e-14 3.6663207e-13 -6.1876036e-15 -6.069532e-14 -2.1673199e-16
1.5082325e-14 8.706308e-14 5.0836063e-15 1.1982377e-15 -2.5107334e-14 -7.070754e-14 -3.4517294e-14 -2.1840272e-13
-6.4661983e-15 4.462106e-14 -2.9671312e-13 -1.3693247e-13 -5.68064e-15 -8.46897e-14 1.4134757e-14 2.2400295e-14
-5.9243577e-13 5.4435043e-14 6.0458095e-14 -2.201821e-14 3.7578867e-14 4.1274825e-16 8.894526e-15 -8.1850996e-14
1.7421311e-14 6.960361e-14 8.894732e-15 1.078866e-14 1.05379586e-13 -6.9236986e-15 2.7573863e-14 -1.11609906e-13
1.1893489e-13 -4.82932e-13 -4.918904e-11 -2.5852048e-12 -1.7211523e-14 7.334245e-13 3.96701e-14 7.1607694e-12
3.429627e-12 3.564196e-13 6.623459e-14 6.351124e-12 -8.539977e-14 1.3196742e-12 -4.8822016e-11 2.0159295e-12
-1.4727588e-12 -1.5180588e-13 -5.160031e-13 1.5602991e-12 3.0798356e-13 1.9819286e-15 9.780283e-12 -1.4121197e-12
-9.321962e-15 7.821167e-13 1.4925608e-13 -6.537537e-13 1.1692652e-12 3.0576554e-14 5.172924e-14 -6.804386e-13
00000000: 7814 332b 1383 1fae 858d 562b 6764 80a8
00000010: 1c80 4c2a 8d31 4f28 4686 f7ac 3be4 af2b
00000020: 52f8 06ac ca98 282a b63a 92ac 5c9d dc28
00000030: 59b7 27ad 70b3 c52d ff47 c1ab 5f06 bdac
00000040: f772 7f29 fa31 27aa d913 8dab 377b a6aa
00000050: 4479 0caa 8b4a d22d d976 85ac 06f2 03a8
00000060: ad7c 352c bfe4 2aa8 57c3 9cab 86ea 9cac
00000070: eddc dd29 07b4 0a29 5754 8429 d510 d52a
00000080: b682 b32c a603 ab2c 2138 6faa 3245 282a
00000090: 8864 822b 46cb 39a9 e9a2 992d cb37 71aa
000000a0: 5da3 6fab 34cd e2a9 cd82 e4a8 7b65 b02c
000000b0: 5912 4928 1d75 9428 c17a 182b d056 292a
000000c0: ce0f ffa9 ea90 98ac 803d 1b2b 355d a92b
000000d0: e44c f92b bf5c be2b a9cd 16aa ce3b 91ac
000000e0: f39f 29ad 7228 1da9 fc37 b1ab afc5 3e2b
000000f0: 7b9e fd2a 1649 92ad 1e23 8ea8 883f ee28
00000100: 33d7 b527 0130 51a9 c9a0 2cab bd92 2fac
00000110: 48a1 0fa9 b6e9 be2a e1df 00ac f878 2628
00000120: 22ba e5ab 7271 1329 4fa7 862a 0089 c428
00000130: a844 acaa 69f1 b728 5fd3 0026 1dc0 05a8
00000140: 7504 a725 fc3d b826 bc4b 7229 36c7 db28
00000150: be94 4c27 9835 4527 cbec 3d26 aabf 98a9
00000160: 1ba4 a32a 0015 2ea8 c28d 8529 da13 9f27
00000170: 0984 2c29 4cc2 48a7 1ac7 02a7 19f9 1428
00000180: 59db 132a 296e a729 2db3 7426 cf3b 6fa8
00000190: dddd f7a6 7acb 0829 b38f 15a7 fad5 3aa7
000001a0: bbaf 2ba6 2b81 8a28 b39d 1aa6 8e69 7529
000001b0: c8ff 5a29 84af 95a7 8aaf ce27 075d b1a7
000001c0: 1111 e426 81ab 1a29 aca8 2e26 fd46 8727
000001d0: 9c41 c3a6 af72 9627 2f01 8329 a2b7 36a6
000001e0: bb60 58a4 85a1 2628 b1f0 3ea6 cb6c 1a27
000001f0: 7cbf 6229 348b e3a6 8a7e 0b29 ac35 faa8
00000200: 98a5 2229 be21 01a7 730d 97a8 53a6 d229
00000210: 896e 1525 217a f4a8 3e1a 0128 2209 10a8
00000220: 7ae7 342a 7d9b 2fa8 19ec a523 82cc 19a5
00000230: b53f 34a5 05f7 96a7 1e1f 5625 507e 3da6
00000240: 2d36 0d27 d25c de28 39a0 9926 5d18 2128
00000250: 38bb 2127 93f0 03a7 6e3f 4726 5df9 642a
00000260: 411c 8e2a faa5 8e27 afee e728 ea07 8f27
00000270: 4396 a8aa 9985 e128 e2f0 c8a9 e009 e826
00000280: 2d5c b0a9 75fb 28a9 6ee7 2c2b 1411 dc2a
00000290: 6080 eca8 fb08 79a9 edce c4a8 86c7 9629
000002a0: cb7a 57a9 8f2f caa8 587f 0227 e1ae c427
000002b0: 88a0 5aa7 f0ff b9a4 7523 dda8 a47e cb27
000002c0: 5685 18aa 0dbe 032a 7172 24a8 84f4 4328
000002d0: 9169 1129 7bb2 8f26 bf70 e728 6c4a 7d29
000002e0: 04fb 53a9 ad9e a5aa 1c50 b529 f1fa 3f29
000002f0: 4065 ce2a 92ee dea7 78ac 88a9 fedf 79a5
00000300: 79d9 8728 730c c429 fe27 b727 2baf ac26
00000310: 9225 e2a8 1f38 9fa9 bb73 1ba9 4ce6 75aa
00000320: 27f8 e8a7 94f4 4829 de08 a7aa 192c 1aaa
00000330: a8aa cca7 4ab4 bea9 10a1 7e28 90c3 c928
00000340: 7fc1 26ab 5527 7529 b823 8829 8952 c6a8
00000350: 7c3d 2929 e4ee ed25 c33a 2028 e34f b8a9
00000360: cfea 9c28 c0bb 9c29 b63b 2028 ea59 4228
00000370: 324b ed29 d973 f9a7 005d f828 bb52 fba9
00000380: a6e8 052a ebee 07ab f055 58ae e9ea 35ac
00000390: 1207 9ba8 ce70 4e2b 83a8 3229 7af2 fb2c
000003a0: ab56 712c 7aa5 c82a a425 9529 d775 df2c
000003b0: 9e4d c0a9 46ba b92b b4b8 56ae c2db 0d2c
000003c0: ba45 cfab 11eb 2aaa f13d 11ab b397 db2b
000003d0: 1c61 ad2a 21d0 0e27 7b0e 2c2d f9bc c6ab
000003e0: f6ed 27a8 7325 5c2b 230c 282a eb03 38ab
000003f0: 388f a42b 5eb4 0929 c1f7 6829 c586 3fab

layer4.bias f4 [75]
6.613049e-12 -8.7775714e-14 2.8239118e-14 3.7198897e-11 -1.1164296e-13 7.757225e-11 -4.279916e-12 -1.0013374e-10
1.2405046e-10 7.656789e-13 -9.4641736e-14 2.9803365e-15 -5.6509446e-12 -1.3421106e-11 -9.329467e-12 5.377498e-12
4.3523428e-11 -2.4617248e-12 7.6168525e-12 2.281238e-12 -1.74543e-10 -1.2931047e-11 -4.1740483e-12 3.34107e-11
5.645702e-12 5.265479e-12 -6.451307e-12 -1.9436967e-12 1.7154536e-11 9.829231e-09 9.97891e-13 -8.543932e-13
5.7036255e-13 -2.9492755e-13 -1.7328895e-10 1.0571667e-09 -1.5615563e-12 -6.886144e-12 9.1356196e-14 -2.6976753e-13
8.7210517e-10 -2.102171e-12 -8.599065e-10 -5.203629e-11 7.574054e-12 -1.8881672e-11 -6.861512e-14 5.7536797e-12
3.0263025e-11 -3.19148e-13 -1.7307903e-11 -2.7639406e-11 -2.5250933e-11 4.4083744e-11 -5.462979e-12 -5.662803e-12
-5.4014046e-12 1.1217215e-11 -6.2304854e-13 2.1770938e-12 -8.928067e-12 3.2709765e-11 -3.328552e-12 -2.7151129e-12
1.3185167e-13 5.160359e-14 8.3207063e-13 -2.79034e-12 -1.4212646e-11 1.24830545e-11 4.3514892e-12 -2.905665e-12
-3.6691743e-11 -2.244943e-09 -1.0689455e-10
00000000: 0dad e82c 41a7 c5a9 f95a fe28 3c9a 232e
00000010: c965 fba9 4b95 aa2e 0e96 96ac 4932 dcae
00000020: 1a65 082f fb84 572b 3f1d d5a9 81c1 5627
00000030: 2fd3 c6ac 4a1b 6cad 2f20 24ad 3234 bd2c
00000040: 066b 3f2e 7e3a 2dac 41ff 052d 2187 202c
00000050: 7de9 3faf 427c 63ad 7cdc 92ac 1bf1 122e
00000060: f6a3 c62c 3843 b92c 35fc e2ac 87c6 08ac
00000070: 95e4 962d 6add 2832 d070 8c2b 857d 70ab
00000080: f48a 202b 8a07 a6aa 8188 3eaf bf4b 9130
00000090: ffc4 dbab df48 f2ac 43b7 cd29 99dd 97aa
000000a0: f2b8 6f30 59ed 13ac 8a5e 6cb0 a7db 64ae
000000b0: 823e 052d bf15 a6ad ec81 9aa9 8a70 ca2c
000000c0: 2319 052e 13aa b3aa ef3d 98ad 691e f3ad
000000d0: 0c1c dead e2e1 412e 2436 c0ac ff3d c7ac
000000e0: 870b beac d855 452d 615f 2fab 0933 192c
000000f0: 7010 1dad ecdb 0f2e dd39 6aac 200f 3fac
00000100: a873 142a e366 6829 0235 6a2b 4c5a 44ac
00000110: 1108 7aad ae9a 5b2d bb1a 992c cf77 4cac
00000120: 3b5f 21ae 7445 1ab1 4810 ebae

layer5.weight f4 [75, 75]
-3.3037195e-11 6.169607e-13 8.5075156e-14 2.5041212e-11 9.436331e-13 -3.2712694e-11 -5.373141e-12 1.2790202e-10
-8.260037e-12 -3.1350597e-12 2.165283e-12 -1.2522056e-12 2.524624e-12 9.792681e-12 -2.9229612e-11 -9.353045e-12
-1.4106262e-11 2.9388094e-12 -8.655963e-12 -1.4816616e-12 -1.1661949e-11 -1.5995958e-11 -3.2985776e-12 -5.8347147e-12
-4.092683e-12 2.4121406e-11 -1.5914678e-12 2.875245e-13 1.2872695e-11 4.0877298e-11 -4.617705e-11 -8.019857e-12
6.3764304e-13 7.132305e-13 4.9174064e-11 -2.1434762e-10 9.935699e-13 1.5560615e-11 5.4464864e-13 6.4734947e-13
9.219035e-11 -2.2028797e-11 3.8282408e-10 -1.4258146e-10 6.9782682e-12 -3.248475e-11 -1.4201103e-12 -2.3599267e-12
1.2507639e-11 1.7777524e-12 1.294168e-12 -4.8520914e-12 -1.9867163e-11 -1.3317451e-11 -3.857005e-11 2.755022e-11
6.070077e-11 -8.332626e-12 2.2729893e-12 -2.3074522e-13 1.780229e-11 1.1060692e-10 1.09386744e-11 -1.902883e-11
-3.1180137e-13 6.1185167e-12 9.00436e-15 -9.699046e-12 -1.37255355e-11 2.267197e-12 -4.7074527e-12 8.563078e-12
2.7307193e-10 1.3629636e-10 -1.9029434e-10 -1.2929654e-15 -2.9439216e-17 1.756545e-16 1.3323437e-16 -5.6699386e-17
-1.7405608e-15 -2.4052869e-17 5.910757e-16 -1.5468105e-17 6.6272715e-16 -3.2571816e-16 -4.932918e-17 1.2752626e-15
1.3555895e-16 2.3610572e-16 6.529528e-16 -3.043247e-16 -4.267052e-18 -2.9595331e-15 7.115499e-16 1.3567329e-16
-4.3970198e-16 -2.5603654e-16 -9.348401e-17 1.804417e-17 1.840796e-15 3.322152e-18 1.3213739e-15 3.4312182e-16
-2.4078958e-16 4.744885e-16 -7.6801817e-16 3.4429266e-16 9.624121e-17 3.1790728e-15 5.5854247e-16 -3.3166435e-17
-2.416378e-16 -4.2792626e-16 -1.507128e-17 5.696475e-15 -1.1493358e-16 -8.6697353e-16 -5.7333257e-16 -3.3889595e-16
-2.1506464e-16 -3.3994434e-16 -9.2523586e-17 9.800401e-16 -1.2200779e-16 -4.6442433e-17 -2.8066558e-16 -7.4951516e-16
1.1717815e-16 1.0753168e-15 6.231639e-16 7.048749e-16 1.7091262e-17 -1.4441928e-16 2.935346e-17 -9.457811e-16
7.8512394e-16 1.2651779e-16 1.2637567e-16 -1.30337e-16 1.5125813e-16 1.3465616e-16 4.292503e-16 1.3062599e-16
-9.454526e-17 -3.2005585e-16 -5.3934153e-18 1.5822213e-15 3.1974283e-15 6.3618276e-17 4.390651e-15 -1.3384474e-16
8.7688646e-16 -2.0741632e-16 -9.090168e-16 -9.98986e-16 8.7277613e-16 -1.1139539e-14 2.2708522e-16 5.995157e-17
-3.6675875e-16 -6.248247e-17 -2.8824194e-15 -2.2257317e-15 2.0256359e-15 3.445426e-15 -1.2240157e-15 2.3654666e-16
9.548815e-16 1.8900591e-16 1.4776457e-15 -1.5042594e-15 2.8941236e-16 2.8641614e-16 -7.4843863e-16 -3.2925962e-15
2.392057e-16 -3.6686003e-16 -3.4634699e-15 -3.7467573e-16 -8.012076e-16 1.9667425e-15 -4.885619e-16 -1.1917132e-16
-1.9017716e-14 -2.1397394e-14 1.591814e-16 -1.7059966e-15 4.3429592e-16 -8.087853e-17 -2.0102757e-14 2.2710613e-16
2.171665e-16 -3.7965203e-15 2.167173e-16 -4.980311e-16 1.4060253e-16 3.288272e-16 8.307239e-16 2.1921598e-16
-7.483553e-17 2.0213291e-15 2.199234e-15 -9.827902e-16 -2.0821622e-15 9.745868e-16 -5.319731e-15 1.0211682e-16
-3.855914e-16 1.0202394e-16 -3.953054e-16 -5.0646264e-15 5.515751e-17 8.429273e-16 8.5533036e-17 7.257528e-17
-1.8876921e-16 1.9374562e-15 4.3689703e-16 3.5389556e-17 4.896498e-16 -4.4399109e-16 1.9734894e-16 6.5712393e-15
1.2590964e-14 -3.5575758e-13 5.0417027e-15 1.4804398e-14 1.10105494e-13 1.28351324e-17 -2.737576e-13 -5.37066e-14
7.0605224e-13 -8.6579125e-15 -1.5686591e-14 2.6824315e-14 -1.9573832e-14 3.4444827e-13 1.6937406e-13 -5.032769e-13
-8.8868366e-14 -3.485949e-13 2.7638528e-14 -1.4373032e-13 -5.2082447e-14 -2.0737421e-13 -2.2642794e-13 -7.33829e-14
-9.7741104e-14 -1.0375415e-13 6.0781073e-13 1.6273472e-13 9.795234e-14 2.5022817e-13 -7.497082e-14 1.4784282e-13
00000000: 934c 11ae b4a8 2d2b 7d92 bf29 cc43 dc2d
00000010: f7cd 842b 38df 0fae f40c bdac 38a1 0c2f
00000020: e64f 11ad 379c 5cac 455e 182c 763b b0ab
00000030: 95a7 312c 5146 2c2d 9e8d 00ae 5f8a 24ad
00000040: f528 78ad e2cc 4e2c fe46 18ad 7c86 d0ab
00000050: c028 4dad b2b3 8cad e41d 68ac 704a cdac
00000060: 9cff 8fac 942c d42d acfa dfab a6dc a12a
00000070: 7775 622d bfc7 332e bc16 4bae 3a16 0dad
00000080: 067b 332b acc1 482b 1345 582e 7ead 6baf
00000090: 21d5 8b2b 64df 882d 124e 192b 7236 362b
000000a0: 8eba ca2e 71c4 c1ad b375 d22f 1dc5 1caf
000000b0: a786 f52c 94de 0eae dedc c7ab a910 26ac
000000c0: 6609 5c2d 4832 fa2b 5123 b62b c1b7 aaac
000000d0: e0c0 aead 7848 6aad 04a2 29ae 9555 f22d
000000e0: 7f7b 852e d096 12ad 89f2 1f2c e4e5 81aa
000000f0: 3197 9c2d 293a f32e 696f 402d 1e61 a7ad
00000100: 5087 afaa b346 d72c 4835 2228 9fa0 2aad
00000110: 5176 71ad 318a 1f2c f7a0 a5ac ada4 162d
00000120: 751f 962f 04dc 152f 183b 51af 0156 baa6
00000130: b1c3 07a4 0f84 4a25 d89b 1925 69bd 82a4
00000140: 5cd7 faa6 3bd9 dda3 b05d 2a26 08ab 8ea3
00000150: a204 3f26 84c3 bba5 9e7d 63a4 e3c8 b726
00000160: f149 1c25 0e1b 8825 6a33 3c26 666e afa5
00000170: 2b6d 9da2 c041 55a7 1e17 4d26 b06b 1c25
00000180: 8f78 fda5 5398 93a5 388f d7a4 986d a623
00000190: b1a4 0427 ad21 7522 186e be26 d8cb c525
000001a0: 45ce 8aa5 12c3 0826 bd5d 5da6 a178 c625
000001b0: c8ea dd24 8b13 6527 29fd 2026 04f4 18a4
000001c0: 724b 8ba5 c5ae f6a5 0e02 8ba3 b53c cd27
000001d0: 6882 04a5 5be3 79a6 7a40 25a6 375c c3a5
000001e0: e1f3 77a5 eef6 c3a5 4958 d5a4 193d 8d26
000001f0: 58aa 0ca5 8c2d 56a4 eeca a1a5 7508 58a6
00000200: e318 0725 30f8 9a26 619d 3326 962a 4b26
00000210: 9aa3 9d23 0c81 26a5 735e 0724 2a4d 88a6
00000220: ec4b 6226 76dd 1125 84b3 1125 b144 16a5
00000230: 8563 2e25 7c3f 1b25 2a72 f725 fd99 1625
00000240: ac01 daa4 e87f b8a5 5efb c6a2 aa05 e426
00000250: 2466 6627 9ab1 9224 9c30 9e27 ff4f 1aa5
00000260: cdbe 7c26 7e22 6fa5 cd00 83a6 14f8 8fa6
00000270: 838f 7b26 0eac 48a8 dde7 8225 293d 8a24
00000280: 0a6c d3a5 2413 90a4 41b3 4fa7 8161 20a7
00000290: 63f6 1127 e444 7827 3566 b0a6 205c 8825
000002a0: e99c 8926 b3e8 5925 81f3 d426 60c9 d8a6
000002b0: bad5 a625 901b a525 06b9 57a6 ae41 6da7
000002c0: 88e4 8925 fc7a d3a5 be91 79a7 61fc d7a5
000002d0: b0ee 66a6 ffb7 0d27 81d1 0ca6 2a65 09a5
000002e0: de4b aba8 08bb c0a8 0f86 3725 2adc f5a6
000002f0: c45a fa25 427e baa4 cd11 b5a8 f3ea 8225
00000300: 3d60 7a25 b8c8 88a7 a8db 7925 358c 0fa6
00000310: 8b1a 2225 548e bd25 9b70 6f26 23bd 7c25
00000320: 1a8f aca4 f1a6 1127 b578 1e27 8fa2 8da6
00000330: 1d09 16a7 e873 8c26 dca9 bfa7 2277 eb24
00000340: 3f47 dea5 4e40 eb24 c8e0 e3a5 ef78 b6a7
00000350: 7e5e 7e24 0ff5 7226 cb39 c524 e258 a724
00000360: d6a2 59a5 c29b 0b27 9fda fb25 9d34 2324
00000370: c721 0d26 85f1 ffa5 2087 6325 fcc0 ec27
00000380: 93d1 6228 1246 c8aa 80a5 b527 9e58 8528
00000390: 7fef f729 33c4 6c23 a11c 9aaa 7edf 71a9
000003a0: 6dbc 462b 93f7 1ba8 d14a 8da8 a99c f128
000003b0: 2f4e b0a8 3ae8 c12a c0b2 3e2a eca8 0dab
000003c0: 201d c8a9 d23d c4aa 1bf2 f828 72d3 21aa
000003d0: f98e 6aa9 8c7b 69aa 69ef 7eaa 5d3e a5a9
000003e0: e917 dca9 32a2 e9a9 6115 2b2b 1739 372a
000003f0: ae91 dc29 aedd 8c2a bcd1 a8a9 cb74 262a

layer5.bias f4 [75]
-5.4228837e-11 -2.5507542e-16 3.2939507e-16 -2.9100558e-13 -5.1288144e-11 -5.4448125e-15 -1.3754471e-11 4.2288864e-13
-9.460367e-16 1.7822266e-11 4.956157e-12 2.415772e-14 -1.6430951e-12 1.3725831e-14 8.905209e-13 7.0541377e-12
3.5380203e-13 -2.0088014e-13 1.7771678e-13 1.5190388e-13 -6.8398537e-10 1.4968936e-10 3.0334035e-14 -2.1450393e-14
-4.369246e-12 7.406478e-14 1.5631553e-12 6.4199935e-15 -1.9743925e-15 8.940903e-14 6.071464e-15 1.6980833e-10
1.654817e-14 1.4816428e-11 1.1241646e-10 1.3865834e-12 -5.397462e-11 -2.6185547e-12 -1.5182891e-12 -1.0559058e-10
2.0199068e-12 -7.519397e-11 -2.1919267e-13 3.1078856e-13 -1.2807504e-10 -1.4966162e-12 2.8820779e-11 -4.949966e-15
4.5139885e-15 -1.6213758e-12 -5.1789586e-17 -6.529298e-14 -1.7106017e-15 -1.2345488e-13 -2.3497002e-10 -1.03389434e-14
9.408522e-13 -5.643642e-14 8.1619695e-14 -2.468047e-13 2.6377555e-15 1.744163e-12 -5.706243e-17 -2.0795213e-14
-7.0279356e-13 -2.2493193e-11 -1.0923975e-15 1.012335e-12 2.080434e-12 3.3649421e-15 -8.052091e-14 -4.9134172e-14
-2.1218362e-11 8.582168e-12 3.005711e-13
00000000: 3e80 6eae 7d0a 93a5 22e2 bd25 53d2 a3aa
00000010: 5191 61ae 882b c4a7 a1f8 71ad ad10 ee2a
00000020: 9856 88a6 2dc4 9c2d 1861 ae2c e997 d928
00000030: bd3e e7ab 3943 7728 cba8 7a2b 0632 f82c
00000040: 3f2c c72a c22b 62aa 6017 482a 5007 2b2a
00000050: 3103 3cb0 cf95 242f c39c 0829 3d35 c1a8
00000060: abba 99ac 70c7 a629 9bfe db2b fd4d e727
00000070: 1d45 0ea7 cc54 c929 5fbf da27 ccb4 3a2f
00000080: 7b0d 9528 a153 822d d734 f72e ef24 c32b
00000090: 0562 6dae b043 38ac 21ae d5ab 3632 e8ae
000000a0: 6823 0e2c 715a a5ae fcc9 76aa 5af5 ae2a
000000b0: ebd1 0caf 48a1 d2ab a082 fd2d 6157 b2a7
000000c0: 32a2 a227 3830 e4ab 5ad6 6ea4 d706 93a9
000000d0: 1086 f6a6 72ff 0aaa 172d 81af f63f 3aa8
000000e0: c669 842b c32a 7ea9 8dca b729 4ef0 8aaa
000000f0: 0012 3e27 1878 f52b b793 83a4 7f4e bba8
00000100: 9dd1 45ab 2bda c5ad 5b6e 9da6 3679 8e2b
00000110: c465 122c 3a78 7227 2551 b5a9 d847 5da9
00000120: 81a3 baad a6fa 162d dc34 a92a
