model_weights_6.pth (torch, 154513 bytes, 37 tensors)

layer1.weight f4 [75, 68]
-0.014218227 0.09243349 0.018136073 0.116766065 0.05369317 -0.07036123 0.028032186 0.11623082
0.06797924 -0.07800553 0.11523516 -0.10720026 -0.026409993 -0.08538519 0.05540946 -0.064976566
-0.08266192 0.041402873 -0.11407837 -0.118757874 0.022064155 -0.047014225 -0.05806474 -0.0806223
0.035382424 0.052094135 -0.028872846 0.08059724 -0.027212357 -0.10919261 -0.08517361 -0.03747511
0.047067523 0.06635319 -0.11515406 0.041313086 0.03882635 0.004577369 -0.009051419 0.10507645
-0.015709491 0.0032992053 -0.08585036 -0.0964938 0.06763777 0.06547883 -0.05722707 -0.07778253
0.02286454 -0.014267205 0.09997244 0.06886969 0.08871202 -0.015864028 -0.052997537 -0.06463074
0.040564828 -0.052587714 -0.06599072 0.04864223 -0.0150244525 -0.04005373 0.06797473 -0.10490822
-0.11776558 -0.07758283 -0.08880084 0.11319175 -11.116362 1.3643545 -0.143615 0.3943382
-0.24792956 0.09459746 -0.02834314 0.04030122 0.07018437 0.06270916 -0.12834603 -0.019324103
0.026578927 0.008319261 0.10979036 -0.12370077 -0.10486306 0.020433439 0.022521822 -0.007877414
0.10611747 0.07113559 -0.06574976 -0.10610274 0.018408705 0.096837185 -0.11282868 0.08209549
0.07822014 0.081305675 0.07725357 0.09842649 -0.016388182 0.021613063 0.0033851985 0.046450004
0.013788958 -0.029846659 0.058967397 0.06891256 -0.045524623 0.049902577 0.10860298 -0.04246377
-0.082308784 0.08997862 -0.09759425 0.009261036 -0.047086682 0.05631065 -0.0476019 0.076893985
0.03318399 0.066981345 -0.09653914 -0.11018451 -0.04208364 -0.037408404 -0.07855892 0.03269452
0.06817822 0.11782521 0.057721693 0.061590865 -0.062279716 0.060426235 -0.008224628 -0.10025491
-0.021555424 0.03902414 -0.02663921 -0.036221348 0.075400196 -0.05948621 -0.08176573 -0.0072329245
-0.088146955 -0.055800747 -0.031104457 -0.025762612 0.042770203 -0.0848304 0.047781806 -0.018191976
-0.048575383 0.10681462 0.011549835 -0.0075633796 0.0044820877 0.06219236 0.04040172 0.012490734
0.018191455 0.1042757 -0.02125167 0.042151894 0.07435533 -0.09965387 -0.010883084 0.07379635
-0.027585458 -0.05055349 0.018612219 0.1005188 -0.028164823 0.0660875 0.11883484 0.04702177
-0.023921639 -0.019352509 -0.045649555 -0.10402839 -0.046290442 -0.026998319 -0.021118065 -0.06402968
-0.029186198 -0.08501822 -0.015093929 -0.11200682 0.07286798 -0.062160805 0.035027493 -0.12097302
-0.038423453 0.041239474 0.06773071 -0.11358255 0.013996165 -0.08885156 0.013913765 0.11893136
0.08894502 0.11510143 -0.07045012 -0.0057822973 12.855633 1.3754565 -4.505578 -0.33561257
4.1540427 -0.7119918 -0.027414434 -0.45023042 -0.12009104 -0.046146493 -1.3590046 -1.3106904
0.018826049 2.36067 -1.0472326 -0.96227694 -0.35991323 -2.0985098 -1.2520697 2.3337204
-1.4860822 -0.32312876 -0.13513583 -0.6106195 -0.67944163 -0.8379435 0.32287696 -0.9842286
-0.8201803 1.1546342 -1.5894662 -1.1590035 -1.589434 -0.28987935 -0.3705372 -0.18046322
-0.2871521 0.35889637 -0.044047244 -0.88014716 -0.44175977 -0.20576015 -1.0517598 0.12244564
0.3943053 -0.0318599 -0.8004158 0.0054623457 -0.010562599 0.33797362 -0.017008564 -0.6038552
00000000: 91f3 68bc c54d bd3d 1a92 943c 0c23 ef3d
00000010: 5fed 5b3d 8c19 90bd c1a3 e53c 6d0a ee3d
00000020: b338 8b3d 5dc1 9fbd 6900 ec3d cf8b dbbd
00000030: c559 d8bc 6ede aebd 08f5 623d 6f12 85bd
00000040: a74a a9bd 0f96 293d eca1 e9bd 5437 f3bd
00000050: e3bf b43c fd91 40bd 4bd5 6dbd 4e1d a5bd
00000060: 29ed 103d a960 553d bf86 ecbc 2a10 a53d
00000070: 73ec debc 60a0 dfbd 806f aebd 807f 19bd
00000080: e0c9 403d 2ee4 873d e4d5 ebbd e937 293d
00000090: 6108 1f3d c1fd 953b 674c 14bc 5232 d73d
000000a0: 31b1 80bc 7b37 583b 50d2 afbd 8b9e c5bd
000000b0: ac85 8a3d c419 863d ef66 6abd 724c 9fbd
000000c0: 6a4e bb3c ffc0 69bc 5abe cc3d 8d0b 8d3d
000000d0: a6ae b53d 47f5 81bc f213 59bd 1f5d 84bd
000000e0: 4e27 263d 3766 57bd 2526 87bd 133d 473d
000000f0: 1f29 76bc 610f 24bd 5636 8b3d 1fda d6bd
00000100: 152f f1bd bfe3 9ebd 37dd b5bd 14d1 e73d
00000110: 9edc 31c1 2ba3 ae3f d00f 13be b2e6 c93e
00000120: 3fe1 7dbe 50bc c13d df2f e8bc e412 253d
00000130: d3bc 8f3d a96d 803d 246d 03be 954d 9ebc
00000140: 0dbc d93c 824d 083c c5d9 e03d d456 fdbd
00000150: 72c2 d6bd 0764 a73c af7f b83c 4510 01bc
00000160: 1e54 d93d 89af 913d cfa7 86bd 654c d9bd
00000170: dacd 963c 9352 c63d b912 e7bd ae21 a83d
00000180: e131 a03d 9783 a63d 1f37 9e3d d493 c93d
00000190: 8240 86bc e10d b13c 35da 5d3b 5c42 3e3d
000001a0: 15eb 613c fb80 f4bc cc87 713d 0722 8d3d
000001b0: 0778 3abd a566 4c3d 3d6b de3d 7dee 2dbd
000001c0: 8291 a8bd b646 b83d 7fdf c7bd 9abb 173c
000001d0: f7dd 40bd ffa5 663d 36fa 42bd 987a 9d3d
000001e0: efeb 073d 842d 893d 50b6 c5bd 6ba8 e1bd
000001f0: e55f 2cbd 8e39 19bd 80e3 a0bd b0ea 053d
00000200: 06a1 8b3d 584e f13d 956d 6c3d b446 7c3d
00000210: 0419 7fbd 8081 773d 97c0 06bc 7252 cdbd
00000220: 0095 b0bc c7d7 1f3d 793a dabc d65c 14bd
00000230: 6b6b 9a3d d0a7 73bd cb74 a7bd 2b02 edbb
00000240: 6486 b4bd 538f 64bd c6ce febc 1d0c d3bc
00000250: cf2f 2f3d 90bb adbd dbb6 433d 5707 95bc
00000260: fbf6 46bd a0c1 da3d 853b 3d3c 3ad6 f7bb
00000270: 7ade 923b 6bbd 7e3d 467c 253d f0a5 4c3c
00000280: 3f06 953c 808e d53d fb17 aebc 77a7 2c3d
00000290: 9b47 983d 5417 ccbd f64e 32bc 8a22 973d
000002a0: e6fa e1bc 2d11 4fbd a778 983c cddc cd3d
000002b0: eab9 e6bc e258 873d ae5f f33d e699 403d
000002c0: 50f7 c3bc 2789 9ebc 07fb 3abd d60c d5bd
000002d0: 0c9b 3dbd 942b ddbc cbff acbc fe21 83bd
000002e0: e517 efbc 081e aebd 874c 77bc d563 e5bd
000002f0: cf3b 953d 549c 7ebd fd78 0f3d b4c0 f7bd
00000300: e961 1dbd b9ea 283d 66b6 8a3d f89d e8bd
00000310: 2c50 653c cff7 b5bd 8ff6 633c 4992 f33d
00000320: cf28 b63d 4cba eb3d 2748 90bd 6d79 bdbb
00000330: acb0 4d41 f50e b03f b22d 90c0 69d5 abbe
00000340: ebed 8440 1845 36bf 3c94 e0bc 9a84 e6be
00000350: 4bf2 f5bd 1b04 3dbd ddf3 adbf b4c4 a7bf
00000360: 1639 9a3c 3815 1740 b80b 86bf c857 76bf
00000370: 8c46 b8be fc4d 06c0 d243 a0bf ad5b 1540
00000380: f137 bebf 2271 a5be 0c61 0abe 8f51 1cbf
00000390: e3ef 2dbf 7783 56bf 2150 a53e 68f6 7bbf
000003a0: 56f7 51bf 0ecb 933f a173 cbbf 3a5a 94bf
000003b0: 9372 cbbf 116b 94be 0db7 bdbe 5acb 38be
000003c0: 9a05 93be 44c1 b73e e26a 34bd 5351 61bf
000003d0: 562e e2be cab2 52be 11a0 86bf c8c4 fa3d
000003e0: 62e2 c93e 877f 02bd 0de8 4cbf 7afd b23b
000003f0: c00e 2dbc e10a ad3e 8b55 8bbc 4196 1abf

layer1.bias f4 [75]
0.07098737 0.041728906 -0.084086016 -0.046455458 0.11953299 -0.049233474 0.11395859 0.08471836
-0.02634718 0.041236725 -0.006574225 0.067077406 0.06570724 -0.041151274 0.07407169 0.07295904
0.07602667 0.118404284 0.023096284 -0.09552761 0.09651076 0.035794932 0.07784357 0.108583
0.04045006 0.018264921 -0.016432362 0.06491629 -0.022879243 0.057123724 0.06085877 0.014334224
0.0045208163 -0.013032935 -0.0016685433 -0.10948774 0.03909038 0.07003649 0.006911635 -0.03274967
-0.09794355 0.04642903 0.010898248 0.113137715 0.012474081 -0.032777566 -0.09940667 -0.017910555
-0.11268901 0.062383704 -0.09220624 -0.0024823837 -0.10112687 -0.10764961 -0.113060564 -0.062118705
0.008876962 0.021402303 -0.059368636 0.11633952 -0.09242036 -0.02072466 0.029885814 0.111853845
0.070511885 -0.022404427 0.04302328 -0.020060716 0.06529581 -0.1007536 0.0019317111 -0.10431909
0.03306086 -0.11048939 -0.05641773
00000000: d461 913d eeeb 2a3d 4a35 acbd 1448 3ebd
00000010: b6cd f43d 0aa9 49bd 1f63 e93d d280 ad3d
00000020: 0bd6 d7bc d7e7 283d 996c d7bb e15f 893d
00000030: 8491 863d 3d8e 28bd e6b2 973d 8d6b 953d
00000040: dfb3 9b3d f27d f23d 6b34 bd3c fba3 c3bd
00000050: 6fa7 c53d b59d 123d 736c 9f3d c460 de3d
00000060: f6ae 253d 51a0 953c 299d 86bc d5f2 843d
00000070: 406d bbbc 91fa 693d 0c47 793d 18da 6a3c
00000080: 5b23 943b 1788 55bc 06b3 daba 1c3b e0bd
00000090: 3c1d 203d 4b6f 8f3d ff7a e23b 8524 06bd
000000a0: a196 c8bd 5e2c 3e3d 918e 323c bfb4 e73d
000000b0: 1660 4c3c c541 06bd b995 cbbd 28b9 92bc
000000c0: 7fc9 e6bd 0e86 7f3d a0d6 bcbd 7daf 22bb
000000d0: 9b1b cfbd 6677 dcbd 4c8c e7bd 2f70 7ebd
000000e0: ad70 113c e253 af3c 872c 73bd 6a43 ee3d
000000f0: e346 bdbd c3c6 a9bc 18d3 f43c a113 e53d
00000100: 8968 903d 7d89 b7bc 2e39 303d 5f56 a4bc
00000110: cfb9 853d e757 cebd 7831 fd3a 3fa5 d5bd
00000120: d36a 073d 4348 e2bd 4716 67bd

layer2.weight f4 [75, 75]
-0.06127681 0.8220662 -0.060289275 -6.216374 -0.7035468 3.8019385 -0.25455883 -0.09471849
-7.6029263 -0.24884672 -0.16084495 0.2632946 0.1921509 -0.060137626 -0.7298127 0.043187797
-0.16614477 -0.15235838 -1.2326111 -1.4760066 0.27080733 -0.03460596 3.8204145 0.08555633
-0.53526586 -0.14258763 0.17425191 0.39425594 4.489174 0.13007008 -0.0074761948 -0.0072397585
-0.11495857 -4.1003437 -1.4978535 -0.30410957 -0.77117354 -0.16079436 5.9333143 -2.4705818
-3.9935048 5.0225005 0.05682342 -0.106375225 0.08232256 0.0001453199 0.07777247 -0.0051718974
-0.25378078 -0.1536425 -0.07232665 -0.085353196 -0.03121046 -1.6788892 -0.13952272 -1.1933671
0.016472131 0.9004997 -0.12530845 -0.07165098 -0.09054211 -2.5165317 -0.9547412 0.054074142
1.9440076 -0.6019867 -1.4034916 0.086482234 2.838669 -0.2754271 1.7207717 1.2960978
0.34379786 -0.117570356 0.9058992 0.057230562 0.3550793 -0.051924083 -0.65428805 -0.785921
0.83656263 -0.046970874 -0.050329 -1.1336242 0.028358277 -0.067114525 0.06901231 -0.025663173
-0.20480019 0.60384357 -0.043170415 -0.07044104 0.04457262 -0.7296688 1.0237564 -0.40176964
0.070097715 0.45585915 0.06252223 -0.15027405 -0.025897872 0.03843265 -0.9884484 0.8878494
-0.086768895 -0.044673882 0.026080914 0.092139415 -0.08868542 -0.5957771 -0.103340596 0.95494473
-0.12897983 0.96105164 -1.3483819 0.7508419 0.7257084 0.14702067 -0.09134807 0.082955524
0.16379973 0.021263797 -0.07932023 -0.15280725 -0.052641727 -1.0986316 0.029829098 0.17317782
-1.335471 0.010818394 0.9734607 0.093139976 -0.064078644 0.032093983 -0.10296362 0.08666547
-0.7745056 0.8260533 0.043774717 0.1971309 -0.33054563 -1.0748072 -0.24171133 0.47497162
-0.049164187 0.15447983 0.46863696 0.28859895 0.08079194 0.73755765 -0.049629252 -0.016312208
-0.04745735 -1.2909687 0.07435999 0.93314356 -0.17237967 -0.13956076 -2.083934 -0.03763761
-0.12245679 0.1340016 0.09287785 0.0057808356 -0.24818715 0.021427955 0.059116513 -0.05982582
-0.3145108 -0.8864928 0.5159202 0.0027968008 1.7551668 -0.09502988 -0.0654113 0.061090916
0.051624488 0.2772924 0.86787057 0.109542266 0.027651133 -0.09501289 0.0024500922 0.011413728
-0.3554541 -0.034571055 -0.48731402 -0.037383378 1.6091938 -0.31490284 -1.255465 1.6385719
0.058377787 -0.05204767 -0.076356746 0.008986491 -0.12306153 0.045593765 -0.13392316 -0.11208278
-0.20590232 -0.051076315 0.1301618 -0.06778171 -0.03988949 -0.5083544 0.12337144 0.389995
0.0032969408 -0.06363466 0.03877374 -0.42706916 0.7751306 0.015820857 0.5608203 -0.51106817
-0.10944102 -0.13301556 0.5998793 -0.08707948 0.31749833 0.38868764 -0.24039997 -0.11766372
0.060337886 -0.03744812 0.1788112 0.049915105 1.2465005 0.7613187 -0.73651177 0.009321242
0.09335427 1.5157266 0.046279978 0.009438119 0.005010471 0.10879346 -0.08849543 -0.5681568
-0.095647246 -0.03442171 0.057543185 0.6741028 -0.293121 0.74088156 0.056794137 -0.8491744
-0.047729824 -0.05293534 0.01522516 0.051676743 0.20342946 -1.2878112 -0.07957265 -0.05822474
00000000: 64fd 7abd ee72 523f e3f1 76bd 89ec c6c0
00000010: a51b 34bf f652 7340 8955 82be c5fb c1bd
00000020: 2c4b f3c0 add1 7ebe 8ab4 24be 8dce 863e
00000030: 35c3 443e df52 76bd 01d5 3abf b0e5 303d
00000040: db21 2abe d603 1cbe 33c6 9dbf c9ed bcbf
00000050: 42a7 8a3e fbbe 0dbd ac81 7440 2838 af3d
00000060: 2f07 09bf 7e02 12be 186f 323e eadb c93e
00000070: 50a7 8f40 1731 053e defa f4bb 7f3b edbb
00000080: 666f ebbd 0436 83c0 aab9 bfbf 40b4 9bbe
00000090: a16b 45bf 47a7 24be b6dd bd40 031e 1ec0
000000a0: 9595 7fc0 53b8 a040 adbf 683d 41db d9bd
000000b0: bb98 a83d 0361 1839 2c47 9f3d 0579 a9bb
000000c0: 8eef 81be 7654 1dbe ff1f 94bd a8cd aebd
000000d0: 14ad ffbc d7e5 d6bf 0bdf 0ebe 41c0 98bf
000000e0: 90f0 863c 2687 663f dc50 00be c0bd 92bd
000000f0: 246e b9bd db0e 21c0 eb69 74bf d97c 5d3d
00000100: 3ed5 f83f cd1b 1abf 9da5 b3bf 991d b13d
00000110: c1ac 3540 c804 8dbe 3f42 dc3f 88e6 a53f
00000120: 4606 b03e bac8 f0bd 03e9 673f 986a 6a3d
00000130: f4cc b53e 59ae 54bd 6c7f 27bf 1e32 49bf
00000140: f828 563f 8864 40bd c825 4ebd 991a 91bf
00000150: 9e4f e83c 5773 89bd 5356 8d3d 933b d2bc
00000160: 24b7 51be 7e95 1a3f 76d3 30bd 6443 90bd
00000170: c891 363d 93cb 3abf 730a 833f c0b4 cdbe
00000180: 648f 8f3d 5f66 e93e a80b 803d 71e1 19be
00000190: c627 d4bc 8e6b 1d3d f40a 7dbf 194a 633f
000001a0: e4b3 b1bd f6fb 36bd a4a7 d53c 97b3 bc3d
000001b0: b4a0 b5bd d984 18bf 3ca4 d3bd 4277 743f
000001c0: 4a13 04be 7b07 763f c797 acbf 2d37 403f
000001d0: 07c8 393f 968c 163e b214 bbbd 96e4 a93d
000001e0: 1ebb 273e 6a31 ae3c a572 a2bd 8179 1cbe
000001f0: da9e 57bd f69f 8cbf 275c f43c 8755 313e
00000200: b7f0 aabf a23f 313c b834 793f 2cc0 be3d
00000210: aa3b 83bd fb74 033d 97de d2bd aa7d b13d
00000220: 0046 46bf 3b78 533f 1e4d 333d afdc 493e
00000230: 473d a9be 4893 89bf 2d83 77be 7b2f f33e
00000240: 6360 49bd f62f 1e3e 2ff1 ef3e 3ec3 933e
00000250: 3f76 a53d 94d0 3c3f 0b48 4bbd 2ea1 85bc
00000260: a362 42bd 763e a5bf 0d4a 983d 7fe2 6e3f
00000270: 4c84 30be 04e9 0ebe 2d5f 05c0 e529 1abd
00000280: a0ca fabd b737 093e be36 be3d 2a6d bd3b
00000290: c624 7ebe ae89 af3c 2824 723d eb0b 75bd
000002a0: 8f07 a1be 31f1 62bf 5913 043f 884a 373b
000002b0: 4ea9 e03f 079f c2bd 5cf6 85bd 783a 7a3d
000002c0: 3374 533d 45f9 8d3e c42c 5e3f b257 e03d
000002d0: a184 e23c 1e96 c2bd ba91 203b a500 3b3c
000002e0: 14fe b5be 619a 0dbd 3981 f9be 501f 19bd
000002f0: 10fa cd3f f23a a1be 14b3 a0bf b9bc d13f
00000300: 8c1d 6f3d f02f 55bd ed60 9cbd 133c 133c
00000310: af07 fcbd 87c0 3a3d 2723 09be a88b e5bd
00000320: 0fd8 52be 6635 51bd 2349 053e 23d1 8abd
00000330: 2963 23bd 8423 02bf 2aaa fc3d 6dad c73e
00000340: 7d11 583b e352 82bd 37d1 1e3d cfa8 dabe
00000350: f66e 463f be9a 813c eb91 0f3f 5dd5 02bf
00000360: 9d22 e0bd 3b35 08be b191 193f ba56 b2bd
00000370: 248f a23e 1102 c73e 692b 76be adf9 f0bd
00000380: dc24 773d 3363 19bd 491a 373e c873 4c3d
00000390: 548d 9f3f c8e5 423f 098c 3cbf 1fb8 183c
000003a0: 8630 bf3d 5403 c23f 1390 3d3d 57a2 1a3c
000003b0: e12e a43b 1bcf de3d 183d b5bd b972 11bf
000003c0: b4e2 c3bd c7fd 0cbd 67b2 6b3d 0092 2c3f
000003d0: f513 96be 6aaa 3d3f f8a0 683d 7e63 59bf
000003e0: 5980 43bd bad2 58bd f372 793c feaa 533d
000003f0: d04f 503e ffd6 a4bf fcf6 a2bd 117d 6ebd

layer2.bias f4 [75]
-1.145523 0.7038769 -0.1692419 -0.19574153 -0.21808657 -0.031235848 -0.6651321 -1.5395879
-1.4711827 0.13118728 0.030366018 -0.2837684 0.28432748 -0.4491037 0.13339694 0.11797777
-1.3516415 0.40837413 0.03257206 -0.42511255 -0.19466347 -0.51611656 -0.58740115 -0.28436837
-0.37378675 0.36679775 0.35591593 0.6826448 0.14157574 0.418091 -0.4600892 -0.052606888
-0.047949124 0.18201457 0.5189877 -0.15175356 -0.4951278 -0.038323987 0.54466176 -0.43929103
-0.14328924 0.42837974 0.032842923 -0.27021432 -0.051915035 -0.36925068 -0.1383627 0.23671733
0.13925332 -0.34179658 1.1327866 -0.43239748 -0.09433298 0.0160692 0.08778964 -0.33219427
-0.7881908 0.061538942 1.0268245 -0.646073 0.046027403 -0.3615959 0.18662399 -0.28898868
-0.45537147 -0.5566941 0.22341256 -0.7127033 -0.47626752 -0.0080070775 -0.4062913 0.08329788
0.11344108 0.37750852 0.010571985
00000000: 7fa0 92bf 4731 343f c04d 2dbe 7870 48be
00000010: 1652 5fbe 52e2 ffbc 1946 2abf 3711 c5bf
00000020: b74f bcbf f555 063e 28c2 f83c 174a 91be
00000030: 5f93 913e ecf0 e5be 3599 083e 549e f13d
00000040: 9702 adbf 6a16 d13e 486a 053d 5aa8 d9be
00000050: dc55 47be 3720 04bf ec5f 16bf bb98 91be
00000060: fa60 bfbe eacc bb3e 9d3a b63e cfc1 2e3f
00000070: 3bf9 103e 0610 d63e d090 ebbe 527a 57bd
00000080: 4d66 44bd 0762 3a3e 61dc 043f 4965 1bbe
00000090: 6481 fdbe 9df9 1cbd f46e 0b3f c1ea e0be
000000a0: 6aba 12be 9754 db3e 4d86 063d 8859 8abe
000000b0: dca4 54bd 6d0e bdbe f4ae 0dbe 0766 723e
000000c0: 6c98 0e3e f6ff aebe 27ff 903f 3463 ddbe
000000d0: a631 c1bd 8ea3 833c 0ecb b33d 5e15 aabe
000000e0: dfc6 49bf 4210 7c3d fc6e 833f 0a65 25bf
000000f0: 3b87 3c3d 1923 b9be 5c1a 3f3e 53f6 93be
00000100: 7326 e9be 8183 0ebf 43c6 643e b973 36bf
00000110: 56d9 f3be 1e30 03bc 6a05 d0be 1498 aa3d
00000120: cc53 e83d cc48 c13e 1e36 2d3c

layer3.weight f4 [75, 75]
0.22986817 0.088789985 -0.12701762 0.07135633 -0.14723538 0.085031904 0.19211775 -0.024312433
-0.12552157 0.25320402 0.1878966 0.11173161 -0.14333154 0.1160992 0.025042284 0.0314502
0.13859059 0.30962038 0.1768197 -0.08851297 0.05995327 0.10481476 0.06397418 -0.043975327
0.02740847 0.067051224 -0.042386424 0.2827294 0.034746904 0.07981366 0.18576628 0.043407638
0.0387287 0.36242962 0.09151217 0.15961035 -0.12639168 0.1822602 -0.059090607 0.14854442
0.12536071 0.003625592 0.021030001 -0.050582446 -0.119180344 0.5084616 0.10553351 -0.28348887
0.11734928 0.011120769 0.2468104 -0.07090857 0.07885608 0.097098544 0.15899765 0.26939994
0.44050997 0.14055288 -0.05822639 0.108397424 -0.034767408 0.24402402 -0.077492796 -0.25415534
-0.034770064 0.1334852 0.060452323 0.008353733 -0.21483502 0.38969287 0.35235256 0.07183676
-0.0031736705 -0.23810953 0.40114865 -0.1453858 -0.06343386 -0.3927675 -1.6321557 0.4621864
0.34690127 0.22455771 -0.8218178 0.5336599 0.20609301 0.45433402 0.20662846 -0.057331007
0.51216704 -0.63875604 -1.3881936 -1.3550457 0.5128543 0.1431289 -0.36258382 -0.17991422
0.0009299767 -0.74360555 -0.40583202 0.46782565 0.20541973 -1.2086091 0.048800845 0.54148203
0.3664754 -0.3206771 -0.6704004 -1.0205858 0.30852172 -0.64170694 0.32310182 -0.6687456
0.48430946 0.48398122 -0.0682404 -0.27477947 -0.72063255 -1.389096 -0.24818777 -0.17391427
0.23825368 0.36851448 -0.67490053 -0.9381836 -1.1090372 -0.95871323 -0.22585085 -0.025556186
-0.9952236 0.27556503 0.34103507 -0.10902459 -0.10546837 -0.051288646 0.43201888 -0.6744861
-0.14316458 -0.11472299 -0.083690986 -0.41439372 0.53835326 0.3081557 0.15662517 -0.89683014
0.4267539 0.28441843 -1.2472821 -1.2913793 0.20855175 -0.4670941 -0.0299437 0.07313033
-0.02489792 -0.1570974 -0.20339696 0.17363067 -0.120638326 -0.047002673 0.3862235 0.20947829
0.13051829 0.28000593 -0.16914159 0.76312333 -0.10475923 0.00012778208 -0.14938869 0.6506569
0.6263595 0.06550203 -0.060144067 0.24917507 -0.1477493 -0.15901373 0.4737602 0.65509534
-0.33303207 0.47465253 0.20645902 -0.16900867 0.12841266 -0.20429821 -0.026200924 0.35041863
-0.25694984 0.3375707 0.103254795 0.45803168 0.24779382 0.08931883 0.250959 -0.101462446
-0.009166745 0.24944945 -0.1259025 0.15949763 0.05254474 0.20164706 0.19504741 -0.10715503
-0.53101206 -0.19725388 0.16409996 0.07877526 0.32340252 0.040864825 -0.056643464 0.4519717
0.35511702 0.36868793 0.15517926 0.16999808 -0.27358449 -0.083275445 -0.21901706 0.07062708
0.47446486 0.05121966 -0.14011462 0.33274958 0.36140198 0.046330683 -0.032955382 -0.5339828
0.44428197 0.20620783 0.15375048 -0.08289856 -0.054879405 -0.11673409 0.17017287 0.19016816
-0.7549632 -0.6200389 0.45593837 -0.038464393 0.26953703 -0.092668176 0.20859402 0.24038103
0.06717868 0.3013409 0.23822933 0.5714211 -0.16695006 -0.024873896 0.053141385 -0.17050156
0.14511281 0.13486114 0.12853079 -0.10987446 0.24133845 0.15899566 0.13968475 -0.100744456
00000000: 9062 6b3e 86d7 b53d e810 02be 4423 923d
00000010: dfc4 16be 3525 ae3d 84ba 443e de2a c7bc
00000020: ba88 00be f5a3 813e f767 403e 8bd3 e43d
00000030: 81c5 12be 6bc5 ed3d 7a25 cd3c edd1 003d
00000040: b1ea 0d3e 9086 9e3e 3910 353e 4a46 b5bd
00000050: 8f91 753d 1fa9 d63d e504 833d 791f 34bd
00000060: ba87 e03c 2752 893d 639d 2dbd e8c1 903e
00000070: c552 0e3d 5875 a33d 8439 3e3e 35cc 313d
00000080: fca1 1e3d 6090 b93e bc6a bb3d e570 233e
00000090: d26c 01be 6ba2 3a3e fe08 72bd 071c 183e
000000a0: 8f5e 003e 579b 6d3b 1c47 ac3c 8a2f 4fbd
000000b0: d314 f4bd 8a2a 023f f421 d83d 7425 91be
000000c0: d254 f03d e333 363c debb 7c3e 8338 91bd
000000d0: 4c7f a13d 9adb c63d 48d0 223e caee 893e
000000e0: 868a e13e 18ed 0f3e cc7e 6ebd 78ff dd3d
000000f0: 4568 0ebd 6fe1 793e 8bb4 9ebd a620 82be
00000100: 0e6b 0ebd 58b0 083e db9c 773d 19de 083c
00000110: b6fd 5bbe d385 c73e 8e67 b43e 271f 933d
00000120: 5bfd 4fbb fcd2 73be 5b63 cd3e 04e0 14be
00000130: 9de9 81bd d218 c9be 7aea d0bf b2a3 ec3e
00000140: 0b9d b13e 75f2 653e a762 52bf ef9d 083f
00000150: 0c0a 533e 789e e83e 6996 533e ebd3 6abd
00000160: 611d 033f 8485 23bf 54b0 b1bf 2372 adbf
00000170: 6b4a 033f 6290 123e 96a4 b9be 6f3b 38be
00000180: aec9 733a ef5c 3ebf 37c9 cfbe d886 ef3e
00000190: 8d59 523e b4b3 9abf 65e3 473d 919e 0a3f
000001a0: aaa2 bb3e ca2f a4be 5c9f 2bbf 8ea2 82bf
000001b0: 8ff6 9d3e e846 24bf 9a6d a53e e932 2bbf
000001c0: 69f7 f73e 63cc f73e 9fc1 8bbd e5af 8cbe
000001d0: 607b 38bf e6cd b1bf ef24 7ebe 9516 32be
000001e0: c6f8 733e eead bc3e 48c6 2cbf cd2c 70bf
000001f0: eef4 8dbf 3b6e 75bf 7245 67be 355b d1bc
00000200: f9c6 7ebf dc16 8d3e 269c ae3e 4948 dfbd
00000210: cdff d7bd 0b14 52bd 9431 dd3e 1fab 2cbf
00000220: bc99 12be e3f3 eabd 2e66 abbd 6a2b d4be
00000230: 85d1 093f 95c6 9d3e 5962 203e a996 65bf
00000240: 7d7f da3e 4b9f 913e f1a6 9fbf eb4b a5bf
00000250: 978e 553e f526 efbe 7e4c f5bc 5bc5 953d
00000260: b9f6 cbbc 24de 20be 4b47 50be 3dcc 313e
00000270: 3a11 f7bd e085 40bd 16bf c53e 7a81 563e
00000280: 96a6 053e f05c 8f3e 7433 2dbe 0d5c 433f
00000290: 028c d6bd 3efd 0539 59f9 18be 7391 263f
000002a0: 1959 203f ee25 863d a059 76bd c027 7f3e
000002b0: 984b 17be 7fd4 22be b290 f23e 54b4 273f
000002c0: 2e83 aabe a805 f33e fe69 533e 9c10 2dbe
000002d0: 9c7e 033e 8d33 51be 52a3 d6bc 126a b33e
000002e0: ee8e 83be 11d6 ac3e 4077 d33d 2183 ea3e
000002f0: aabd 7d3e caec b63d b37d 803e 8bcb cfbd
00000300: 1d30 16bc ad6f 7f3e 96ec 00be 5953 233e
00000310: 2739 573d 917c 4e3e 82ba 473e 1974 dbbd
00000320: 68f0 07bf ecfc 49be d209 283e ec54 a13d
00000330: 0495 a53e e061 273d fa02 68bd d668 e73e
00000340: e6d1 b53e aac4 bc3e 50e7 1e3e fa13 2e3e
00000350: 4413 8cbe 518c aabd 0246 60be eea4 903d
00000360: 0fed f23e b5cb 513d 357a 0fbe 275e aa3e
00000370: ae09 b93e 3ec5 3d3d 39fc 06bd 19b3 08bf
00000380: ed78 e33e 2528 533e c470 1d3e b8c6 a9bd
00000390: 3ac9 60bd 4812 efbd cc41 2e3e 71bb 423e
000003a0: 4545 41bf dfba 1ebf c170 e93e d78c 1dbd
000003b0: c200 8a3e d0c8 bdbd ac99 553e 7226 763e
000003c0: fa94 893d 5b49 9a3e 64f2 733e a748 123f
000003d0: f5f4 2abe 57c4 cbbc c8aa 593d f697 2ebe
000003e0: 7498 143e 0a19 0a3e 939d 033e dc05 e1bd
000003f0: 6d21 773e c2cf 223e 8509 0f3e 1c53 cebd

layer3.bias f4 [75]
-0.020015026 0.17080927 0.08066357 0.15745021 0.43248224 0.23844509 -0.28658992 -0.082773104
-0.2975028 -0.034447968 -0.087788135 -0.102037564 0.18570647 -0.7355775 0.15142334 -0.09087052
-0.10210684 -0.06940498 -0.095337205 -0.29279745 0.18308039 0.21270336 -0.105047084 0.23104662
-0.016616745 -0.28382686 -0.41645244 -0.056506306 0.08977674 -0.05248566 0.029615419 0.24008888
-0.2609168 -0.017058104 -0.60637385 -0.059561744 0.024541438 -0.4464584 0.060621083 -0.04113934
0.40684658 -0.30838782 -0.023035938 0.25914675 0.052423872 -0.17180383 -0.013318047 0.05067361
0.21606031 -0.31814027 -0.3466119 0.373846 -0.12895 -0.38918862 -0.17454551 0.1660554
-0.23636265 -0.21814987 0.0942526 -0.3113428 0.1937166 -0.009422543 0.027541915 0.27549884
-0.081099875 -0.30080703 -0.08010475 -0.040156804 -0.18984012 -0.43298122 0.31411436 -0.07315537
0.24242277 -0.10647129 0.17312375
00000000: 8df6 a3bc a0e8 2e3e f132 a53d a13a 213e
00000010: 506e dd3e f32a 743e eabb 92be f284 a9bd
00000020: 4952 98be 5019 0dbd 44ca b3bd 12f9 d0bd
00000030: d629 3e3e cf4e 3cbf b80e 1b3e 531a babd
00000040: 641d d1bd 3324 8ebd 2740 c3bd 8ce9 95be
00000050: 6d79 3b3e e9ce 593e ed22 d7bd 7c97 6c3e
00000060: d71f 88bc c151 91be 4139 d5be 2873 67bd
00000070: dedc b73d 34fb 56bd 099c f23c dcd9 753e
00000080: e396 85be 70bd 8bbc 513b 1bbf 04f7 73bd
00000090: 200b c93c 3296 e4be d04d 783d b981 28bd
000000a0: 324e d03e 02e5 9dbe ddb5 bcbc e2ae 843e
000000b0: 6aba 563d 58ed 2fbe f033 5abc 228f 4f3d
000000c0: ea3e 5d3e 48e3 a2be 1d77 b1be be68 bf3e
000000d0: 780b 04be bb43 c7be 0fbc 32be 6d0a 2a3e
000000e0: 0d09 72be ae62 5fbe 8207 c13d 5368 9fbe
000000f0: a55d 463e 0361 1abc 959f e13c 2f0e 8d3e
00000100: b117 a6bd 6103 9abe f60d a4bd 767b 24bd
00000110: 7365 42be b7af ddbe 99d3 a03e 7cd2 95bd
00000120: ad3d 783e 9f0d dabd 5a47 313e

layer4.weight f4 [75, 75]
0.20209125 0.5525408 0.13686256 0.23296967 0.3190056 0.7779985 0.13864274 0.2916731
0.174147 0.66078544 0.28800705 0.17561471 0.038676385 0.07163847 0.011060479 -0.098738946
-0.20024174 -0.01914536 -0.08809091 0.12922522 0.2847882 -0.00824335 0.22729357 0.23233883
0.15664956 0.07405456 0.09862679 0.1630796 0.006963957 0.14959778 0.39210066 0.3031376
0.62496126 0.13060592 0.2694009 0.23571464 0.6425985 0.32769498 0.3181518 0.073473826
0.171777 0.65155727 0.014507846 0.1928759 0.44884232 0.08303058 -0.20731872 -0.22938083
-0.1770859 0.0290632 0.2447971 0.37389517 0.27421296 0.18888412 -0.23404305 -0.053161632
0.082251325 0.12757699 0.62215346 0.12898092 0.46143505 0.40262243 0.05223239 0.26923802
0.3566051 -0.2214328 0.46750838 -0.20818326 0.5020608 -0.052501533 0.18368714 -0.32509315
0.26411885 -0.09345375 0.23760274 0.1590533 0.65062904 0.16651972 0.11229 -0.2586668
0.13305162 0.14070652 -0.38511005 0.08688746 -0.2934049 0.11793756 0.49446267 -0.08592342
0.2044397 0.0770442 0.21452485 -0.08388353 0.20561306 0.116715714 -0.22406584 0.17413191
0.12985861 0.11581937 -0.59249586 -0.23246221 0.51963675 0.26785165 -0.17055508 -0.008186933
0.27748948 0.1321761 0.4577877 -0.12413092 0.08076508 -0.037341103 0.17633492 -0.062929496
-0.16778287 0.38022226 0.15715203 0.49296522 -0.2809583 0.08570182 -0.3717813 -0.14511688
-0.11605511 0.15265857 -0.1477816 -0.52092355 0.14346758 0.06480892 -0.06864166 0.044505883
-0.10536343 0.076245286 -0.29734537 -0.14002831 0.29892856 0.026639072 0.19654459 -0.0784519
0.27330592 0.10124816 0.09871358 -0.0117644025 -0.05271029 0.08299228 0.28834194 -0.015008461
0.05894069 -0.23996101 0.1998721 0.10281669 0.35644057 0.005931502 0.22700262 0.39435014
0.4781769 0.044264622 0.045977276 0.3869076 0.13290243 -0.012579543 0.033628307 0.31262982
0.076846346 0.21666344 -0.018100979 0.46115795 0.5044969 0.111825615 -0.23528998 -0.029488742
-0.1642025 -0.03554066 0.14803837 -0.010617243 0.084061004 -0.29580054 -0.026625624 0.25114283
0.3863225 -0.18546867 0.017518342 0.14324401 0.20687474 0.065896 0.20830794 0.40023026
0.2147875 0.1410333 0.25133544 0.07473794 0.48479992 0.21578799 0.9629127 0.65261114
-0.12927213 -0.19577615 0.07629424 0.21478681 0.06611912 -0.400992 -0.46953368 0.17678227
-0.4192461 0.15454438 0.3745651 0.025221368 0.13439153 -0.19763345 -0.040513504 -0.06356938
0.29196712 0.016079014 0.31627634 0.08887646 -0.26829126 0.7059756 0.04194862 -0.0214549
0.7355537 0.13865641 0.13023153 0.21530043 0.03264168 0.18469125 0.09667113 0.009500067
0.6070252 0.33147115 0.37318414 0.10405699 0.30881578 0.73681474 0.4605054 0.015709765
0.11587648 0.12828872 0.5641206 0.11569185 -0.011093345 -0.3706956 0.14592855 -0.3602553
0.04706181 -0.06481022 0.20756605 -0.26527983 0.86136913 0.5715616 -0.019678766 0.3908355
-0.10579891 0.015858682 0.26400128 -0.52773494 -0.17164625 0.00629146 0.3641661 0.7011927
00000000: 02f1 4e3e 5073 0d3f b325 0c3e 9a8f 6e3e
00000010: b454 a33e e92a 473f 5df8 0d3e 2d56 953e
00000020: 9753 323e 3c29 293f a975 933e 58d4 333e
00000030: 216b 1e3d 31b7 923d 0337 353c a537 cabd
00000040: 2c0c 4dbe bbd6 9cbc 0269 b4bd 9e53 043e
00000050: c2cf 913e 1e0f 07bc a5bf 683e 3bea 6d3e
00000060: be68 203e eba9 973d d8fc c93d 57fe 263e
00000070: e831 e43b 2930 193e 6bc1 c83e da34 9b3e
00000080: 76fd 1f3f 8fbd 053e eaee 893e 2e5f 713e
00000090: 5681 243f a3c7 a73e cbe4 a23e 7279 963d
000000a0: 4fe6 2f3e 75cc 263f 51b2 6d3c 4381 453e
000000b0: a9ce e53e f00b aa3d 5c4b 54be cfe2 6abe
000000c0: 0256 35be f315 ee3c 17ac 7a3e 306f bf3e
000000d0: a465 8c3e d76a 413e fba8 6fbe 03c0 59bd
000000e0: 6273 a83d 8ba3 023e 7345 1f3f 9313 043e
000000f0: 3741 ec3e 8724 ce3e a1f1 553d 91d9 893e
00000100: f294 b63e 48bf 62be 425d ef3e fe2d 55be
00000110: 0e87 003f d90b 57bd 7b18 3c3e 9c72 a6be
00000120: 963a 873e ae64 bfbd 224e 733e dede 223e
00000130: a08f 263f 2584 2a3e 4df8 e53d fa6f 84be
00000140: af3e 083e 5f15 103e 252d c5be 0df2 b13d
00000150: 2b39 96be 3f89 f13d 362a fd3e 9ef8 afbd
00000160: a458 513e 59c9 9d3d 67ac 5b3e 21cb abbd
00000170: 3b8c 523e a608 ef3d 8471 65be a34f 323e
00000180: a8f9 043e b532 ed3d cfad 17bf 930a 6ebe
00000190: ea06 053f da23 893e fea5 2ebe 7c22 06bc
000001a0: 1a13 8e3e 2c59 073e 2663 ea3e 5a38 febd
000001b0: 2a68 a53d fcf2 18bd 2491 343e 2ee1 80bd
000001c0: 46cf 2bbe 7eac c23e 76ec 203e f065 fc3e
000001d0: c4d9 8fbe 7084 af3d 1e5a bebe 8599 14be
000001e0: 4dae edbd 8752 1c3e 0f54 17be 3f5b 05bf
000001f0: 2ae9 123e 8aba 843d 0094 8cbd cd4b 363d
00000200: c8c8 d7bd 7d26 9c3d a73d 98be 9563 0fbe
00000210: 2a0d 993e 2f3a da3c fc42 493e 64ab a0bd
00000220: c1ee 8b3e 325b cf3d 582a ca3d 7bbf 40bc
00000230: bfe6 57bd dbf7 a93d 8ea1 933e 0ce6 75bc
00000240: cb6b 713d 57b8 75be 46ab 4c3e 8f91 d23d
00000250: 617f b63e 0c5d c23b 6073 683e 43e8 c93e
00000260: 9ad3 f43e d24e 353d ab52 3c3d c118 c63e
00000270: 9317 083e 6d1a 4ebc d6bd 093d 0411 a03e
00000280: 9e61 9d3d 05dd 5d3e 8148 94bc e51c ec3e
00000290: b526 013f d404 e53d dbef 70be 6092 f1bc
000002a0: b324 28be 1593 11bd 5f97 173e f2f3 2dbc
000002b0: 2d28 ac3d 2b73 97be fb1d dabc cb95 803e
000002c0: 10cc c53e 80eb 3dbe a082 8f3c 8fae 123e
000002d0: f9d6 533e 7bf4 863d ad4e 553e fbea cc3e
000002e0: 41f1 5b3e 096b 103e 0aaf 803e 3510 993d
000002f0: b237 f83e 87f7 5c3e 7281 763f 8611 273f
00000300: ea5f 04be 8b79 48be 2840 9c3d 13f1 5b3e
00000310: 7669 873d d34e cdbe b866 f0be 6906 353e
00000320: 6da7 d6be e240 1e3e ffc6 bf3e 0b9d ce3c
00000330: ef9d 093e 6c60 4abe 7df1 25bd aa30 82bd
00000340: b77c 953e 23b8 833c f9ee a13e dd04 b63d
00000350: 795d 89be d1ba 343f 51d2 2b3d 30c2 afbc
00000360: 3f4d 3c3f f2fb 0d3e 6a5b 053e b777 5c3e
00000370: 48b3 053d b41f 3d3e 83fb c53d 2ba6 1b3c
00000380: 0166 1b3f 96b6 a93e fe11 bf3e d51b d53d
00000390: 1a1d 9e3e e49f 3c3f 5dc7 eb3e c4b1 803c
000003a0: a650 ed3d 1e5e 033e 356a 103f d9ef ec3d
000003b0: dcc0 35bc d0cb bdbe 4b6e 153e 6273 b8be
000003c0: e2c3 403d 38bb 84bd 328c 543e c2d2 87be
000003d0: b082 5c3f dc51 123f 5d35 a1bc 971b c83e
000003e0: 19ad d8bd 11ea 813c 2d2b 873e a319 07bf
000003f0: 09c4 2fbe 9728 ce3b fb73 ba3e 5d81 333f

layer4.bias f4 [75]
-0.17475052 0.34213635 -0.0054171206 0.052237086 -0.28498137 -0.44748428 -0.29552913 -0.37618238
-0.02786305 0.03197101 0.064837776 -0.027754528 -0.27685794 -0.0111384755 -1.050821 -0.33336118
-0.68953097 0.14358068 -0.21262504 -0.23637299 0.26817656 -0.008131765 0.0831421 -0.16662873
-0.0010516347 -0.26058802 -0.5417025 0.023764482 0.0948535 0.40360206 -0.16038635 0.02415372
-0.1929186 -0.6703877 -0.2765857 0.19387178 -0.25324696 -0.6329169 -0.119919896 -0.68647057
-0.05069683 0.22745055 -0.6625766 0.07639968 -0.41389012 0.0013157057 -0.06639653 0.35068676
-0.18748796 0.42145807 -0.5300506 -0.18900727 0.08269697 -0.4652692 -0.32874525 -0.39747217
-0.48567486 -0.4457999 0.1605542 -0.10487925 0.032567497 -0.38784453 -0.87228906 -0.16230473
-0.037086837 -0.17155686 -0.2594866 -1.3372567 -0.12801963 -0.30155185 0.037593316 -0.15745029
-0.23211317 0.118048556 -0.26719967
00000000: cdf1 32be 7f2c af3e 1a82 b1bb 8ef6 553d
00000010: 14e9 91be a91c e5be 984f 97be fa9a c0be
00000020: 0d41 e4bc 09f4 023d abc9 843d 775d e3bc
00000030: 53c0 8dbe 277e 36bc 4d81 86bf 51ae aabe
00000040: 1a85 30bf d006 133e 61ba 59be c30b 72be
00000050: 704e 893e 183b 05bc 6846 aa3d b9a0 2abe
00000060: 01d7 89ba cb6b 85be 04ad 0abf bbad c23c
00000070: 8d42 c23d eea4 ce3e 523c 24be 06de c53c
00000080: 748c 45be 879e 2bbf a49c 8dbe 5386 463e
00000090: 96a9 81be d806 22bf 9098 f5bd 89bc 2fbf
000000a0: 7ba7 4fbd cce8 683e 9f9e 29bf 6f77 9c3d
000000b0: 68e9 d3be c273 ac3a e7fa 87bd 378d b33e
000000c0: d8fc 3fbe 5ac9 d73e 65b1 07bf 1f8b 41be
000000d0: 075d a93d c437 eebe 4c51 a8be 7981 cbbe
000000e0: 60aa f8be e23f e4be 5268 243e efca d6bd
000000f0: 7f65 053d 8f93 c6be 564e 5fbf 3633 26be
00000100: 5ee8 17bd 9aac 2fbe 6ddb 84be 3a2b abbf
00000110: 9417 03be 0165 9abe 73fb 193d a63a 21be
00000120: 13af 6dbe 71c3 f13d 65ce 88be

layer5.weight f4 [75, 75]
-0.63700193 -0.9366237 -1.2488889 -0.6994901 -0.6076848 -1.0195614 0.0647143 -1.1074594
-1.8905104 -1.1005937 -1.2587172 -0.7800761 0.87876475 -0.55140305 -0.08488233 -1.169412
0.18473113 -1.3372946 -0.67658645 -0.46864632 0.5237997 -0.87360597 -0.114190124 -1.1228557
0.3694986 0.03875849 -0.744753 -0.61778164 -0.2276204 -0.4042063 -1.0375054 0.92228866
-0.6699685 0.8044392 -0.3296682 -1.1437238 -0.24085858 -0.24787778 -0.24473958 0.9315004
-1.0670347 0.37133235 -0.25297225 -0.3587372 -0.058717486 -0.30667028 -0.5695959 0.69657207
-0.5036656 0.44398433 -0.47222927 -0.70319164 -0.59022737 -0.072298035 -0.3680061 -1.3291835
-0.6366941 0.27058882 -0.9528521 -0.55178 -1.0465578 -0.42059398 1.4705414 -1.0535445
-0.1538804 -0.16452068 0.44299084 1.383616 -1.1854419 1.1532997 -1.3667057 -0.40669656
-0.1937067 -1.1007204 -1.9843007 0.21416494 -0.06017768 0.17188457 0.1964567 0.14283203
-0.20554781 -0.068923615 0.034070477 -0.094060086 0.07082306 -0.12970112 -0.064266786 -0.09154462
-0.16526812 0.23938547 0.25673583 0.29830268 0.21875145 -0.037211444 -0.1964471 -0.0077450294
-0.2392881 0.11294917 -0.15890476 -0.07439997 -0.019937407 0.68905556 0.29342544 -0.178634
0.021654971 0.100616224 -0.051149737 -0.08444495 -0.027435768 -0.0831215 -0.04198982 0.0039708545
0.42894652 0.012378091 0.15898426 0.24599217 -0.23172447 0.52720565 0.14393623 0.31488842
0.1585113 -0.14574377 -0.15871496 -0.079534724 -0.14521188 0.014478784 -0.03806695 0.05961515
0.40673357 -0.2791682 0.41160733 -0.09473615 0.057484955 0.14648227 -0.037740286 -0.07091348
-0.028161984 -0.057974737 -0.05334196 -0.002295088 0.3173966 0.37075695 0.05203521 -0.14053676
0.18695726 0.026872836 0.25808722 0.26018852 0.4288839 0.03267646 -0.39270476 0.37785208
0.02039261 -0.12892255 -0.05727482 -0.25093478 -0.00025834047 -0.15203527 0.38048762 0.57067525
-0.3097622 0.26129434 -0.27259946 0.20171185 -0.009238495 -0.2683131 -0.3710953 -0.010251814
-0.17325793 0.5001672 -0.047739007 0.037534468 -0.522857 0.52673763 -0.21474728 -0.42837733
-0.15409109 0.07970565 0.0030960357 0.35289827 -0.0461678 -0.488698 0.14369552 -0.43699124
0.014617435 -0.017363327 -0.45942816 -0.8755537 0.12924184 -0.15927981 -0.025722444 -0.24737492
-0.29365557 -0.28706914 -0.70124125 0.010679837 -0.08077024 -0.4386707 -0.28722245 -0.2931003
0.14343709 0.028413353 0.31053033 -0.19586965 -0.15782486 -0.34250706 0.09886447 -0.59986794
-0.0055546514 0.5149317 0.46544442 0.122233756 -0.288176 -0.36398718 -0.3455428 0.16121523
-0.12791377 -0.80377424 0.29124317 -0.5417663 0.03974181 -0.40923113 -0.6217862 -0.24307828
0.075091064 0.40875122 0.066514984 -0.1330491 -0.016935166 -0.030946482 0.20814686 -0.14909883
0.14835404 0.80731696 0.47857288 0.054399494 0.1801171 0.017955765 0.30236638 0.27690592
0.24396896 0.106967084 0.12076066 -0.16131498 -0.008839705 -0.02600884 0.033136237 -0.66958666
0.005069022 -0.13486452 -0.36044708 0.30896458 0.18026492 0.2796056 0.055307224 0.064195655
00000000: 8f12 23bf 92c6 6fbf 97db 9fbf c811 33bf
00000010: 3b91 1bbf fd80 82bf ee88 843d 3bc1 8dbf
00000020: 3ffc f1bf 41e0 8cbf a51d a1bf 11b3 47bf
00000030: baf6 603f c028 0dbf c9d6 adbd 4baf 95bf
00000040: 282a 3d3e 782c abbf c534 2dbf 69f2 efbe
00000050: bd17 063f a4a4 5fbf 83dc e9bd bcb9 8fbf
00000060: ec2e bd3e 39c1 1e3d 22a8 3ebf f026 1ebf
00000070: 5215 69be 21f4 cebe facc 84bf 1c1b 6c3f
00000080: 0e83 2bbf baef 4d3f 45ca a8be 8b65 92bf
00000090: a2a3 76be acd3 7dbe 039d 7abe cf76 6e3f
000000a0: 9894 88bf 461f be3e 9485 81be 67ac b7be
000000b0: bf81 70bd e303 9dbe 09d1 11bf 8c52 323f
000000c0: 3bf0 00bf ea51 e33e 09c8 f1be 5e04 34bf
000000d0: 2419 17bf fe10 94bd 4c6b bcbe af22 aabf
000000e0: 62fe 22bf 9e8a 8a3e 1dee 73bf 7441 0dbf
000000f0: 9bf5 85bf 1858 d7be b33a bc3f 8cda 86bf
00000100: d392 1dbe 1c78 28be b2cf e23e 541a b13f
00000110: 8fbc 97bf 539f 933f 36f0 aebf 883a d0be
00000120: 0d5b 46be 68e4 8cbf 91fd fdbf 0e4e 5b3e
00000130: df7c 76bd 8202 303e f22b 493e 8f42 123e
00000140: 207b 52be d327 8dbd 7c8d 0b3d 93a2 c0bd
00000150: ae0b 913d 5fd0 04be 4e9e 83bd bf7b bbbd
00000160: 0c3c 29be 7721 753e e172 833e 21bb 983e
00000170: 6100 603e 076b 18bd 6e29 49be 04ca fdbb
00000180: f107 75be e551 e73d eeb7 22be 035f 98bd
00000190: c653 a3bc f265 303f dc3b 963e d5eb 36be
000001a0: c465 b13c e10f ce3d 6382 51bd 79f1 acbd
000001b0: fac0 e0bc 9b3b aabd 84fd 2bbd f11d 823b
000001c0: e19e db3e 7acd 4a3c c5cc 223e 5fe5 7b3e
000001d0: 2e49 6dbe f3f6 063f 0564 133e 0e39 a13e
000001e0: c950 223e db3d 15be 2d86 22be 1ae3 a2bd
000001f0: 6cb2 14be 6c38 6d3c 17ec 1bbd 042f 743d
00000200: 623f d03e 22ef 8ebe 32be d23e 0705 c2bd
00000210: 5875 6b3d 73ff 153e 8f95 1abd 163b 91bd
00000220: f6b3 e6bc eb76 6dbd 197d 5abd 3069 16bb
00000230: cf81 a23e dbd3 bd3e df22 553d dee8 0fbe
00000240: b971 3f3e 6c24 dc3c 0224 843e 6e37 853e
00000250: ac96 db3e c0d7 053d 9910 c9be d475 c13e
00000260: 670e a73c 4604 04be 0099 6abd 867a 80be
00000270: df71 87b9 22af 1bbe 46cf c23e c617 123f
00000280: 2799 9ebe 5fc8 853e 2892 8bbe 8d8d 4e3e
00000290: 0e5d 17bc 5660 89be 3400 bebe 39f7 27bc
000002a0: 876a 31be f50a 003f fa89 43bd bebd 193d
000002b0: f5d9 05bf 47d8 063f b6e6 5bbe 4654 dbbe
000002c0: 0eca 1dbe b73c a33d dce6 4a3b 15af b43e
000002d0: 721a 3dbd a036 fabe eb24 133e 51bd dfbe
000002e0: f77d 6f3c 893d 8ebc 2b3a ebbe 4a24 60bf
000002f0: f957 043e 3f1a 23be e0b7 d2bc da4f 7dbe
00000300: 065a 96be bafa 92be 8c84 33bf 7cfa 2e3c
00000310: de6a a5bd 7299 e0be d20e 93be 3e11 96be
00000320: 2ce1 123e 1fc3 e83c d5fd 9e3e 0e92 48be
00000330: d79c 21be 165d afbe 7579 ca3d f290 19bf
00000340: cb03 b6bb 90d2 033f bb4e ee3e b155 fa3d
00000350: ce8b 93be 875c babe fcea b0be 9b15 253e
00000360: d4fb 02be 26c4 4dbf d31d 953e 32b1 0abf
00000370: 4fc8 223d be86 d1be 612d 1fbf 83e9 78be
00000380: 58c9 993d d747 d13e 0239 883d 063e 08be
00000390: 9ebb 8abc 7a83 fdbc 7324 553e 5dad 18be
000003a0: 1fea 173e 53ac 4e3f 8107 f53e 01d2 5e3d
000003b0: 9e70 383e f817 933c c4cf 9a3e 9dc6 8d3e
000003c0: 00d3 793e 8f11 db3d 5d51 f73d c12f 25be
000003d0: 69d4 10bc 7e10 d5bc ddb9 073d 086a 2bbf
000003e0: 0a1a a63b ed19 0abe 858c b8be 9b30 9e3e
000003f0: 5e97 383e 7728 8f3e d489 623d 0379 833d

layer5.bias f4 [75]
-0.14688012 -0.22809479 0.29975045 0.36459842 -0.21373953 0.10094419 0.19978751 -0.011960782
-0.7711415 0.030871686 0.36024216 0.50219023 0.279593 0.03248452 -0.40432602 -0.292432
-0.23292993 0.15201329 -0.18901634 -0.2525619 -0.51495194 -0.10160234 -0.06816681 -0.39324796
-0.004549765 0.0572017 -0.18257442 0.07284087 -0.36431828 -0.199639 0.20962846 0.46526152
-0.30827862 0.21044423 -0.27443898 0.0034687896 0.06688155 0.20423867 0.27840838 -0.29577696
-0.067422725 -0.5839486 -0.36940914 0.29049808 0.24500175 -0.27992514 -0.36511296 -0.03445549
-0.44688913 0.06598017 0.22739701 -0.10187742 -0.10231758 0.22080377 0.024790188 0.14447533
0.19691767 0.15890999 -0.11412254 0.29442433 -0.32224208 -0.58553123 0.19218369 -0.03368388
0.11162261 -0.13672622 -0.5389877 0.20386076 0.38830736 0.014128672 0.18219729 0.20689005
-0.28499347 0.15549931 0.12711792
00000000: be67 16be ae91 69be e478 993e a5ac ba3e
00000010: 89de 5abe d4bb ce3d 1995 4c3e 28f7 43bc
00000020: 8869 45bf 9ee6 fc3c a971 b83e 8a8f 003f
00000030: d026 8f3e 7d0e 053d d203 cfbe a6b9 95be
00000040: 2f85 6ebe 5fa9 1b3e 808d 41be cb4f 81be
00000050: e4d3 03bf e314 d0bd 0a9b 8bbd cc57 c9be
00000060: 3216 95bb 544c 6a3d caf4 3abe 982d 953d
00000070: ed87 babe 2b6e 4cbe d8a8 563e c236 ee3e
00000080: b2d6 9dbe b17e 573e 4483 8cbe a254 633b
00000090: 32f9 883d f123 513e 8b8b 8e3e 1470 97be
000000a0: ed14 8abd a87d 15bf 3223 bdbe 2abc 943e
000000b0: bde1 7a3e 5952 8fbe 16f0 babe 3321 0dbd
000000c0: a7ce e4be 9d20 873d c3da 683e 1ca5 d0bd
000000d0: e18b d1bd 621a 623e cb14 cb3c 57f1 133e
000000e0: c9a4 493e 4db9 223e 14b9 e9bd c9be 963e
000000f0: eafc a4be 60e5 15bf cdcb 443e 1cf8 09bd
00000100: 659a e43d f501 0cbe 19fb 09bf e0c0 503e
00000110: 39d0 c63e f27b 673c ed91 3a3e fcda 533e
00000120: aaea 91be 363b 1f3e 332b 023e

layer6.weight f4 [75, 75]
0.32976928 0.0109915575 -1.0244551 -0.5661105 0.058387067 -0.14640768 -0.657592 0.5604377
0.5672863 -0.20546989 -0.67570424 0.7473874 -0.48811188 -0.43380597 0.04077409 0.01494379
0.89498866 -0.48966175 0.048486385 0.15886462 0.04433866 0.12659664 0.122529134 0.09625598
0.37606198 0.00086037 0.19235162 -0.25015575 -0.061326228 -0.03165947 -0.5698856 -0.7073351
-0.032628454 -0.21707425 0.008356823 0.014620158 -0.15851882 -0.7028534 -0.11819386 0.5339405
0.30327472 0.091715984 -0.077970214 0.104873404 -0.85853034 -0.14163217 -0.0075598517 -0.35046124
0.1359879 -0.1125626 -0.2709405 -0.020036355 0.030928347 -0.74025565 -0.29171133 0.2699713
-0.88457096 0.83101124 0.55875075 -0.5513643 0.07929034 0.88810194 -0.3208412 -0.12140937
-0.12438182 -0.15206441 -0.024532165 -0.8423532 -0.74559724 -0.067219734 -0.66956896 1.1339474
0.6262815 0.31945908 -0.5775512 -0.52743644 0.048290078 -0.12474506 0.04572662 0.05829021
-0.23506773 -0.18060502 -0.12767187 0.2408845 -0.17020471 0.0884664 -1.6295564 -0.13662092
0.15960225 0.29748398 0.109771125 -0.06280504 -0.089065336 0.15909374 0.13046281 0.051218197
0.06841337 0.05831305 0.0004930092 -0.025962397 0.024378847 0.073569365 -0.16585624 0.14482975
0.12865435 -0.13764234 -0.021667145 0.01571228 -0.09210757 -0.025138367 0.1317061 -0.10327756
-0.11762009 0.1784472 0.031791046 -0.0943307 0.106484845 0.19216649 -0.0015297978 -0.15738547
0.047909506 0.0569939 0.27076146 0.11686335 0.11229558 0.035904657 0.006185213 -0.05467243
-0.36868292 0.26410824 0.0276215 0.1967547 -0.13064262 -0.12119225 -0.002861771 0.09751124
0.24541357 -0.06847611 0.11684072 0.028265873 0.17683686 0.25001904 0.040665023 -0.010812058
0.16384381 -0.02670925 -0.1896561 -0.2524617 -0.39614338 -0.06273975 0.23701009 -0.3118948
-0.075622305 0.016363071 -0.58139426 -0.51120543 -0.0029722196 0.266231 0.75374675 0.70469767
-0.23846759 0.6798673 -0.06321229 -0.04047935 -0.43443984 -0.26428238 -0.54169476 -0.11819584
-0.344783 -0.5938644 -0.45725542 -0.50587755 0.03841254 -0.38332736 -0.20967673 -0.2905982
-0.34592614 0.6931025 -0.39675236 -0.2850538 -0.030636337 -0.262571 -0.46261913 -0.28503987
-0.38129228 -0.36928827 -0.28920674 -0.18242702 -0.12986107 0.9339436 0.5061499 -0.6015269
0.02416801 -0.12699772 -0.05140262 -0.43605256 -0.35944742 0.12756895 -0.3926527 -0.035606734
-0.5981416 -0.38345924 -0.4911354 -0.040271554 -0.31943297 0.59147674 -0.9790504 0.51638347
-0.42297179 -0.89924884 -0.3069754 -0.1908964 -0.42839062 -0.26649573 0.48035958 -0.2462001
-0.30084983 -0.46049437 0.13297126 -0.23800324 -0.099910125 1.7293609 0.27227074 0.799059
0.08315912 1.0232891 -0.136971 -0.20306909 -0.23636207 -0.14453176 -0.38148415 -0.232321
0.59262234 -0.05582907 0.30204064 -0.28898168 0.0970747 -0.097724855 -0.05743482 -0.036071423
-0.13468784 0.24972066 -0.10310184 -0.02208987 0.014415362 -0.112482056 -0.09433014 0.32819048
0.019598573 -0.072762035 -0.047834434 -0.19673735 -0.549848 -0.0042584124 -0.098142356 -0.18336076
00000000: 85d7 a83e ef15 343c 5821 83bf 9eec 10bf
00000010: 4727 6f3d e5eb 15be f357 28bf d878 0f3f
00000020: ad39 113f b366 52be f4fa 2cbf c854 3f3f
00000030: cde9 f9be d11b debe bb02 273d ccd6 743c
00000040: fa1d 653f f2b4 fabe a999 463d 68ad 223e
00000050: 749c 353d 8da2 013e 8ef0 fa3d db21 c53d
00000060: 328b c03e 748a 613a d3f7 443e 6a14 80be
00000070: 3631 7bbd 5cad 01bd 06e4 11bf ea13 35bf
00000080: 6aa5 05bd b648 5ebe 0eeb 083c 6389 6f3c
00000090: c252 22be 33ee 33bf 9f0f f2bd 53b0 083f
000000a0: d346 9b3e 97d5 bb3d d9ae 9fbd dec7 d63d
000000b0: a5c8 5bbf 0608 11be a2b8 f7bb a86f b3be
000000c0: 6940 0b3e 3887 e6bd b7b8 8abe 4823 a4bc
000000d0: 725d fd3c 6581 3dbf 305b 95be ae39 8a3e
000000e0: 3e73 62bf 27bd 543f 4a0a 0f3f 3626 0dbf
000000f0: f962 a23d a65a 633f 4c45 a4be 7aa5 f8bd
00000100: e5bb febd c6b6 1bbe aef7 c8bc 76a4 57bf
00000110: 76df 3ebf 80aa 89bd df68 2bbf 3025 913f
00000120: fc53 203f 2490 a33e 65da 13bf 1306 07bf
00000130: d1cb 453d 577a ffbd d64b 3b3d b7c1 6e3d
00000140: 98b5 70be 86f0 38be 6abc 02be 6daa 763e
00000150: 254a 2ebe df2d b53d 4e95 d0bf 5be6 0bbe
00000160: c66e 233e d24f 983e afcf e03d ee9f 80bd
00000170: e367 b6bd 78e9 223e 0b98 053e 2cca 513d
00000180: 4f1c 8c3d aad9 6e3d 4a3d 013a 18af d4bc
00000190: 26b6 c73c 89ab 963d 38d6 29be 404e 143e
000001a0: f7bd 033e 1df2 0cbe 4c7f b1bc 0ab7 803c
000001b0: e5a2 bcbd faee cdbc f7dd 063e 2f83 d3bd
000001c0: cde2 f0bd ddba 363e 5437 023d 7430 c1bd
000001d0: ba14 da3d 4bc7 443e 7f83 c8ba a829 21be
000001e0: c23c 443d 7072 693d 3fa1 8a3e 0d56 ef3d
000001f0: 3afb e53d c310 133d 54ad ca3b 33f0 5fbd
00000200: 02c4 bcbe 3239 873e 7c46 e23c 107a 493e
00000210: 2ec7 05be a433 f8bd 8d8c 3bbb f9b3 c73d
00000220: b24d 7b3e 343d 8cbd 304a ef3d d58d e73c
00000230: b914 353e 7f02 803e 5e90 263d 0f25 31bc
00000240: acc6 273e 5bcd dabc 3535 42be a942 81be
00000250: 4ed3 cabe b37d 80bd c6b2 723e adb0 9fbe
00000260: dedf 9abd d90b 863c 41d6 14bf 5cde 02bf
00000270: 92c9 42bb 6e4f 883e 8cf5 403f 1167 343f
00000280: d930 74be c90b 2e3f 7275 81bd adcd 25bd
00000290: e66e debe 0550 87be 82ac 0abf a910 f2bd
000002a0: 6687 b0be 7f07 18bf 621d eabe 3181 01bf
000002b0: 7856 1d3d 7c43 c4be 7fb5 56be 4ac9 94be
000002c0: 3b1d b1be 2a6f 313f 2023 cbbe 92f2 91be
000002d0: 0ef9 fabc b56f 86be 6adc ecbe bff0 91be
000002e0: be38 c3be 5a13 bdbe e812 94be 26ce 3abe
000002f0: 4dfa 04be ee16 6f3f 0a93 013f abfd 19bf
00000300: fefb c53c b10b 02be 8e8b 52bd 4842 dfbe
00000310: 7e09 b8be 6fa1 023e c609 c9be 5ed8 11bd
00000320: cf1f 19bf c554 c4be 1976 fbbe c9f3 24bd
00000330: b88c a3be 056b 173f 0ca3 7abf b531 043f
00000340: c28f d8be 2c35 66bf e12b 9dbe 597a 43be
00000350: 0456 dbbe 2172 88be b1f1 f53e e11b 7cbe
00000360: fd08 9abe ebc5 ebbe 9e29 083e 1fb7 73be
00000370: ae9d ccbd b35b dd3f 1267 8b3e 218f 4c3f
00000380: 544f aa3d 23fb 823f 2042 0cbe 58f1 4fbe
00000390: e608 72be 2200 14be e451 c3be 8ee5 6dbe
000003a0: 19b6 173f 06ad 64bd 12a5 9a3e 68f5 93be
000003b0: 1acf c63d f823 c8bd c640 6bbd a1bf 13bd
000003c0: 9ceb 09be c6b6 7f3e 0f27 d3bd d1f5 b4bc
000003d0: 692e 6c3c fe5c e6bd 2930 c1bd 9508 a83e
000003e0: 308d a03c 4304 95bd 0aee 43bd 8475 49be
000003f0: d7c2 0cbf 278a 8bbb dcfe c8bd ecc2 3bbe

layer6.bias f4 [75]
0.10938788 0.07237158 0.57106686 0.055624597 -0.22409357 0.04698734 -0.26496026 0.13685034
-0.33464843 0.08046696 -0.019894319 0.3056327 -0.3702572 -0.19695832 -0.62239164 -0.61450964
-0.121248595 -0.25385442 -0.029623361 -0.18475832 0.2614596 0.28913274 -0.02015312 0.10160703
-0.3329336 -0.036809407 -0.026172632 -0.17253421 -0.16048855 -0.0038037263 -0.30218774 -0.050446965
0.6224636 0.15318696 -0.13799618 -0.26217777 -0.07015378 -0.007305414 -0.51408404 -0.71088165
-0.31658763 -0.15168679 0.2681197 -0.2993808 -0.018552843 0.03426936 -0.20375265 0.20250553
0.12888305 -0.044099268 -1.0419662 -0.45499358 -0.033113867 -0.25580153 -0.10949742 0.12878613
-0.38501143 -0.4429491 0.07946583 0.09011709 -0.55234545 0.066725284 0.14669266 -0.59867954
0.09500153 -0.0022314214 -0.074078545 -0.114566125 0.18440484 -0.17697126 -0.12671024 -0.1307467
-0.62783825 -0.35504866 -0.06321389
00000000: c106 e03d 8d37 943d 7031 123f 9ed6 633d
00000010: c978 65be cc75 403d dfa8 87be 7f22 0c3e
00000020: 0a57 abbe ddcb a43d 69f9 a2bc e47b 9c3e
00000030: 5a92 bdbe 71af 49be 0f55 1fbf 8150 1dbf
00000040: 2f51 f8bd 35f9 81be b1ac f2bc 4931 3dbe
00000050: 08de 853e 3509 943e 2818 a5bc 5917 d03d
00000060: 4676 aabe 76c5 16bd fd67 d6bc cfac 30be
00000070: 1c57 24be f047 79bb 5ab8 9abe 7aa1 4ebd
00000080: c659 1f3f 0bdd 1c3e df4e 0dbe 2a3c 86be
00000090: c9ac 8fbd 4162 efbb 039b 03bf 57fc 35bf
000000a0: c617 a2be c853 1bbe fc46 893e 7148 99be
000000b0: 22fc 97bc 075e 0c3d 89a4 50be 9c5d 4f3e
000000c0: ebf9 033e 6fa1 34bd 265f 85bf ebf4 e8be
000000d0: 68a2 07bd 6bf8 82be 2f40 e0bd 83e0 033e
000000e0: 3820 c5be 39ca e2be fbbe a23d 4f8f b83d
000000f0: 8366 0dbf 44a7 883d 9a36 163e 1043 19bf
00000100: 2a90 c23d 0a3d 12bb 7eb6 97bd a5a1 eabd
00000110: 9fd4 3c3e f437 35be 54c0 01be 77e2 05be
00000120: 02ba 20bf f0c8 b5be 4976 81bd

layer7.weight f4 [1, 75]
2.3994863 -1.7599516 2.575216 1.6045787 -3.172649 -1.1670437 -3.152227 -2.1247988
-3.4934678 1.1991438 1.7014859 -3.9411602 2.351126 2.441285 -2.7924535 -2.3353946
-3.6460564 -2.994153 -2.1468997 -3.3623297 2.1237667 2.027944 -3.7183697 -2.6898854
-2.650235 -3.4063067 -2.3125415 3.4119499 2.290505 1.3741999 -2.3756754 -4.2530975
-1.5835404 -3.3129668 -3.7155046 2.366077 2.4837716 -2.0679898 -3.4325082 -2.5644326
1.6445876 -2.5229578 1.8369366 -1.6410387 -2.771221 -2.4664826 -2.7960932 1.830831
1.7967166 1.680857 2.902977 2.4509082 -1.1815562 -3.9209027 1.2988267 -1.6643498
-3.8846955 1.4719245 -2.4823556 -1.8623718 -4.3103943 -3.496018 -2.3597682 3.0853562
1.656768 2.099131 1.9975888 -2.1150515 -3.3958414 -2.592735 -1.4156044 -2.4377139
-4.111874 -3.9055634 -4.016188
00000000: 2f91 1940 1846 e1bf 57d0 2440 d662 cd3f
00000010: ae0c 4bc0 b061 95bf 16be 49c0 b4fc 07c0
00000020: fa94 5fc0 8b7d 993f 4aca d93f f83b 7cc0
00000030: d978 1640 033e 1c40 8fb7 32c0 1b77 15c0
00000040: fd58 69c0 34a0 3fc0 ce66 09c0 6930 57c0
00000050: cbeb 0740 d6c9 0140 c5f9 6dc0 1527 2cc0
00000060: 739d 29c0 ee00 5ac0 ae00 14c0 635d 5a40
00000070: a297 1240 c8e5 af3f 110b 18c0 6019 88c0
00000080: 74b1 cabf a607 54c0 d4ca 6dc0 ce6d 1740
00000090: 1df6 1e40 f259 04c0 37ae 5bc0 aa1f 24c0
000000a0: d981 d23f 2478 21c0 bd20 eb3f 8e0d d2bf
000000b0: af5b 31c0 dada 1dc0 31f3 32c0 ac58 ea3f
000000c0: cffa e53f 5226 d73f 60ca 3940 aedb 1c40
000000d0: 3c3d 97bf 12f0 7ac0 f43f a63f 6a09 d5bf
000000e0: da9e 78c0 0668 bc3f eade 1ec0 3362 eebf
000000f0: c0ee 89c0 c2be 5fc0 7106 17c0 7a76 4540
00000100: f910 d43f 2a58 0640 fdb0 ff3f 015d 07c0
00000110: 7755 59c0 5fef 25c0 8632 b5bf 8103 1cc0
00000120: 7994 83c0 c0f4 79c0 9d84 80c0
